best_model.pth (torch, 54626 bytes, 50 tensors)

conv1.weight f4 [4, 1, 3, 3]
0	0x3ed04712	0.40679222
1	0x3e80694c	0.25080335
2	0x3f01710a	0.5056311
3	0xbf298595	-0.66219455
4	0xbf2419e8	-0.6410203
5	0xbeca3bab	-0.39498648
6	0xbe15e5cd	-0.14638443
7	0xbe81692d	-0.25275555
8	0xbe6bd5c4	-0.23030764
9	0x3d263413	0.040577006
10	0x3f107980	0.56435394
11	0x3e844e93	0.25841197
12	0xbf092c77	-0.5358347
13	0xbe4765c7	-0.19472419
14	0x3ee74567	0.45170137
15	0xbf2b9421	-0.670229
16	0x3c5b5a67	0.013388253
17	0x3f0cdd4a	0.5502516
18	0x3e22c948	0.15897095
19	0xbf11d3b6	-0.5696367
20	0xbeae9e50	-0.34105158
21	0xbea13f97	-0.31493828
22	0xbf571fb3	-0.84032744
23	0x3f391610	0.7229929
24	0x3e8dcb85	0.27694336
25	0x3f0c9f66	0.5493072
26	0x3ef35e2f	0.47532794
27	0x3e49593d	0.19662948
28	0x3f3b2771	0.7310706
29	0x3f2ca28a	0.67435515
30	0x3f07c077	0.53028053
31	0x3e714777	0.23562418
32	0xbe0261dd	-0.12732644
33	0xbf387e64	-0.72067857
34	0xbf2ab586	-0.6668323
35	0xbe7b1cb4	-0.24522668

conv1.bias f4 [4]
0	0xbdc5f3fc	-0.09665677
1	0xbe636a70	-0.22208571
2	0xbddf396e	-0.10899626
3	0x3dd5e064	0.1044319

conv2.weight f4 [8, 4, 3, 3]
0	0xbd231156	-0.039811455
1	0xbed14612	-0.40873772
2	0xbf01a7ed	-0.5064686
3	0xbf12c448	-0.5733075
4	0xbeb81ec8	-0.35960984
5	0x3cc94047	0.024566783
6	0x3d3b9ec6	0.045805715
7	0x3e88ba42	0.26704603
8	0x3ee22539	0.44169024
9	0xbe35600a	-0.17712417
10	0x3e074e84	0.13213545
11	0x3d1825f8	0.037145585
12	0xbed36c41	-0.4129353
13	0xbd08660d	-0.03330045
14	0xbd6e8d35	-0.058240134
15	0xbe6c22cd	-0.2306015
16	0xbda29021	-0.07937647
17	0x3d71be98	0.059019655
18	0x3dd1d3d8	0.10245484
19	0x3f343827	0.7039818
20	0x3ebcc102	0.36866003
21	0x3f848462	1.03529
22	0xbec53416	-0.385163
23	0x3d5d80d7	0.05407795
24	0x3ed1ed14	0.4100119
25	0x3ea34717	0.31890175
26	0xbcb55d56	-0.022139233
27	0xbf0f4e1c	-0.5597856
28	0xbf611794	-0.879266
29	0xbec8fd68	-0.39255834
30	0xbf12f4db	-0.5740487
31	0xbd9ea4bf	-0.077462666
32	0x3eae4156	0.34034222
33	0xbca9896c	-0.02069541
34	0xbd04de68	-0.032438666
35	0x3ed1d20a	0.4098056
36	0x3f2c99a0	0.67421913
37	0x3e57058c	0.2099821
38	0xbeadda1d	-0.3395547
39	0x3d079ba5	0.03310742
40	0x3e6cce46	0.23125562
41	0xbf1c4745	-0.6104625
42	0xbec966e6	-0.39336318
43	0x3d15fc3c	0.036617503
44	0x3d214f4c	0.039382264
45	0xbe7017a2	-0.23446515
46	0x3ec24dba	0.37949926
47	0x3f000b3f	0.5001716
48	0xbe18f60a	-0.14937606
49	0x3f39d25d	0.72586614
50	0x3e793d53	0.243398
51	0x3ecf0c44	0.40439045
52	0xbdb9e315	-0.090765156
53	0x3f0bfe03	0.54684466
54	0xbeae2627	-0.34013483
55	0xbe5ea671	-0.2174318
56	0xbea44299	-0.3208206
57	0xbed00231	-0.40626672
58	0xbf12c1e5	-0.5732711
59	0xbec285c9	-0.37992695
60	0x3e888198	0.26661372
61	0xbe5cac38	-0.21550071
62	0xbe33a3a3	-0.17542891
63	0x3e05e1f6	0.13074479
64	0x3e97aef4	0.29625666
65	0xbec6ff56	-0.3886668
66	0x3e690494	0.22755653
67	0x3eca9fe0	0.395751
68	0x3ebffdab	0.3749822
69	0xbe12096f	-0.14261411
70	0xbd4ed27f	-0.050493713
71	0x3f0d7a01	0.5526429
72	0x3f0e73d5	0.55645496
73	0x3cd30acf	0.02576199
74	0xbe5ae39c	-0.21375889
75	0xbf027f3f	-0.5097541
76	0xbf22ee3c	-0.63644767
77	0xbf2d2746	-0.6763805
78	0xbf1234fd	-0.57112104
79	0xbf45073b	-0.7696416
80	0xbe91c120	-0.28467655
81	0xbedb0113	-0.42774257
82	0x3eb90e3e	0.36143678
83	0x3e964782	0.2935143
84	0xbbb9af0d	-0.0056666196
85	0x3ed5441c	0.41653526
86	0xbebe037d	-0.37112036
87	0xbe5422a7	-0.20716344
88	0xbe31774b	-0.17330663
89	0xbef96c31	-0.48715356
90	0xbf23197b	-0.63710755
91	0xbe5666a9	-0.20937599
92	0x3e99699c	0.29963386
93	0x3dcf77d4	0.10130277
94	0x3e6a2e9c	0.22869343
95	0x3ebe31a0	0.37147236
96	0x3debc89a	0.11512871
97	0x3c148742	0.009065451
98	0xbf461df0	-0.7738943
99	0x3f03e6d4	0.5152409
100	0x3ea459f0	0.32099867
101	0xbe05f51d	-0.13081785
102	0xbe8cbfd9	-0.27490118
103	0xbed40f4d	-0.41417924
104	0x3dfb30d1	0.1226517
105	0xbf2e50fd	-0.6809233
106	0xbe08008b	-0.13281457
107	0x3f2cf976	0.6756815
108	0xbdb506ce	-0.088391885
109	0xbe561f5e	-0.20910403
110	0x3e2573c1	0.16157438
111	0x3dd7cfe5	0.105376996
112	0xbea0fb6e	-0.31441826
113	0x3e82cee4	0.2554847
114	0x3e90667b	0.28203186
115	0xbdb2bf39	-0.08727879
116	0xbe63f28e	-0.22260496
117	0xbe8be844	-0.27325642
118	0xbf16fd85	-0.5898059
119	0x3e607a95	0.21921761
120	0x3c969e81	0.018386127
121	0xbe6327c5	-0.2218314
122	0x3ddc5af2	0.10759534
123	0x3f16fc3b	0.58978623
124	0x3df951b3	0.12173786
125	0x3e65d919	0.22446097
126	0xbe3f2063	-0.18664698
127	0x3f04f551	0.51936823
128	0x3f149a50	0.5804796
129	0xbed31be5	-0.4123222
130	0x3d25c76a	0.04047338
131	0x3f1a63fe	0.60308826
132	0xbf356b97	-0.70867294
133	0xbf8324d5	-1.0245615
134	0xbeae8b43	-0.34090623
135	0xbeff82e6	-0.49904555
136	0xbf13ab41	-0.5768319
137	0xbecc93a9	-0.39956406
138	0xbca8606a	-0.020553786
139	0xbd879d2c	-0.06621775
140	0xbd7f7e4b	-0.0623763
141	0x3e8f570f	0.27996108
142	0x3d59478e	0.053046755
143	0x3e90feb0	0.2831931
144	0xbf645a54	-0.8920033
145	0xbeebf22e	-0.46083206
146	0x3e84f37c	0.25967014
147	0xbf69e995	-0.9137204
148	0xbeec7ed7	-0.4619052
149	0x3cb3b037	0.021934612
150	0xbea769db	-0.3269795
151	0xbe936a98	-0.28792262
152	0xbece6f4e	-0.40319294
153	0x3f19c35b	0.60063714
154	0x3dd523d2	0.10407223
155	0xbf0c2dac	-0.5475719
156	0x3da4f8ff	0.08055305
157	0xbe8db136	-0.27674264
158	0xbf381755	-0.719106
159	0xbb1b3248	-0.0023681093
160	0xbe9f7cce	-0.31149906
161	0xbed732ee	-0.42031044
162	0xbe27a25c	-0.16370529
163	0x3df0e855	0.11763064
164	0xbf17f611	-0.5935984
165	0xbcae2249	-0.021256583
166	0xbf359a93	-0.70938987
167	0xbe8c9ed8	-0.27464938
168	0xbeecbf59	-0.46239737
169	0xbecdc129	-0.40186432
170	0x3f2db0ad	0.6784771
171	0x3eb54700	0.3540573
172	0x3e10816b	0.14111869
173	0x3eea5dbe	0.45774645
174	0x3ed38ab0	0.41316748
175	0x3e8bd0be	0.27307695
176	0xbe44ee29	-0.19231476
177	0x3eea44e6	0.4575569
178	0xbbf0cf24	-0.007348912
179	0xbf044555	-0.5166829
180	0xbe8efb97	-0.27926323
181	0xbf9f2231	-1.2432309
182	0xbe246acc	-0.16056365
183	0xbeaaa498	-0.333287
184	0xbfae7576	-1.3629596
185	0xbe266aeb	-0.16251723
186	0xbeecd968	-0.46259618
187	0xbf96c77f	-1.1779631
188	0xbe90a705	-0.28252426
189	0x3e738daa	0.2378451
190	0x3edc5286	0.4303171
191	0xbea0e85c	-0.31427276
192	0x3f934d34	1.1507936
193	0xbdbb86ea	-0.09156592
194	0xbe946457	-0.28982803
195	0xbe8032dd	-0.25038806
196	0x3ed8d61c	0.42350852
197	0xbd0b2c3c	-0.033977732
198	0x3e9892d5	0.29799524
199	0x3e3a54da	0.18196431
200	0xbe9a4c30	-0.3013625
201	0xbdcdda0d	-0.100513555
202	0xbc443660	-0.011975855
203	0xbf05e270	-0.5229864
204	0xbd8904fe	-0.06690405
205	0xbe2eee00	-0.17082977
206	0x3ddd17d0	0.107955575
207	0x3dc59669	0.09647829
208	0xbdb2d9bc	-0.08732936
209	0x3e782897	0.24234234
210	0xbe7a6391	-0.24452044
211	0xbe1d9d3d	-0.15392013
212	0xbd8f0dd6	-0.06985061
213	0xbe308712	-0.17239025
214	0xbe02698f	-0.1273558
215	0xbebf6598	-0.37382197
216	0x3f02953b	0.5100896
217	0x3e94aba3	0.29037198
218	0xbeaa9f68	-0.33324742
219	0xbe6f1a43	-0.23349862
220	0xbe5e5672	-0.21712664
221	0xbdface84	-0.12246421
222	0x3c4709b9	0.012148314
223	0xbd1e4ec7	-0.038649347
224	0x3dcc3791	0.09971536
225	0xbeaafe1c	-0.33396995
226	0xbd4e78ab	-0.050408047
227	0x3e6466d6	0.22304854
228	0xbd70181d	-0.058616746
229	0xbd81d6fc	-0.06339833
230	0x3ee6e1c2	0.45094115
231	0x3d8b89b9	0.06813378
232	0xbe8b0237	-0.27150127
233	0xbde84f30	-0.11343229
234	0xbf79cec9	-0.97581154
235	0xbf1b375e	-0.6063136
236	0xbf1b45ca	-0.60653365
237	0xbf4aef5f	-0.792715
238	0xbe06f0b3	-0.13177757
239	0xbefdb539	-0.49552324
240	0x3f1b4135	0.60646373
241	0x3edd20a4	0.43188965
242	0xbc056956	-0.00814279
243	0x3ef6188b	0.480656
244	0x3f2c9166	0.6740936
245	0x3e920501	0.28519443
246	0x3e9dcd20	0.3082056
247	0x3d452ce8	0.04813853
248	0x3ec4f5ac	0.38468683
249	0xbed0430f	-0.40676162
250	0xbede2949	-0.43390873
251	0x3e9580de	0.2919988
252	0xbe19b461	-0.15010215
253	0x3e9d8783	0.3076745
254	0x3e95e120	0.2927332
255	0xbeb58f1c	-0.35460746

conv2.bias f4 [8]
0	0x3d9efbf2	0.077628985
1	0x3d161a5c	0.036646232
2	0x3a8aa37b	0.0010577285
3	0xbe0c60ae	-0.13708755
4	0x3c312776	0.010812631
5	0xbe3b1ea9	-0.18273415
6	0xbe3ecd81	-0.18633081
7	0x3d951e5f	0.072811835

conv3.weight f4 [8, 4, 3, 3]
0	0x3ea2ba58	0.31782794
1	0x3f21bd72	0.63179696
2	0x3dcae8c4	0.09907678
3	0x3ed717cd	0.42010346
4	0x3efc06a8	0.49223828
5	0xbec75c3e	-0.38937563
6	0xbeb02068	-0.34399724
7	0xbed3f4d9	-0.4139774
8	0xbf07f4fc	-0.5310819
9	0xbe8870c3	-0.2664853
10	0x3ee8ad9e	0.4544496
11	0x3ee3e1c4	0.44508183
12	0xbe06011d	-0.13086362
13	0x3f29c0be	0.66309726
14	0x3f0e17bc	0.55504966
15	0x3d064b26	0.03278651
16	0xbe33ca0b	-0.17557542
17	0xbec73657	-0.38908646
18	0xbf04d0a3	-0.51880854
19	0xbec12c83	-0.37729272
20	0x3e65ab75	0.22428687
21	0xbf3918e2	-0.72303593
22	0x3e9cd693	0.30632457
23	0x3f7a88f1	0.97865206
24	0xbc05814f	-0.008148505
25	0x3f04eb3f	0.5192146
26	0x3e30c236	0.17261586
27	0x3e272043	0.163209
28	0x3d8434ac	0.06455359
29	0xbde1a892	-0.1101848
30	0xbdd74563	-0.10511281
31	0xbe9a00aa	-0.30078632
32	0x3eb93af4	0.3617779
33	0xbe5392a0	-0.20661402
34	0x3e8b5dde	0.27220052
35	0xbde1df97	-0.110289745
36	0xbca8c662	-0.020602409
37	0xbeed6ee3	-0.46373662
38	0xbe66817a	-0.22510329
39	0x3c994b62	0.018712703
40	0xbe6160aa	-0.2200953
41	0xbe53f874	-0.20700246
42	0x3d5ff309	0.054675136
43	0x3f04c5b6	0.5186418
44	0x3f0da006	0.553223
45	0x3d8c5984	0.06853011
46	0x3f4bc19e	0.7959231
47	0x3f123def	0.57125753
48	0xbe0729fa	-0.13199607
49	0x3e9208e9	0.28522423
50	0x3ed5bd13	0.41745815
51	0xbef4c4d8	-0.4780643
52	0xbe334d9b	-0.17510073
53	0x3da84d63	0.08217885
54	0x3ead7348	0.33877015
55	0xbe45b3b1	-0.19306828
56	0xbeab757c	-0.3348807
57	0x3e2108d8	0.1572603
58	0x3e8c7b5a	0.2743786
59	0x3ef899ee	0.4855494
60	0x3e1d5aef	0.1536672
61	0x3e11522a	0.141915
62	0x3e1d46b1	0.15358998
63	0x3f04b6fd	0.5184172
64	0x3ea5a3d8	0.32351565
65	0x3f38739c	0.72051406
66	0x3e8b0b55	0.27157083
67	0x3ee6de12	0.450913
68	0x3f2a7cbf	0.665966
69	0xbf1fdfb8	-0.6245074
70	0xbf0a8a3a	-0.54117167
71	0xbf15834a	-0.58403456
72	0x3e8bee94	0.27330458
73	0x3e6b4cb9	0.22978486
74	0xbf0854ba	-0.5325428
75	0x3e1c17e8	0.15243495
76	0x3ea426a4	0.3206073
77	0xbde84441	-0.113411434
78	0x3e9ddce9	0.30832604
79	0x3f520ad5	0.8204778
80	0x3ef5b617	0.47990486
81	0xbe081f84	-0.13293272
82	0xbe5332c2	-0.20624831
83	0xbedb1c87	-0.42795202
84	0xbde5a2d4	-0.112126976
85	0xbe819f53	-0.25316867
86	0x3ebf2841	0.373354
87	0xbed6ff19	-0.419915
88	0xbcbd4e4a	-0.02310862
89	0x3f09e80b	0.53869694
90	0xbd7729f5	-0.060342748
91	0xbed85097	-0.42248985
92	0xbee8b7d7	-0.4545276
93	0x3efcaadd	0.49349108
94	0xbdd505a4	-0.104014665
95	0xbedf7141	-0.43641093
96	0x3ecb2ec7	0.39684126
97	0xbd333271	-0.043749277
98	0xbe731c65	-0.237413
99	0xbec2a5e2	-0.38017184
100	0xbe9eaee8	-0.30992818
101	0xbead1343	-0.33803758
102	0xbcdff4e0	-0.027338445
103	0x3f329b8b	0.6976859
104	0x3f355745	0.7083629
105	0x3e5812f0	0.21100974
106	0x3e89ea11	0.2693639
107	0x3ebcbd96	0.36863393
108	0xbf19f2b2	-0.6013595
109	0xbda47435	-0.08029977
110	0xbeae908f	-0.34094664
111	0xbf526dff	-0.8219909
112	0xbe9a9649	-0.30192783
113	0xbeec1dea	-0.46116573
114	0xbf613815	-0.879762
115	0xbf1b5686	-0.606789
116	0xbe8a05b0	-0.26957464
117	0xbf0ba05a	-0.5454155
118	0x3f42e000	0.76123047
119	0xbeddb1d2	-0.4329973
120	0xbf2dd11f	-0.6789722
121	0xbd942484	-0.07233527
122	0xbe09eb4d	-0.13468666
123	0x3edee62e	0.43534988
124	0x3d82e8cb	0.06392058
125	0x3ecf81f4	0.40528834
126	0x3f1caf65	0.6120513
127	0xbd296200	-0.041353226
128	0x3e25136f	0.16120695
129	0xbeb6d4e0	-0.35709286
130	0xbe0c4ad0	-0.13700414
131	0x3e4002a5	0.18751009
132	0xbf28f859	-0.6600395
133	0xbed4f780	-0.41595078
134	0x3de65640	0.1124692
135	0x3f0fae4e	0.5612534
136	0x3de46aab	0.11153158
137	0xbe9a3dc6	-0.30125254
138	0x3eb8a39c	0.36062324
139	0x3ec80e0c	0.39073217
140	0xbed414d2	-0.41422135
141	0xbea03d69	-0.31296852
142	0x3e16506c	0.14679116
143	0x3e9a0c92	0.30087715
144	0xbf307676	-0.6893076
145	0xbf80fc7f	-1.0077056
146	0x3ef160dd	0.47144213
147	0x3db103a2	0.08643271
148	0xbf9239ad	-1.1423851
149	0x3e31b5b2	0.17354468
150	0x3e41fea9	0.18944801
151	0xbe7fbf52	-0.24975327
152	0x3ea63fe2	0.32470614
153	0xbe9a5dcd	-0.3014969
154	0xbde93c5c	-0.11388466
155	0xbed6f592	-0.4198423
156	0x3f15ae75	0.58469325
157	0x3ee26e2d	0.44224682
158	0x3e80f884	0.25189602
159	0x3f0ce613	0.55038565
160	0x3d9f8206	0.07788472
161	0x3da1df8e	0.07903968
162	0xbec9945a	-0.39370996
163	0x3e13adce	0.1442177
164	0xbd12c98e	-0.03583675
165	0xbe41cb49	-0.18925203
166	0x3e7585b9	0.23976792
167	0xbe034e61	-0.12822868
168	0x3f3ef687	0.7459492
169	0x3ef9a0b5	0.48755422
170	0xbe7e7bd4	-0.24851924
171	0x3efd0997	0.4942138
172	0xbe98ec7b	-0.2986792
173	0x3b99c8c4	0.0046931226
174	0x3e5f5d2b	0.21812885
175	0xbf5c7a26	-0.86123884
176	0xbe8f3061	-0.27966598
177	0xbeae00a6	-0.3398487
178	0xbf80e0dc	-1.0068622
179	0x3dc88e03	0.097927116
180	0xbeb23da0	-0.3481264
181	0xbe35f402	-0.17768863
182	0x3e1815e4	0.148521
183	0xbd16354c	-0.03667192
184	0x3e5db331	0.21650387
185	0x3d837639	0.064190336
186	0x3ebd4081	0.36963275
187	0x3e4678b1	0.19381978
188	0x3d911895	0.07084767
189	0x3e1ed510	0.15510964
190	0x3d48ada7	0.048993733
191	0xbdaeace0	-0.08529067
192	0xbf12def5	-0.57371455
193	0xbf153baf	-0.58294195
194	0x3d3980ae	0.045288734
195	0xbf09039c	-0.5352113
196	0x3e024372	0.12721041
197	0x3e636fe7	0.22210656
198	0x3e7d8b1d	0.24760099
199	0x3f284f36	0.65745866
200	0x3ecb9e8e	0.39769405
201	0x3f24b976	0.6434549
202	0x3eb9e8de	0.36310476
203	0x3e77d88a	0.24203697
204	0xbf2a2af9	-0.6647182
205	0xbf2e23fd	-0.68023664
206	0xbdb79a77	-0.08965009
207	0xbe9b9063	-0.30383596
208	0xbe83ffee	-0.25781196
209	0xbe355e7b	-0.17711823
210	0xbc388f94	-0.0112647
211	0xbe9853e5	-0.29751506
212	0xbf504cef	-0.8136739
213	0xbf4e3a33	-0.80557555
214	0xbeb85b71	-0.36007264
215	0xbec35f39	-0.38158587
216	0x3ef03243	0.46913347
217	0x3f5a71ac	0.853297
218	0x3eb90772	0.36138493
219	0x3e25728c	0.16156977
220	0x3f0a899e	0.5411624
221	0x3f01ddfc	0.50729346
222	0xbeb06b53	-0.34456882
223	0x3d0c0876	0.034187756
224	0x3e973876	0.29535264
225	0x3f0296b8	0.5101123
226	0x3ef284cd	0.47366944
227	0xbdffb08f	-0.12484848
228	0x3f61e44c	0.8823898
229	0x3f5a799f	0.8534183
230	0xbf35ea23	-0.7106039
231	0xbe424f09	-0.18975462
232	0x3f073159	0.52809674
233	0xbe4cb026	-0.1998907
234	0x3f7d2864	0.98889756
235	0x3e09eabe	0.13468453
236	0xbdd1df95	-0.10247723
237	0x3d80242e	0.06256901
238	0x3e3a65e3	0.18202929
239	0xbeb9ed45	-0.36313835
240	0xbeb38ad5	-0.35066858
241	0xbee90f54	-0.45519507
242	0xbe2c82e4	-0.16846806
243	0x3e14bf36	0.14526066
244	0xbe0dc5e2	-0.13845018
245	0x3c8ae58b	0.016955158
246	0xbe6bdacc	-0.23032683
247	0xbef14e45	-0.47130027
248	0x3ec67ed2	0.3876863
249	0x3d08f9b2	0.033441253
250	0xbd83a0e3	-0.06427171
251	0xbe4b70d2	-0.19867256
252	0x3df90055	0.121582665
253	0xbe71542d	-0.23567267
254	0x3dfa6df3	0.122280024
255	0xbe233bd2	-0.15940788

conv3.bias f4 [8]
0	0xbe25e95c	-0.16202301
1	0xbba29a87	-0.0049622688
2	0xbd80f341	-0.06296397
3	0x3e61b350	0.22041059
4	0x3e11f334	0.14252931
5	0x3e2fe741	0.1717806
6	0x3ddfa458	0.10920018
7	0x3e3f2781	0.18667413

conv4.weight f4 [16, 8, 3, 3]
0	0xbd752bd2	-0.059856243
1	0xbf2e3844	-0.68054605
2	0xbec70a52	-0.3887506
3	0x3dba7cdd	0.09105847
4	0xbedbf520	-0.42960453
5	0xbe860f91	-0.2618375
6	0x3df1d401	0.11808015
7	0xbd438f8e	-0.047744326
8	0x3ecd43a5	0.4009067
9	0x3d961949	0.073290415
10	0xbd80a117	-0.062807254
11	0x3ead20da	0.33814126
12	0xbf800303	-1.0000919
13	0xbf25c868	-0.6475892
14	0xbf10d6aa	-0.5657755
15	0xbd5d47a6	-0.054023407
16	0x3ee1e41a	0.4411934
17	0x3edc2706	0.42998523
18	0xbe911074	-0.28332865
19	0xbee78eef	-0.45226237
20	0xbe5ab537	-0.2135819
21	0x3c52f5c6	0.01287598
22	0x3dba27d8	0.09089631
23	0xbec841a2	-0.39112574
24	0x3db1e11c	0.08685514
25	0xbde6a1f6	-0.1126136
26	0x3f01c66a	0.5069338
27	0xbe3ed86c	-0.18637246
28	0xbdc8c859	-0.09803838
29	0x3ea7c8f5	0.32770506
30	0xbf1eb1c0	-0.61989975
31	0xbe9aef0d	-0.30260506
32	0xbe4f49ca	-0.20242992
33	0xbe911cd1	-0.28342298
34	0x3e3b31f3	0.18280773
35	0x3e58127d	0.21100803
36	0xbdc8e487	-0.09809213
37	0xbea7e5b1	-0.32792428
38	0xbdbfd747	-0.09367233
39	0xbf103d2b	-0.56343335
40	0xbf27a3ae	-0.6548413
41	0xbed28b6c	-0.41121995
42	0xbf2c547b	-0.67316407
43	0xbf216baa	-0.6305491
44	0xbe898c65	-0.26864925
45	0x3ee351ba	0.4439829
46	0x3ec3f36f	0.38271663
47	0x3efb6ec0	0.49107933
48	0x3c57e958	0.013178192
49	0x3e6c283a	0.2306222
50	0x3e165229	0.14679779
51	0xbee3e01b	-0.44506916
52	0xbeb5e8fc	-0.35529315
53	0xbe94712e	-0.289926
54	0xbe03ccc2	-0.12871078
55	0xbf06cb7b	-0.52654237
56	0xbf0f10a6	-0.5588478
57	0xbea1f2db	-0.31630597
58	0xbf18c6f8	-0.596786
59	0xbf1f0736	-0.6212038
60	0x3e2f6272	0.17127398
61	0xbe904b31	-0.28182366
62	0xbf08f134	-0.53493047
63	0x3e4a5a11	0.1976092
64	0x3e815411	0.2525945
65	0xb9d04876	-0.0003972684
66	0x3edd5f61	0.4323683
67	0x3e8f77ac	0.2802099
68	0x3e938820	0.28814793
69	0x3d2b2c8c	0.04179053
70	0x3e46c694	0.19411689
71	0x3e66bb24	0.22532326
72	0xbd593781	-0.05303145
73	0xbd8b7c5e	-0.068108305
74	0x3d1acbba	0.037791945
75	0xbe909532	-0.28238827
76	0xbf216dc2	-0.630581
77	0xbd6364ad	-0.055515934
78	0xbeabf520	-0.33585453
79	0xbe29bfaa	-0.1657702
80	0x3ef24efe	0.4732589
81	0xbe7f4cb3	-0.24931602
82	0xbeecc91c	-0.46247184
83	0xbf322595	-0.69588596
84	0x3f036b0e	0.5133523
85	0x3e9d661f	0.30741975
86	0x3e494aab	0.1965739
87	0x3f1d4d2f	0.614459
88	0x3f259139	0.6467472
89	0x3ece81cd	0.40333405
90	0xbc27128d	-0.010197294
91	0xbe5c0b55	-0.21488698
92	0xbe537766	-0.20651016
93	0x3e12a0d3	0.14319162
94	0xbd882d48	-0.06649262
95	0x3f38ce02	0.7218934
96	0x3ecd3735	0.40081182
97	0x3ebc10e2	0.3673163
98	0xbe0bded4	-0.13659221
99	0xbe576c07	-0.21037303
100	0x3e1bad21	0.15202762
101	0x3e9704c4	0.29495823
102	0x3eb939c6	0.3617689
103	0x3e9a94f7	0.30191776
104	0x3e067173	0.13129215
105	0xbe31ddd4	-0.17369777
106	0x3ce9ae2d	0.028525436
107	0x3d215218	0.03938493
108	0xbf14b8ef	-0.58094686
109	0xbf73cfb6	-0.95238817
110	0xbf2729a3	-0.6529791
111	0xbf3c7dff	-0.73629755
112	0xbf18d5ef	-0.59701437
113	0xbe05d49c	-0.13069385
114	0xbdcdb4d6	-0.10044257
115	0x3e327fa8	0.1743151
116	0x3c007b03	0.007841828
117	0xbe31864e	-0.1733639
118	0x3e2aeb51	0.16691329
119	0x3d9d0fb7	0.07669013
120	0xbefefc66	-0.4980194
121	0xbf4f7cb2	-0.81049645
122	0xbf5dbd4f	-0.86616987
123	0xbebe141c	-0.37124717
124	0xbcdefca1	-0.027220072
125	0xbe127c03	-0.14305119
126	0xbd2b1cc7	-0.04177549
127	0x3e1c6f10	0.15276742
128	0x3e444ce1	0.19169952
129	0xbe011bd7	-0.12608276
130	0xbe069ae2	-0.1314502
131	0xbefb479a	-0.49078065
132	0x3e5ea0c0	0.21741009
133	0xbd78e9a9	-0.06076971
134	0xbeb4a69d	-0.35283366
135	0x3e84faf9	0.25972727
136	0x3f178d44	0.5919993
137	0x3e9b0154	0.3027445
138	0x3edb5355	0.42837015
139	0x3eb5b94b	0.3549293
140	0xbd3c57c0	-0.045982122
141	0x3dea41d4	0.11438337
142	0x3ee32694	0.4436537
143	0xbe253615	-0.16133912
144	0xbe2cd94e	-0.1687977
145	0x3cf20e9a	0.029547978
146	0x3e041503	0.1289864
147	0x3f0bec15	0.5465711
148	0x3ebdc978	0.3706777
149	0xbe55e0d0	-0.2088654
150	0xbeb5d435	-0.35513464
151	0x3c21bec5	0.009872143
152	0xbe55a626	-0.20864162
153	0x3e0f4641	0.13991643
154	0xba119c6e	-0.0005554621
155	0xbf0296ac	-0.5101116
156	0x3da32b9e	0.07967304
157	0xbe950a4e	-0.29109424
158	0xbed6c0fb	-0.41944107
159	0xbf119772	-0.5687171
160	0xbf414cf0	-0.7550802
161	0xbedd12bb	-0.43178353
162	0xbe1c4ddd	-0.15264077
163	0x3e754d88	0.23955357
164	0xbef75e88	-0.4831431
165	0x3e314f50	0.17315412
166	0x3c92e805	0.017932901
167	0xbed859da	-0.4225605
168	0xbd8246aa	-0.06361134
169	0xbd422ad0	-0.04740411
170	0x3eb97726	0.36223716
171	0x3e4e8380	0.20167351
172	0xbed844f1	-0.42240098
173	0xbd1fe47f	-0.03903627
174	0xbe428044	-0.18994242
175	0xbf02e383	-0.51128405
176	0x3d476509	0.04868034
177	0xbf28fb21	-0.6600819
178	0xbf28530c	-0.6575172
179	0x3ebc9a11	0.36836293
180	0x3f128bec	0.57244754
181	0x3eb238cb	0.34808955
182	0x3c6acc43	0.014330926
183	0xbe9cb6bb	-0.30608162
184	0xbf1e0ee5	-0.6174148
185	0xbeedf151	-0.46473172
186	0xbf0d5521	-0.5520802
187	0xbf2e772f	-0.6815061
188	0xbef0bc83	-0.47018823
189	0x3e6c5369	0.23078693
190	0x3eab81fc	0.33497608
191	0x3e71b4a2	0.23604062
192	0x3f628f03	0.8849947
193	0x3f0ec47c	0.5576856
194	0x3f0079ed	0.50186044
195	0x3e3a3fa1	0.18188335
196	0xbe3e5f21	-0.18590976
197	0x3e1748f3	0.14773922
198	0x3d7a3d12	0.061093397
199	0x3e23b11e	0.15985534
200	0xbe69d990	-0.228369
201	0xbd7f7db5	-0.062375743
202	0x3e0a4ac7	0.13505088
203	0x3e2afe34	0.16698533
204	0x3eeea3c5	0.4660932
205	0x3dea8da9	0.11452801
206	0xbde7b220	-0.113132715
207	0x3c977dd1	0.018492611
208	0x3db71fa1	0.089415796
209	0xbe99af50	-0.30016565
210	0xbd02cffc	-0.03193663
211	0x3e905c54	0.2819544
212	0xbe0041a9	-0.12525047
213	0x3e3b673a	0.18301097
214	0x3ce9b8b2	0.028530452
215	0x3c937b6d	0.01800319
216	0x3ec968e0	0.39337826
217	0x3e20474e	0.156522
218	0x3f12ee4d	0.5739487
219	0x3ce8721a	0.02837472
220	0x3eb97d17	0.36228248
221	0x3d9f3e99	0.077756114
222	0x3f45ed4f	0.7731523
223	0xbdb80079	-0.08984465
224	0x3e7a739e	0.24458167
225	0x3e402216	0.18763003
226	0x3ee7149a	0.45132905
227	0x3e8d085a	0.27545434
228	0xbe18607e	-0.14880559
229	0x3e7af799	0.24508514
230	0x3e473d54	0.19456989
231	0x3e0a6d8c	0.13518351
232	0x3db2cd33	0.08730545
233	0x3dbcf4b4	0.09226361
234	0x3e93fdc7	0.28904554
235	0x3da3eee5	0.0800455
236	0xbe8f6569	-0.28007057
237	0x3dd3871a	0.10328503
238	0xbefa03ed	-0.4883112
239	0xbf6d060a	-0.9258734
240	0xbe1310fa	-0.14361945
241	0xbf41f499	-0.7576385
242	0xbf3d45b9	-0.73934513
243	0xbdb26cff	-0.087121956
244	0xbe193bfc	-0.14964288
245	0xbecb7748	-0.39739442
246	0xbec0dfa2	-0.37670618
247	0xbea00e63	-0.31260976
248	0xbed48c4f	-0.41513297
249	0xbefb7ae2	-0.4911719
250	0xbe6c8a9b	-0.23099749
251	0x3cb45238	0.022011861
252	0x3c1057d3	0.008810001
253	0x3c5b21ce	0.013374759
254	0x3eb02e0c	0.3441013
255	0xbe9e91b1	-0.3097053

conv4.bias f4 [16]
0	0x3dd26866	0.10273819
1	0x3e1bb128	0.15204298
2	0x3dbebf0c	0.09313783
3	0x3d07824f	0.033083256
4	0x3da0c967	0.078509144
5	0x3dfe3ad1	0.12413562
6	0x3d133c90	0.03594643
7	0x3e00eed0	0.125911
8	0x3e35d01e	0.17755172
9	0xbd9dd116	-0.077058956
10	0xbcff1e57	-0.031142397
11	0xbd0672b2	-0.032824226
12	0x3e00cf70	0.12579131
13	0xbd79c77f	-0.06098127
14	0xbdc4b84d	-0.09605465
15	0x3e13f514	0.14448959

conv5.weight f4 [16, 8, 3, 3]
0	0xbe530d20	-0.20610476
1	0xbe3fd438	-0.18733299
2	0xbe7ac6b7	-0.24489866
3	0xbee4c1e7	-0.44679186
4	0xbe99c621	-0.30033973
5	0xbead0995	-0.33796373
6	0xbed18fb1	-0.4092994
7	0x3dcfdaaa	0.10149129
8	0x3ea1e2c5	0.31618324
9	0xbf62e5a5	-0.8863166
10	0xbf8d068f	-1.1017627
11	0x3cc0d824	0.023540564
12	0xbe8f4231	-0.27980188
13	0xbe17a868	-0.14810336
14	0xbe3f570d	-0.18685551
15	0xbbc9d3ac	-0.0061592665
16	0x3e3ac40b	0.18238847
17	0xbeb94b8d	-0.36190453
18	0xbe117514	-0.14204818
19	0xbb0ae0b8	-0.0021191072
20	0x3ce568a1	0.028003993
21	0x3f237d10	0.63862705
22	0x3eb3fb2b	0.35152563
23	0x3e22b320	0.15888643
24	0x3f0219e0	0.5082073
25	0x3eac4be6	0.33651656
26	0x3e52346b	0.20527808
27	0x3e42abbd	0.19010825
28	0xbe9198ef	-0.28436992
29	0xbf03856e	-0.5137547
30	0x3e88c77c	0.26714694
31	0xbf1bd256	-0.6086782
32	0xbdfdf1e2	-0.12399651
33	0x3de3d3ef	0.111244075
34	0xbef0b42c	-0.4701246
35	0x3cb6f41f	0.022333203
36	0xbe8df5bd	-0.27726546
37	0xbe7d47ad	-0.24734373
38	0xbeb188b6	-0.34674615
39	0xbf356282	-0.70853436
40	0xbf6d1692	-0.92612565
41	0xbf07beb4	-0.53025365
42	0xbcee574f	-0.029094366
43	0x3e2c53e4	0.16828877
44	0xbd7f17cc	-0.062278554
45	0x3e224453	0.15846376
46	0x3e07420a	0.13208786
47	0xbd3e9486	-0.04652836
48	0xbececb79	-0.40389612
49	0xbf15b542	-0.584797
50	0xbe90f5fd	-0.28312674
51	0xbe9de6dc	-0.30840194
52	0xbeee2510	-0.4651265
53	0x3db9a898	0.0906536
54	0x3e1c37bb	0.15255634
55	0xbef95e58	-0.4870479
56	0xbed550f0	-0.41663313
57	0x3c5de70a	0.013543854
58	0xbef9ed3a	-0.48813802
59	0x3e3aca77	0.18241297
60	0x3db785bf	0.08961057
61	0xbe44b92d	-0.19211264
62	0x3e45b33c	0.19306654
63	0xbea35332	-0.3189941
64	0xbf36ef84	-0.7145922
65	0xbf2f6f55	-0.68529254
66	0xbdebca66	-0.11513214
67	0x3e585c0f	0.21128868
68	0xbebad939	-0.36493853
69	0x3ee6295f	0.4495344
70	0x3f2bf49f	0.6717014
71	0xbda9a094	-0.08282581
72	0x3e255d71	0.16148926
73	0xbe4ae751	-0.19814803
74	0x3dfbcc82	0.12294866
75	0xbe79ecc7	-0.2440673
76	0x3db0a946	0.08626036
77	0x3d18f10a	0.037339248
78	0xbf04d64a	-0.5188948
79	0x3e78095b	0.24222319
80	0x3e43af49	0.19109835
81	0xbf0011b3	-0.50027007
82	0xbeffcb04	-0.49959576
83	0xbeaaf2ed	-0.33388463
84	0xbeb177de	-0.34661764
85	0x3d6ffbc2	0.058589704
86	0x3e8070a0	0.25085926
87	0x3f6c4f0e	0.9230813
88	0x3f42276d	0.7584141
89	0x3e907f0b	0.28221926
90	0x3e8eb0e8	0.27869344
91	0xbe4549a7	-0.19266377
92	0xbe022cf6	-0.12712464
93	0x3ee5013b	0.447275
94	0xbe01e0e3	-0.12683444
95	0xbcef126d	-0.02918359
96	0xbe27cf85	-0.16387756
97	0xbf1aeabb	-0.6051442
98	0xbda2fb5a	-0.07958098
99	0x3d50228d	0.0508142
100	0xbe835271	-0.25648835
101	0xbee83093	-0.4534956
102	0xbf1602af	-0.58597845
103	0xbeea8c4f	-0.45810172
104	0xbe95ffbd	-0.29296675
105	0x3e8c4aad	0.27400723
106	0x3f161a4a	0.58633864
107	0x3ed5f605	0.4178926
108	0x3e6fdef8	0.234249
109	0xbe990004	-0.29882824
110	0x3cf0cbb0	0.029394
111	0xbf23d353	-0.6399433
112	0xbc40ef07	-0.011775739
113	0xbf77ec23	-0.9684469
114	0x3f112b8a	0.5670706
115	0x3ea26284	0.31715786
116	0xbf23a55b	-0.6392419
117	0x3f086676	0.53281343
118	0x3e9fc10a	0.31201965
119	0xbe1fba4e	-0.15598413
120	0xbeaa6cc0	-0.33286095
121	0xbd44e03e	-0.048065417
122	0xbf5719eb	-0.8402392
123	0xbbfe0c9e	-0.007752969
124	0x3d7ebef4	0.062193826
125	0xbf28fd28	-0.66011286
126	0xbca636d0	-0.020289809
127	0xbeac9bac	-0.33712518
128	0x3dcf26a1	0.1011479
129	0x3ef9a5fe	0.48759454
130	0xbc4dda59	-0.012564265
131	0x3cb798cb	0.022411725
132	0x3f286148	0.6577344
133	0x3e939cc1	0.2883053
134	0xbd956479	-0.07294554
135	0xbe7b5167	-0.24542771
136	0xbeda8230	-0.4267745
137	0xbd5cdaf1	-0.053919736
138	0x3f03c297	0.51468796
139	0x3ee9a86f	0.45636317
140	0x3f15b8e2	0.58485234
141	0x3e2fe964	0.17178875
142	0xbd9ac98c	-0.07557973
143	0xbec9bc27	-0.3940136
144	0x3ee914a4	0.4552356
145	0x3e8e4cf1	0.27793077
146	0x3ea8ac8b	0.3294414
147	0x3e5871cc	0.2113716
148	0x3e55b489	0.2086965
149	0x3da2c009	0.07946784
150	0xbf0fbc59	-0.5614677
151	0xbea05576	-0.31315202
152	0x3e98f0a9	0.2987111
153	0xbe3de740	-0.18545246
154	0x3ed30e6f	0.4122195
155	0x3e303cf5	0.17210753
156	0x3d1b7ba5	0.037959713
157	0x3f0d836e	0.5527867
158	0x3e4057fb	0.18783562
159	0x3ba97ac7	0.005172107
160	0xbd771cc1	-0.060330156
161	0x3e609c23	0.21934561
162	0x3e80e515	0.25174776
163	0x3d265c6a	0.040615477
164	0x3efe2cfd	0.49643698
165	0xbf22ed83	-0.63643664
166	0xbf1586fa	-0.5840908
167	0xbec5ff97	-0.38671562
168	0xbf196657	-0.59921783
169	0xbe8b5f50	-0.27221155
170	0xbf8932de	-1.0718648
171	0xbe7211c6	-0.23639593
172	0x3e3a2c8c	0.18181056
173	0xbe2f41fd	-0.17115016
174	0xbf17d889	-0.5931478
175	0xbf345c87	-0.70453686
176	0x3dd5b78d	0.104354
177	0xbe2a9dfb	-0.16661827
178	0xbf2175c4	-0.6307032
179	0xbe5a0b15	-0.2129329
180	0xbf2c9c45	-0.6742595
181	0xbe6ccc2a	-0.23124757
182	0xbf59d7c4	-0.8509486
183	0x3f0e39cd	0.55556947
184	0x3edb2419	0.42800978
185	0x3e930a26	0.2871868
186	0x3eeeed48	0.46665406
187	0x3e9e71b5	0.30946127
188	0xbe1a62f5	-0.15076812
189	0x3e5ee47e	0.2176685
190	0x3dcbff47	0.099608
191	0x3e3e6ee9	0.18596996
192	0xbf0b54a5	-0.5442603
193	0xbf0b1b47	-0.54338497
194	0xbe4163af	-0.18885683
195	0x3eb83abe	0.35982317
196	0x3ca20469	0.019777494
197	0xbe24cfc4	-0.16094881
198	0xbcd6e4b5	-0.026232103
199	0xbe9728ec	-0.29523408
200	0x3ca9d2da	0.020730425
201	0x3eb7a61a	0.35868913
202	0xbebd9384	-0.37026608
203	0xbef2f9a5	-0.4745609
204	0xbe9630d4	-0.29334128
205	0xbf0cb863	-0.5496885
206	0xbf2dc487	-0.67878
207	0x3e0ed1ee	0.1394727
208	0x3e05002c	0.12988347
209	0xbeb3b2da	-0.3509739
210	0xbe86da94	-0.26338637
211	0xbd204303	-0.039126407
212	0xbeee0c0a	-0.4649356
213	0xbedb3e3e	-0.42820925
214	0xbe2e732b	-0.1703612
215	0x3ed32c94	0.41244948
216	0xbe3fae58	-0.1871885
217	0x3f0567bb	0.52111405
218	0x3efdfc19	0.49606398
219	0x3dc088e2	0.09401108
220	0x3eab360b	0.3343967
221	0xbdc7f061	-0.097626455
222	0x3ee43509	0.44571713
223	0x3e114908	0.14188015
224	0xbe138631	-0.14406659
225	0xbebb52f3	-0.36586723
226	0x3de18787	0.11012178
227	0x3f057c7c	0.52143073
228	0x3cc5fcfe	0.024168488
229	0x3d3a120b	0.045427363
230	0xbe99e6b9	-0.3005884
231	0xbf10f06d	-0.5661686
232	0xbe853b6c	-0.26021898
233	0x3e3f593d	0.18686385
234	0x3e813890	0.25238466
235	0x3e673aaf	0.2258098
236	0xbf3a8954	-0.72865796
237	0x3ed3ff35	0.41405645
238	0x3ed36212	0.4128576
239	0x3f00bbc5	0.50286514
240	0x3dfac267	0.122441106
241	0x3e7b5a91	0.24546267
242	0x3e7e41da	0.24829808
243	0xbdb71304	-0.08939174
244	0xbf5b69c7	-0.8570828
245	0xbd58a45c	-0.05289112
246	0xbed0a7de	-0.40753073
247	0xbe548a8d	-0.20755978
248	0x3ef4c69d	0.4780778
249	0xbf503e53	-0.813451
250	0xbf18de87	-0.5971455
251	0xbdf39cdf	-0.11895155
252	0xbf0ed618	-0.5579543
253	0xbe530b93	-0.20609884
254	0x3f339b20	0.70158577
255	0xbe8dbb81	-0.27682117

conv5.bias f4 [16]
0	0xbe08f401	-0.1337433
1	0x3d39e264	0.04538192
2	0x3e1e430c	0.15455264
3	0xbdd33ae8	-0.1031397
4	0xbdd47d60	-0.10375476
5	0xbd27d4f6	-0.04097458
6	0x3dd42aa7	0.10359698
7	0x3de036d4	0.10947958
8	0x3de3dbe2	0.11125924
9	0x3d609172	0.054826207
10	0x3d234bb3	0.039867114
11	0x3e234b23	0.15946631
12	0x3ccd2bfc	0.025045387
13	0x3d84c0ab	0.06482061
14	0xbd2e2fa1	-0.04252589
15	0xbd119e68	-0.03555146

conv6.weight f4 [32, 16, 3, 3]
0	0xbee9aeef	-0.45641276
1	0xbf0a17c1	-0.53942496
2	0xbf0eca26	-0.55777204
3	0x3e76246c	0.24037331
4	0x3e0375d3	0.12837915
5	0x3c627ff6	0.013824454
6	0x3ed76ac1	0.42073634
7	0x3e2192bd	0.15778632
8	0xbe0c54c0	-0.13704205
9	0x3e4d6030	0.20056224
10	0x3c86538e	0.016397264
11	0xbe16700b	-0.14691179
12	0x3f3c8334	0.736377
13	0x3f6abad4	0.9169133
14	0x3f69bce5	0.91303855
15	0x3e1485f3	0.14504223
16	0x3dcb04bb	0.09913012
17	0x3e81348b	0.252354
18	0xbf1d746a	-0.6150576
19	0xbe25dd9f	-0.16197823
20	0x3e6e280a	0.23257461
21	0xbea6b594	-0.32560408
22	0xbe68bd0e	-0.22728369
23	0x3d9b7e96	0.07592504
24	0xbe7ba97d	-0.24576373
25	0xbd930da7	-0.07180338
26	0x3e657527	0.22407971
27	0xbda6b2ae	-0.08139549
28	0xbe78913b	-0.24274151
29	0xbe952c79	-0.29135492
30	0xbc28366d	-0.010266882
31	0xbe9d8b58	-0.30770373
32	0xbee29d10	-0.44260454
33	0xbf18faf7	-0.5975794
34	0xbf174fd7	-0.591062
35	0xbf9488f6	-1.1604297
36	0x3e8437c3	0.25823793
37	0xbe02781d	-0.12741132
38	0x3e504f78	0.20342815
39	0x3f72ae09	0.94796807
40	0x3eaee93f	0.34162328
41	0x3eafe9ca	0.34358054
42	0x3f29c7f9	0.6632076
43	0x3dfcb8ae	0.12339912
44	0x3cdf0ad8	0.02722685
45	0x3d250b9f	0.040294286
46	0xbe069039	-0.13140954
47	0xbe8716de	-0.26384634
48	0xbedd18b7	-0.43182918
49	0x3d1348d7	0.035958137
50	0x3e57329e	0.21015403
51	0xbea36597	-0.31913444
52	0xbeadb259	-0.3392513
53	0xbdfec824	-0.124405175
54	0xbe4d6c58	-0.20060861
55	0x3e532323	0.20618872
56	0xbd60101f	-0.054702874
57	0xbe23ad3b	-0.15984051
58	0x3e2dc950	0.16971326
59	0x3e8d2f1c	0.27575004
60	0xbee28021	-0.4423838
61	0xbd4cea4f	-0.05002814
62	0x3beab136	0.0071622385
63	0x3ec14989	0.37751415
64	0x3eefa955	0.46808878
65	0x3ef7e3b3	0.48415908
66	0x3ea33246	0.31874293
67	0x3ecb4529	0.39701203
68	0x3ebf56c1	0.37370875
69	0xbf7c35e4	-0.9851973
70	0xbf4f0e5d	-0.8088129
71	0xbe4476e8	-0.19185984
72	0x3e782c17	0.24235569
73	0x3efb690d	0.49103585
74	0x3f46a927	0.77601856
75	0x3ebf85f0	0.37406874
76	0x3f2d27ea	0.6763903
77	0x3f54aea0	0.83078957
78	0xbec175ff	-0.37785336
79	0x3d884f4a	0.06655748
80	0x3f0e3a55	0.5555776
81	0x3d2ce4b7	0.042210307
82	0xbddd8a98	-0.1081745
83	0xbf2e64f8	-0.68122816
84	0x3dfacf68	0.12246591
85	0x3e93d022	0.2886973
86	0xbea3c021	-0.3198252
87	0x3ea41f06	0.3205492
88	0x3da137db	0.07871982
89	0xbe815c2a	-0.25265628
90	0xbec83964	-0.39106286
91	0xbddf0d9d	-0.108912684
92	0xbf37fd16	-0.71870553
93	0x3e59be00	0.21263885
94	0x3e6a30e5	0.22870214
95	0xbe0e175b	-0.13876097
96	0x3edae05d	0.427493
97	0x3d99ae9a	0.07504006
98	0x3e0bf5e0	0.13668013
99	0x3dab8fd1	0.0837704
100	0x3ee1df94	0.4411589
101	0xbea2e222	-0.3181315
102	0x3eb9ee4e	0.36314625
103	0xbea0053e	-0.31254
104	0xbf0bf4ca	-0.54670393
105	0x3f0dfc93	0.5546352
106	0x3e66abe5	0.2252651
107	0xbd351619	-0.044210527
108	0xbe290628	-0.16506255
109	0xbeaa7742	-0.33294111
110	0x3cf6f82c	0.030147634
111	0x3ee11309	0.43959835
112	0xbe3556c4	-0.1770888
113	0xbd1ff305	-0.03905012
114	0xbed7ff71	-0.42187074
115	0xbe87f789	-0.26556042
116	0xbdac44f4	-0.08411589
117	0xbf2ad878	-0.66736555
118	0xbf30e14a	-0.69093764
119	0xbf3b756d	-0.7322605
120	0xbcd34728	-0.025790766
121	0xbda8d793	-0.082442425
122	0xbdd31990	-0.1030761
123	0xbe2be62e	-0.16787025
124	0x3ea93941	0.33051494
125	0x3e5e141d	0.2168736
126	0xbeacd610	-0.33757067
127	0xbf2ee7d5	-0.683225
128	0xbf51c4f1	-0.81941134
129	0xbda86da1	-0.08224035
130	0x3e87909b	0.26477513
131	0xbd4cb13e	-0.04997372
132	0x3e6bc851	0.23025633
133	0x3e88dc3a	0.2673052
134	0x3e3bc34e	0.18336222
135	0xbe3519dd	-0.17685647
136	0x3e27ea8a	0.16398063
137	0x3ed8e6bc	0.42363536
138	0x3ebad79c	0.36492622
139	0x3e87748e	0.26456112
140	0xbe8b2910	-0.27179766
141	0xbeaab8b7	-0.3334405
142	0x3ddec439	0.1087727
143	0xbd46ac7f	-0.04850435
144	0xbdfa5dc1	-0.122249134
145	0xbe52ca5d	-0.20585008
146	0xbf1063d3	-0.5640232
147	0x3db2e356	0.08734767
148	0x3f23e075	0.6401437
149	0x3f061292	0.52372086
150	0xbee9b3b8	-0.45644927
151	0x3dcd6f75	0.10031024
152	0x3f0209b5	0.5079606
153	0x3e8259e2	0.254592
154	0x3f08ba32	0.5340911
155	0x3f174d0e	0.5910195
156	0x3f07f0c6	0.53101766
157	0x3f1dbffd	0.61621076
158	0x3f224658	0.63388586
159	0xbe10f660	-0.14156485
160	0x3da0f867	0.07859879
161	0x3e923f8b	0.28564104
162	0xbeb8eb74	-0.36117136
163	0xbdf8ab9c	-0.12142107
164	0xbd15c34b	-0.0365632
165	0xbd5df16c	-0.054185316
166	0xbe501a1d	-0.20322461
167	0xbddc7276	-0.10764019
168	0x3e8eec5e	0.2791471
169	0xbe176e92	-0.14788273
170	0xbeda80e0	-0.4267645
171	0xbd29bb57	-0.041438427
172	0xbe82312b	-0.25428137
173	0x3dc31629	0.09525711
174	0xbe2f87ae	-0.17141601
175	0xbf873262	-1.0562251
176	0xbf2fb500	-0.6863556
177	0x3e7f5e67	0.24938355
178	0x3f15b615	0.5848096
179	0x3dbb1fb0	0.09136903
180	0x3ea7f8c3	0.32806978
181	0x3f0e7c39	0.556583
182	0x3eb55ee3	0.35423955
183	0x3e9ca0b2	0.3059135
184	0x3efab67a	0.48967344
185	0x3ee215cc	0.44157255
186	0xbf5ba86a	-0.85803854
187	0xbf1b4b02	-0.6066133
188	0xbdef2270	-0.1167649
189	0xbe98a822	-0.29815775
190	0x3e88cfac	0.2672094
191	0x3efe8e25	0.49717823
192	0x3f4061b1	0.75149065
193	0x3efa0417	0.48831245
194	0x3ef84db6	0.4849679
195	0x3ef7e7e3	0.48419103
196	0xbdd2447d	-0.10266969
197	0x3e253a2d	0.16135474
198	0x3f2e7e56	0.68161523
199	0x3efe1953	0.49628696
200	0x3f482c04	0.7819216
201	0x3f21acb7	0.63154167
202	0x3e8d0ee0	0.2755041
203	0xbd75fb4d	-0.060054112
204	0x3f32fcad	0.699168
205	0x3e8edc35	0.2790238
206	0xbca9f6f6	-0.020747643
207	0xbe13632f	-0.14393304
208	0x3dd623bc	0.104560345
209	0xbea500c4	-0.32227147
210	0xbcad4728	-0.021152094
211	0x3dd05bb5	0.10173742
212	0xbf00746d	-0.5017765
213	0xbdd54a22	-0.1041453
214	0xbe0e24e4	-0.1388126
215	0xbe23da82	-0.16001323
216	0x3ee0c32e	0.4389891
217	0x3af8a5db	0.0018970327
218	0x3f176c24	0.59149384
219	0xbe789d22	-0.24278691
220	0xbeb1c753	-0.34722385
221	0xbe128b0f	-0.14310859
222	0xbdfa52bd	-0.12222812
223	0xbf083464	-0.5320494
224	0xbea0fcaf	-0.31442782
225	0x3edb7754	0.42864478
226	0x3ec8d3fa	0.39224225
227	0xbef2ae4a	-0.47398597
228	0x3e32c742	0.17458823
229	0x3f11da58	0.5697379
230	0x3e36e591	0.1786101
231	0x3c58cdab	0.013232629
232	0x3eb24dcb	0.34824976
233	0x3e3d954a	0.1851398
234	0x3e9538bb	0.29144844
235	0x3e203352	0.15644577
236	0xbe40c3e1	-0.18824722
237	0x3e12f0dc	0.14349693
238	0x3f1efbff	0.62103266
239	0x3ec396a8	0.3820088
240	0xbe692e16	-0.22771487
241	0x3e6b2383	0.22962765
242	0x3ee3eb33	0.4451538
243	0x3e8a3c6b	0.2699922
244	0x3ee7893c	0.4522189
245	0x3aedf4cc	0.001815462
246	0xbf20b8f1	-0.627822
247	0xbf153c06	-0.58294713
248	0xbeb56f01	-0.35436252
249	0x3f448be6	0.7677597
250	0x3e2876b6	0.16451535
251	0xbc945a50	-0.01810947
252	0xbd308319	-0.043093774
253	0x3cd49ed6	0.025954645
254	0x3e2221c7	0.15833198
255	0x3ea85e81	0.328846

conv6.bias f4 [32]
0	0x3d81a4c2	0.06330253
1	0xbda84ee1	-0.0821817
2	0x3d3d3e7b	0.046202164
3	0x3b650af9	0.0034949167
4	0x3dcc52c3	0.09976723
5	0x3d538e0d	0.051649142
6	0xbd8c48e0	-0.06849837
7	0x3dd75ecd	0.10516129
8	0x3e292bb2	0.16520575
9	0xbd40d3f4	-0.047077134
10	0x3d8d1e8c	0.06890592
11	0xbda1230b	-0.07868012
12	0xbc39af53	-0.011333304
13	0xbdfe0f1a	-0.12405224
14	0x3cf58d04	0.029974468
15	0xbd5bf8ad	-0.053703953
16	0xbddb1f22	-0.106992975
17	0xbd49f6b8	-0.049307555
18	0xbcd26ad0	-0.025685698
19	0xbbe6b5d8	-0.0070407204
20	0x3d5bd967	0.053674128
21	0xbd552d75	-0.052045304
22	0xbc839070	-0.016060084
23	0xbda05480	-0.07828617
24	0xbd25ca8a	-0.04047636
25	0x3d9d00ff	0.076662056
26	0xbc739e1f	-0.014869242
27	0x3d883a82	0.066517845
28	0xbcfe739b	-0.031060984
29	0xbd75eca5	-0.060040135
30	0x3cdcbafa	0.026944626
31	0x3da6ecb2	0.08150615

bn1.weight f4 [4]
0	0x3fc45d81	1.5341035
1	0x3f85ae15	1.0443751
2	0x3f87673c	1.057838
3	0x3f94ac86	1.161515

bn1.bias f4 [4]
0	0x3ec2e4ad	0.3806509
1	0x3e4efdb6	0.2021397
2	0x3e887fdf	0.26660058
3	0x3ea05f6c	0.313228

bn1.running_mean f4 [4]
0	0xbdab408f	-0.08361923
1	0xbe5befe4	-0.2147823
2	0xbdb30a7a	-0.087422326
3	0x3dd04b10	0.10170567

bn1.running_var f4 [4]
0	0x3fe627d0	1.79809
1	0x3fa28e4d	1.2699677
2	0x3f9e5906	1.2370918
3	0x4009878d	2.1488984

bn2.weight f4 [8]
0	0x3f8b7c82	1.0897372
1	0x3f4a59ad	0.79043084
2	0x3f89b70a	1.0758984
3	0x3f581426	0.84405744
4	0x3f9d5ee1	1.229458
5	0x3f9da506	1.2315986
6	0x3f9a188b	1.203874
7	0x3fc6297d	1.5481411

bn2.bias f4 [8]
0	0x3f2ce646	0.6753887
1	0xbe137287	-0.14399157
2	0xbf423ac2	-0.7587091
3	0x3e2fa291	0.17151858
4	0x3e31021a	0.17285958
5	0xbe601fda	-0.2188715
6	0x3e0df5c1	0.13863279
7	0x3e82906e	0.25500816

bn2.running_mean f4 [8]
0	0xbf54e71f	-0.8316516
1	0x3ed0becf	0.40770575
2	0xc0318f3f	-2.774368
3	0xbf8b604e	-1.0888765
4	0xc0564f3e	-3.3485866
5	0xc095e8db	-4.6846747
6	0xbf0f9760	-0.56090355
7	0xc00d8b18	-2.2116146

bn2.running_var f4 [8]
0	0x41215b29	10.084756
1	0x40b2ea51	5.591103
2	0x40b128b3	5.536218
3	0x40b8dd04	5.7769794
4	0x4107a89b	8.478663
5	0x40ddc2e1	6.930039
6	0x4103f31f	8.246856
7	0x4199fcdd	19.248468

bn3.weight f4 [8]
0	0x3f9a75e5	1.2067229
1	0x3f72cf2d	0.94847375
2	0x3f8e508d	1.1118332
3	0x3faf5f99	1.3701049
4	0x3fafe93d	1.3743054
5	0x3fb7b8e1	1.4353296
6	0x3f7f9694	0.9983914
7	0x3f8c4af8	1.0960379

bn3.bias f4 [8]
0	0xbcaba6a4	-0.020953484
1	0x3eae0ed7	0.33995697
2	0xbf0b3270	-0.54373837
3	0x3d9fa972	0.07795991
4	0x3d2b6300	0.04184246
5	0xbd85b097	-0.065278225
6	0xbee68dba	-0.45030004
7	0xbe798d40	-0.24370289

bn3.running_mean f4 [8]
0	0x3fc391fa	1.5278924
1	0x40344e2c	2.8172712
2	0xbe761c48	-0.24034226
3	0xc002280f	-2.033695
4	0x3e6ffac3	0.23435502
5	0xbf0d3d02	-0.55171216
6	0x402ecef6	2.731382
7	0xc053079a	-3.297339

bn3.running_var f4 [8]
0	0x4159c987	13.611701
1	0x40d091c5	6.517794
2	0x4101c7f6	8.111319
3	0x411069f5	9.025868
4	0x41214ed4	10.081745
5	0x41313ef2	11.0778675
6	0x41079a2f	8.4751425
7	0x406afbfa	3.6716294

bn4.weight f4 [16]
0	0x3f93edd7	1.1556958
1	0x3f85dd8d	1.0458237
2	0x3f897c31	1.0741025
3	0x3f888162	1.0664485
4	0x3f90cefe	1.1313169
5	0x3f8ce33a	1.1006844
6	0x3fa08259	1.2539779
7	0x3f8a109a	1.0786316
8	0x3fd9a56f	1.7003611
9	0x3f903a28	1.1267748
10	0x3f9fa7f7	1.2473134
11	0x3f609f63	0.87743205
12	0x3f837939	1.0271369
13	0x3fc938f4	1.5720506
14	0x3f4cda23	0.8002035
15	0x3f9e7845	1.2380453

bn4.bias f4 [16]
0	0xbe85ea24	-0.26155198
1	0x3f611923	0.8792898
2	0x3b8b9d74	0.0042607132
3	0x3f381c0c	0.71917796
4	0xbe918f96	-0.2842986
5	0xbeb7d684	-0.3590585
6	0xbe6853ba	-0.22688189
7	0xbebd8f50	-0.370234
8	0x3d9155ea	0.07096465
9	0x3e895fa6	0.26830786
10	0x3e648cef	0.22319387
11	0xbf37024d	-0.71487886
12	0xbdca0bf3	-0.098655604
13	0xbf121f85	-0.57079345
14	0x3eace8bc	0.33771312
15	0xbe7f94cc	-0.24959105

bn4.running_mean f4 [16]
0	0xc06097a7	-3.5092561
1	0xbfc29dc0	-1.5204391
2	0xbfdec799	-1.7404662
3	0xbd9f7d84	-0.07787612
4	0xc06000de	-3.500053
5	0xbfcd3ddf	-1.6034507
6	0xbf0b5803	-0.5443117
7	0xbf8130bb	-1.0092996
8	0xc01fd73c	-2.4975119
9	0xbfc24b33	-1.5179199
10	0xbfc053e1	-1.5025598
11	0xbfea426f	-1.8301524
12	0xbfd05893	-1.6277031
13	0xbe378798	-0.17922819
14	0xc00160d0	-2.021534
15	0xbf808933	-1.004187

bn4.running_var f4 [16]
0	0x4130c8a1	11.048982
1	0x41569fa3	13.413974
2	0x4104d85a	8.30282
3	0x41a554b0	20.666351
4	0x41225102	10.144777
5	0x40dd0009	6.9062543
6	0x4129faa3	10.623691
7	0x40f30fa9	7.5956616
8	0x41c2af72	24.335667
9	0x40e91daa	7.284871
10	0x4133b7b7	11.232352
11	0x40d372b3	6.6077514
12	0x41266776	10.400259
13	0x4143bc25	12.233434
14	0x40be842e	5.953635
15	0x4149002e	12.562544

bn5.weight f4 [16]
0	0x3f95b687	1.1696328
1	0x3f84fa86	1.0388954
2	0x3faa5734	1.3307862
3	0x3f927b92	1.1443961
4	0x3f91ecb3	1.140036
5	0x3f970f1a	1.1801484
6	0x3f8506dd	1.039272
7	0x3f8b090e	1.0862138
8	0x3f881d32	1.063391
9	0x3fa9d22a	1.3267262
10	0x3fa1b7eb	1.2634252
11	0x3f94bf7e	1.1620939
12	0x3f947954	1.1599526
13	0x3f9fe700	1.2492371
14	0x3f901fdb	1.1259722
15	0x3f8ecb7b	1.1155847

bn5.bias f4 [16]
0	0xbee1d4ea	-0.44107753
1	0xbf06b29f	-0.52616304
2	0xbe76fa12	-0.24118832
3	0xbf58b542	-0.8465158
4	0xbed7f8d1	-0.4218202
5	0xbe8d21db	-0.27564892
6	0xbec7720f	-0.38954207
7	0xbe7486ed	-0.23879595
8	0xbe830b36	-0.2559449
9	0x3e4843fc	0.19557184
10	0xbeddfd28	-0.43357205
11	0xbef37c83	-0.47555932
12	0xbf10b27e	-0.5652236
13	0xbece8f37	-0.4034364
14	0xbf1b9865	-0.6077941
15	0xbf2e4c92	-0.6808559

bn5.running_mean f4 [16]
0	0xc0ca3ffe	-6.3203115
1	0xbfc8488c	-1.564714
2	0xc01e1710	-2.4701576
3	0x3f0e92ad	0.5569256
4	0x3f660c16	0.8986219
5	0xc098fbac	-4.7807217
6	0xbff135f5	-1.8844591
7	0xbfa2a69b	-1.2707094
8	0x3f16bd6c	0.58882785
9	0xc077a753	-3.8695877
10	0xbf67479b	-0.90343636
11	0xc004878d	-2.0707734
12	0x3f4aca20	0.7921467
13	0xc01faccc	-2.4949217
14	0xbff0164c	-1.8756804
15	0xbeb9cc15	-0.36288515

bn5.running_var f4 [16]
0	0x41aff59e	21.99493
1	0x417ddbf8	15.866203
2	0x4188e283	17.110601
3	0x410dc3fd	8.860349
4	0x418ba14b	17.453756
5	0x41821fc5	16.265512
6	0x415395e7	13.224097
7	0x41310d05	11.065679
8	0x4130044f	11.001052
9	0x423fe33c	47.97191
10	0x415cae25	13.792516
11	0x415ef8bd	13.935727
12	0x418a3b8a	17.279072
13	0x41585329	13.520303
14	0x412d561e	10.833525
15	0x41872e90	16.897736

bn6.weight f4 [32]
0	0x3fdb47f2	1.7131331
1	0x3ff6e376	1.9288166
2	0x3fd68d68	1.6761904
3	0x3fd85643	1.6901325
4	0x3fff4f4f	1.9946078
5	0x3ff2417c	1.8926234
6	0x3fdc2521	1.7198831
7	0x3fa8e83f	1.3195876
8	0x3fe47819	1.7849151
9	0x3ffe95e8	1.9889498
10	0x3fea6e10	1.8314838
11	0x3fdc9ffa	1.7236321
12	0x3fe3d043	1.7797931
13	0x3fff5226	1.9946945
14	0x3fe3676c	1.7765937
15	0x3fb803c5	1.437615
16	0x3fd205a7	1.6407975
17	0x3fe03180	1.7515106
18	0x3fdb96aa	1.7155354
19	0x3fefa548	1.8722315
20	0x3fd59acb	1.6687864
21	0x3fc4cff8	1.5375967
22	0x3fba170d	1.4538285
23	0x40079ff2	2.1191373
24	0x3fd7ba46	1.6853721
25	0x3fd3ed0e	1.6556718
26	0x3ff4fee0	1.9140282
27	0x3ff4db0a	1.9129345
28	0x3ff47e3d	1.9101025
29	0x3fca7363	1.5816463
30	0x3faebfa9	1.365224
31	0x3fcf98b9	1.6218482

bn6.bias f4 [32]
0	0xbeaf3389	-0.34219006
1	0xbf18c2df	-0.5967235
2	0xbefa8efd	-0.48937216
3	0xbe8cdeae	-0.2751364
4	0xbf41d694	-0.75718045
5	0xbf15c64e	-0.58505714
6	0xbef66ed2	-0.48131424
7	0xbe92d2b4	-0.2867638
8	0xbf05d3d3	-0.52276343
9	0xbf017edc	-0.505842
10	0xbef316cb	-0.47478327
11	0xbf08eb06	-0.5348362
12	0xbf051936	-0.51991594
13	0xbf7a5d65	-0.9779876
14	0xbf0a22ad	-0.5395916
15	0xbec1769e	-0.3778581
16	0xbf244ea7	-0.64182514
17	0xbf0ac8af	-0.5421247
18	0xbf22401d	-0.6337908
19	0xbf25ddfd	-0.6479185
20	0xbeb328ab	-0.34991965
21	0xbe8a807e	-0.27051157
22	0xbed53727	-0.4164364
23	0xbf01e8db	-0.50745934
24	0xbee02939	-0.4378145
25	0xbf2c81b6	-0.67385423
26	0xbf12f61c	-0.57406783
27	0xbf28f4da	-0.65998614
28	0xbf5bc382	-0.85845196
29	0xbf04d331	-0.5188475
30	0xbefdffc8	-0.49609208
31	0xbf3412ca	-0.7034117

bn6.running_mean f4 [32]
0	0xbd5da648	-0.054113656
1	0x403877e4	2.8823175
2	0xc01e0c77	-2.4695108
3	0xbfbd8dd6	-1.480891
4	0x3f307850	0.6893358
5	0xc042919f	-3.040138
6	0xc090877d	-4.516539
7	0xc0cf3ab5	-6.4759164
8	0xbe7aebd5	-0.24504025
9	0xc0b3edff	-5.6228023
10	0xbfbdb9ab	-1.4822286
11	0xbf19a774	-0.6002114
12	0xc07da88a	-3.9634118
13	0xc00cd675	-2.2005894
14	0xc0014470	-2.019802
15	0xbefd75c5	-0.49503914
16	0xbef241e9	-0.4731591
17	0xc01ffe76	-2.499906
18	0xc0005fda	-2.0058503
19	0xc0223f56	-2.5351157
20	0x3ff17382	1.8863375
21	0xbfe1071e	-1.7580297
22	0x3f237c75	0.6386178
23	0xc06d4f60	-3.7079697
24	0x3d10a235	0.035310943
25	0xbf795d0d	-0.9740761
26	0x3fb5104a	1.4145596
27	0x3dcfbec0	0.101438046
28	0xc0260cd1	-2.5945323
29	0xc04e3506	-3.2219863
30	0xbe1d2f87	-0.15350161
31	0xbd3d223d	-0.04617523

bn6.running_var f4 [32]
0	0x411f42b6	9.953787
1	0x410855c4	8.520939
2	0x41096cfb	8.589107
3	0x41492d43	12.57355
4	0x4163a37e	14.227415
5	0x413f5e8a	11.960581
6	0x40d64ead	6.697104
7	0x40dcf612	6.905038
8	0x41042364	8.25864
9	0x411e0aaf	9.877608
10	0x40f68b32	7.7044916
11	0x41104178	9.015984
12	0x41303059	11.011804
13	0x40c07b7e	6.0150747
14	0x41182a48	9.510323
15	0x4102ad79	8.167352
16	0x40e762b6	7.2307997
17	0x41117b6b	9.092631
18	0x40e1b500	7.0533447
19	0x410c0a40	8.752502
20	0x4108da6a	8.553324
21	0x411b0c6f	9.690536
22	0x410a23fe	8.633787
23	0x4124607b	10.273555
24	0x410d0f2c	8.816204
25	0x4129858e	10.595106
26	0x410fb15f	8.9808035
27	0x412cc853	10.798907
28	0x41434fa0	12.20694
29	0x4118009d	9.50015
30	0x411a7f2c	9.656048
31	0x412289fa	10.158686

conv1d_1.weight f4 [4, 8, 1]
0	0x3f3430d8	0.7038703
1	0xbde36d69	-0.11104853
2	0x3f8935d6	1.0719554
3	0xbe9172cd	-0.284079
4	0xbd2c6de6	-0.042096995
5	0x3e958b48	0.29207826
6	0x3e0a873d	0.13528152
7	0xbf560be3	-0.8361189
8	0xbe62d163	-0.22150187
9	0x3d23d5a8	0.03999868
10	0xbe10dcd3	-0.14146738
11	0xbeaadd03	-0.33371744
12	0x3f0f2c34	0.55926824
13	0x3f4a5f68	0.7905183
14	0xbf2aeef1	-0.66770846
15	0xbec04306	-0.37551135
16	0xbf0f9918	-0.5609298
17	0xbeb7f69e	-0.3593034
18	0xbe33070c	-0.17483157
19	0xbf2d96e6	-0.6780838
20	0x3effd821	0.4996958
21	0xbee27cfb	-0.44235978
22	0x3cc07db6	0.023497444
23	0xbf499915	-0.7874921
24	0xbf3667d5	-0.71252185
25	0x3f45a11b	0.7719895
26	0x3ec5d89a	0.38641816
27	0xbe4850d7	-0.19562088
28	0xbdf93f5d	-0.12170289
29	0x3e712ae2	0.23551515
30	0x3f6b5b56	0.9193624
31	0xbdffa2b2	-0.124822035

conv1d_1.bias f4 [4]
0	0x3dde9baf	0.10869538
1	0xbecd6e3c	-0.40123165
2	0x3f1c8124	0.6113455
3	0xbdba6803	-0.0910187

bn1d_1.weight f4 [4]
0	0x3f889efd	1.0673519
1	0x3f8482a3	1.0352367
2	0x3f91d3e6	1.1392791
3	0x3f829e1a	1.0204499

bn1d_1.bias f4 [4]
0	0x3e8d4d15	0.2759787
1	0x3f3e10f6	0.7424463
2	0x3f7d22fb	0.988815
3	0x3e4e42bc	0.20142645

bn1d_1.running_mean f4 [4]
0	0x3efcb485	0.49356475
1	0xbf51ac19	-0.81903225
2	0xbfa6ac20	-1.3021278
3	0xbd54ae11	-0.051923815

bn1d_1.running_var f4 [4]
0	0x4008226c	2.127101
1	0x3ffb82ab	1.9649252
2	0x3ff17cc1	1.8866197
3	0x40306ce5	2.7566464

conv1d_2.weight f4 [8, 16, 1]
0	0x3f9a196e	1.203901
1	0x3e5ef872	0.21774462
2	0x3f16bf08	0.5888524
3	0xbe12d563	-0.14339213
4	0x3ed5b829	0.41742066
5	0x3f092694	0.5357449
6	0x3e4c1951	0.19931532
7	0xbec19eba	-0.3781641
8	0x3eee33b9	0.46523836
9	0x3e90f1a3	0.28309354
10	0xbec7c7e7	-0.390197
11	0xbd9b82b3	-0.07593288
12	0x3cee7cbb	0.02911221
13	0xbe2ae47c	-0.16688722
14	0x3eb58406	0.35452288
15	0xbf01a8a2	-0.5064794
16	0x3e20d5f9	0.15706624
17	0x3f5988c4	0.8497431
18	0xbedba015	-0.4289557
19	0xbe92ffed	-0.2871088
20	0xbe90e58d	-0.28300133
21	0xbe9153d8	-0.2838428
22	0xbe7606c3	-0.24026017
23	0x3f390c82	0.7228471
24	0xbed99249	-0.4249442
25	0x3ef4b2b0	0.47792578
26	0xbdc6f186	-0.09714036
27	0xbf2b450e	-0.66902244
28	0x3eea2e55	0.45738474
29	0xbeaa67f3	-0.33282432
30	0x3e21fadd	0.15818353
31	0xbef8a04d	-0.485598
32	0x3dfdbaf5	0.12389175
33	0xbef6fc38	-0.48239303
34	0x3e1506ad	0.14553328
35	0x3f717d2a	0.9433161
36	0xbec6fe28	-0.3886578
37	0xbecf3e20	-0.40477085
38	0x3ed15c85	0.408909
39	0xbf1698be	-0.58826816
40	0xbf915de8	-1.1356783
41	0x3e398454	0.18116885
42	0xbe9f36cb	-0.3109649
43	0x3f46316a	0.7741915
44	0x3da26557	0.07929485
45	0x3e5ba11d	0.21448179
46	0xbe971559	-0.29508474
47	0x3e84410f	0.25830886
48	0x3d2afe4f	0.041746434
49	0x3f0fea50	0.5621691
50	0x3ecf8878	0.40533805
51	0xbe5ffe62	-0.21874383
52	0x3e089971	0.13339783
53	0xbdf18c7d	-0.11794374
54	0x3f328796	0.6973814
55	0xbc28bccc	-0.010298919
56	0x3ec8e771	0.39239076
57	0xbeef8a5f	-0.46785256
58	0x3f802eb7	1.0014256
59	0x3efc9f49	0.49340275
60	0xbed72904	-0.4202348
61	0xbe217b1b	-0.15769617
62	0xbe95e8cd	-0.29279175
63	0xbeafa93f	-0.34308812
64	0x3ed2135b	0.41030392
65	0x3ecfe025	0.40600696
66	0xbd95f122	-0.07321383
67	0xbee980d0	-0.4560609
68	0x3ef3f9dd	0.47651568
69	0xbe57edfc	-0.21086878
70	0xbf5ea655	-0.8697255
71	0x3e1c15e0	0.1524272
72	0x3e810461	0.25198653
73	0xbec0f44a	-0.37686378
74	0x3e846423	0.25857648
75	0x3df5eef3	0.120084666
76	0xbe886aa2	-0.26643854
77	0x3f8895d9	1.067073
78	0xbd8959a0	-0.06706548
79	0xbb95223c	-0.0045512
80	0xbe83e39c	-0.2575959
81	0xbf31d838	-0.6947055
82	0x3e9d4871	0.3071933
83	0xbf16da3f	-0.5892677
84	0xbe9c9679	-0.30583552
85	0x3e9b01d9	0.30274847
86	0xbe0923b9	-0.13392533
87	0xbe4a65ea	-0.1976544
88	0xbe84b763	-0.25921163
89	0xbebd70f6	-0.37000245
90	0xbec7287a	-0.3889807
91	0x3e62a903	0.22134785
92	0xbf3833fd	-0.7195433
93	0xbd58b19f	-0.052903768
94	0xbed7a567	-0.4211838
95	0xbf503b29	-0.8134027
96	0xbe905215	-0.28187624
97	0xbe81204c	-0.25219953
98	0x3f6ae9ee	0.917632
99	0x3eabbf65	0.3354446
100	0x3f5a55ae	0.85286987
101	0x3db9c55b	0.09070846
102	0xbe9c7194	-0.30555403
103	0x3eb60c0d	0.3555607
104	0xbf1f7d79	-0.6230083
105	0x3d846112	0.06463827
106	0xbe93f9a8	-0.2890141
107	0xbe7360c3	-0.2376738
108	0x3f0a9cf8	0.54145765
109	0x3e9a3afa	0.3012312
110	0x3f0fa812	0.5611583
111	0xbe0739eb	-0.13205688
112	0xbd763956	-0.060113274
113	0x3df30f0a	0.11868103
114	0xbd7c2322	-0.061556943
115	0x3e9fd269	0.31215218
116	0xbdc5b579	-0.09653754
117	0x3f456283	0.7710344
118	0xbdf8b1ec	-0.12143311
119	0x3e9d2f1e	0.3070001
120	0xbf437a57	-0.7635855
121	0x3f51b4dd	0.819166
122	0xbe8ab6b4	-0.27092516
123	0x3e72b2f3	0.23701076
124	0xbef40b01	-0.47664645
125	0x3e8ac064	0.27099907
126	0xbef30675	-0.47465864
127	0x3f36da5c	0.7142694

conv1d_2.bias f4 [8]
0	0xbeb87219	-0.3602455
1	0xbeb0f11c	-0.34558952
2	0xbd24d17a	-0.040238835
3	0x3dff772b	0.12473901
4	0x3d5bf1b4	0.053697303
5	0xbc86682b	-0.016407093
6	0xbe5ce1b2	-0.21570471
7	0xbe696956	-0.22794089

bn1d_2.weight f4 [8]
0	0x3f856817	1.0422391
1	0x3f626b8c	0.88445354
2	0x3f9bb5b6	1.2164829
3	0x3f89894c	1.0745025
4	0x3fabc4ca	1.341943
5	0x3fa7aab5	1.3098971
6	0x3f951d55	1.1649576
7	0x3f9ae65b	1.2101549

bn1d_2.bias f4 [8]
0	0x3ee6bfa7	0.45068094
1	0x3ec58556	0.3857829
2	0x3e7bca9e	0.24589011
3	0xbdf45cfb	-0.11931797
4	0x3f3fd97e	0.7494124
5	0x3ef59e87	0.4797251
6	0xbe289c9c	-0.16465992
7	0x3eef0017	0.46679756

bn1d_2.running_mean f4 [8]
0	0x3fd1e5a5	1.6398207
1	0xbdcc89e6	-0.099872395
2	0xbf812d24	-1.0091901
3	0x3fe55e19	1.7919341
4	0x3f0f843a	0.56061137
5	0xc08c7b7b	-4.3900733
6	0x3f693d0a	0.91108763
7	0x3e87cffd	0.2652587

bn1d_2.running_var f4 [8]
0	0x40b768b2	5.73153
1	0x406575e8	3.5853214
2	0x40a3f32d	5.1234345
3	0x40854ddd	4.165755
4	0x40984dbd	4.7594895
5	0x40f8f9c5	7.7804894
6	0x40b3935d	5.6117387
7	0x40ce377d	6.4442735
