best_model_cuda.pth (torch, 32930 bytes, 38 tensors)

conv1.weight f4 [4, 1, 3, 3]
0	0x3f02502b	0.50903577
1	0x3e9969ae	0.2996344
2	0xbed49a88	-0.41524148
3	0x3f61ca51	0.88199335
4	0x3f023b1a	0.5087143
5	0xbdb2f5fa	-0.087383226
6	0xbf36bc7c	-0.71381354
7	0xbe50591c	-0.20346493
8	0xbca42c26	-0.020040583
9	0xbf26217e	-0.64894855
10	0xbe53f37f	-0.20698355
11	0xbec87e41	-0.39158824
12	0x3ee89e59	0.4543331
13	0x3f57b8e5	0.842665
14	0x3e4b41fc	0.1984939
15	0x3e9e5775	0.309261
16	0x3efcb384	0.4935571
17	0xbdb43257	-0.08798664
18	0x3e25e407	0.16200267
19	0xbd504472	-0.050846525
20	0xbe5d99af	-0.21640657
21	0x3df4822c	0.11938891
22	0xbf4ba92b	-0.79555005
23	0xbe82c4dd	-0.2554082
24	0xbf8ffb78	-1.1248617
25	0xbf1c7bda	-0.6112648
26	0xbe3cba97	-0.18430553
27	0xbddee1d3	-0.10882916
28	0xbecb2eeb	-0.39684233
29	0xbf0f35e1	-0.5594159
30	0x3ea5e0e1	0.3239813
31	0xbe452680	-0.19252968
32	0x3e6d66f0	0.23183799
33	0x3e9486f1	0.29009202
34	0x3e8ce98b	0.2752193
35	0x3eec921a	0.46205217

conv1.bias f4 [4]
0	0xbf179ec1	-0.59226614
1	0x3e009cdf	0.12559842
2	0xbdd97189	-0.10617358
3	0x3e670b56	0.22562918

conv2.weight f4 [8, 4, 3, 3]
0	0x3e305473	0.17219715
1	0x3da0b80b	0.078476034
2	0xbd45ee87	-0.04832318
3	0x3ed8097b	0.42194733
4	0x3e48cffb	0.19610588
5	0xbc186835	-0.009302189
6	0x3f5f00f2	0.8711082
7	0x3e63c7d2	0.22244194
8	0x3ece808d	0.4033245
9	0x3ec93ab1	0.3930259
10	0x3e043575	0.12911017
11	0x3e69887f	0.22805975
12	0x3df47e9d	0.11938212
13	0x3dc200ca	0.09472807
14	0x3f009742	0.502308
15	0x3e5ca023	0.21545462
16	0x3dd9aba2	0.106284395
17	0x3e8c4bd3	0.274016
18	0xbc80242b	-0.015642246
19	0x3f2e2a62	0.6803342
20	0x3e6768b6	0.22598538
21	0xbf476f36	-0.7790407
22	0xbe025ed9	-0.12731494
23	0xbf184791	-0.594842
24	0xbd716605	-0.058935184
25	0xbe8abf8a	-0.27099258
26	0xbea32290	-0.31862307
27	0xbd88c45f	-0.0667808
28	0x3ddcb981	0.107775696
29	0x3ec1c3c2	0.37844664
30	0x3eb8d248	0.36097932
31	0x3e67a8ed	0.22623034
32	0x3ec831a9	0.39100388
33	0x3dfed204	0.12442401
34	0xbdf6236f	-0.12018477
35	0xbf1ff98b	-0.6249015
36	0xbe82d62c	-0.25554025
37	0xbe89bff1	-0.26904252
38	0xbd69638c	-0.0569797
39	0xbe0269a7	-0.12735616
40	0x3c3abbb8	0.011397295
41	0xbe7cceaa	-0.24688211
42	0xbe3c3ca4	-0.18382508
43	0x3df7b2ea	0.12094672
44	0xbe785779	-0.24252118
45	0x3d465351	0.0484193
46	0x3e8c1eb6	0.2736718
47	0xbe23bc00	-0.15989685
48	0xbd389b89	-0.045070205
49	0x3c9513ff	0.018198011
50	0xbe8724b0	-0.26395178
51	0x3d799c8b	0.060940307
52	0x3dc261f5	0.0949134
53	0x3e1810f0	0.14850211
54	0x3e02ff30	0.12792659
55	0x3dfd697f	0.123736374
56	0x3ea513ed	0.32241765
57	0xbe49ee62	-0.19719842
58	0x3e03708d	0.12835903
59	0x3dbbd3ca	0.09171255
60	0xbf6e25d7	-0.9302649
61	0xbf520a9f	-0.82047457
62	0xbf3dfb76	-0.74211824
63	0x3e1cd4cb	0.15315549
64	0xbee49e48	-0.4465201
65	0xbf164f95	-0.5871518
66	0xbee184a8	-0.4404652
67	0xbe8a660e	-0.27030987
68	0xbd9634ac	-0.07334265
69	0xbcb05dd8	-0.021529123
70	0x3ef18f53	0.4717966
71	0x3f568b09	0.838059
72	0x3e9d3d93	0.3071104
73	0x3eb4c5f8	0.35307288
74	0x3eb2dcf7	0.34934208
75	0x3de72089	0.112855025
76	0x3e236d0c	0.15959567
77	0xbec6bc64	-0.38815606
78	0xbf0be509	-0.54646355
79	0xbf3860de	-0.7202281
80	0xbef04b60	-0.46932507
81	0xbedb2c97	-0.42807457
82	0xbe91d5d1	-0.2848344
83	0xbee71940	-0.45136452
84	0xbf571cf4	-0.84028554
85	0xbefb6b80	-0.49105453
86	0xbcabd994	-0.020977773
87	0xbe9bf280	-0.3045845
88	0x3ecab4d3	0.39591083
89	0x3f23db5a	0.6400658
90	0xbc89cfcd	-0.01682272
91	0xbe8f76b2	-0.28020245
92	0xbe07bb30	-0.13255
93	0x3e8fa6ad	0.2805685
94	0x3bf67d24	0.007522242
95	0x3ecde39a	0.4021271
96	0x3e91e6f2	0.2849651
97	0xbd81cfb3	-0.063384436
98	0xbe377c66	-0.17918548
99	0xbe68c40a	-0.22731033
100	0xbeeebd06	-0.46628588
101	0xbecf1d13	-0.4045187
102	0xbedf146a	-0.43570262
103	0x3c97c93f	0.018528579
104	0x3e1bf465	0.15229948
105	0xbe6ed7f9	-0.23324575
106	0x3e4c86a6	0.1997324
107	0x3f0b6298	0.5444732
108	0x3e35e606	0.17763528
109	0x3e094026	0.13403377
110	0x3ddad1d3	0.10684552
111	0xbdd5791b	-0.1042349
112	0xbeb3f08b	-0.35144457
113	0xbe9fc9af	-0.3120856
114	0x3e8aa8a0	0.27081776
115	0xbd1d0198	-0.038331598
116	0xbdd0f730	-0.10203397
117	0xbda0d95f	-0.0785396
118	0xbeab2284	-0.3342477
119	0xbed74a42	-0.42048842
120	0x3eb1fbb2	0.3476234
121	0xbe039b43	-0.12852196
122	0xbe428795	-0.18997033
123	0x3e8bca3a	0.27302724
124	0x3e487496	0.19575724
125	0x3d966b07	0.073446326
126	0xbe634f60	-0.22198248
127	0x3ee9bfca	0.45654136
128	0xbcf00444	-0.029298909
129	0xbe2ed9bc	-0.17075247
130	0xbdfc4414	-0.12317672
131	0x3bcbd652	0.0062206173
132	0xbf34db25	-0.7064689
133	0xbf3cb48c	-0.7371299
134	0xbeb83c85	-0.35983673
135	0xbeba6b2e	-0.36409897
136	0xbf1cdcd2	-0.61274445
137	0xbf22263c	-0.6333959
138	0x3e6d3be9	0.23167385
139	0xbea9b34c	-0.33144605
140	0xbe47b2f9	-0.19501866
141	0x3e98843f	0.29788396
142	0x3f0ab27f	0.54178613
143	0xbe85e01c	-0.26147544
144	0x3ee6b19e	0.45057386
145	0x3e4d60d7	0.20056473
146	0xbcf0b696	-0.029383939
147	0x3ddaf4d3	0.10691228
148	0x3e885483	0.26626977
149	0xbce63ff5	-0.028106669
150	0x3e4d9aab	0.20078532
151	0x3dd79d62	0.10528065
152	0xbddbda2e	-0.10734974
153	0x3ea25c70	0.3171115
154	0xbc9dcdd6	-0.01926319
155	0xbeb345ed	-0.35014287
156	0x3ebfe331	0.3747802
157	0x3cb7036d	0.0223405
158	0xbeba7c53	-0.36422977
159	0x3e802e3a	0.25035268
160	0xbe6a78f7	-0.22897707
161	0xbeed6bb7	-0.46371242
162	0xbd49e066	-0.04928627
163	0xbda8e0e0	-0.082460165
164	0x3e15adcd	0.14617081
165	0x3cd0e1c5	0.02549828
166	0x3d1b4608	0.037908584
167	0x3d84c7eb	0.06483444
168	0xbc6d0867	-0.014467335
169	0x3e83647a	0.25662595
170	0x3f18e552	0.59724915
171	0x3cea3606	0.028590214
172	0xbd0b13ac	-0.033954307
173	0xbebed425	-0.37271228
174	0x3da29422	0.0793841
175	0xbd249825	-0.04018416
176	0xbda85eec	-0.0822123
177	0xba13857c	-0.00056274957
178	0xbe202da3	-0.15642409
179	0xbda6ac86	-0.08138375
180	0xbf4a0549	-0.78914315
181	0xbe5cf16c	-0.2157647
182	0x3e9d4127	0.3071377
183	0xbf0fa512	-0.5611125
184	0xbdfab27d	-0.12241075
185	0x3e3febd5	0.18742307
186	0x3dbbd4a4	0.09171417
187	0x3ee6a9b5	0.4505135
188	0x3e0e65d8	0.13906038
189	0xbed1eeeb	-0.41002592
190	0x3db251ef	0.08707034
191	0x3e271b61	0.16319038
192	0x3f1c2613	0.60995597
193	0x3e2dbe50	0.1696713
194	0x3bccf399	0.006254625
195	0x3dd3219a	0.10309143
196	0xbe0b3576	-0.13594612
197	0x3dc22690	0.094800115
198	0xbea25a81	-0.31709674
199	0xbf7bbc5c	-0.9833429
200	0xbf94c8a0	-1.1623726
201	0xbf569d90	-0.8383417
202	0xbf44872d	-0.7676876
203	0xbf21736c	-0.63066745
204	0xbed44802	-0.41461188
205	0x3d025923	0.03182329
206	0xbcbf1159	-0.023323702
207	0x3d89c812	0.067276135
208	0xbdc0bd6d	-0.0941113
209	0x3cf8f879	0.030391918
210	0x3d573b6a	0.052546896
211	0xbe04759e	-0.12935492
212	0xbe473319	-0.19453086
213	0xbe80d509	-0.25162533
214	0xbea9e48a	-0.33182174
215	0xbe853555	-0.26017252
216	0xbd1b3f48	-0.037902147
217	0xbe76f22f	-0.24115823
218	0xbebb9bbf	-0.36642262
219	0x3edf0cb2	0.43564373
220	0xbdbe54da	-0.09293528
221	0xbef12d58	-0.47104907
222	0x3e0ece94	0.13945991
223	0x3ed77ae2	0.4208594
224	0xbe0a93cb	-0.13532941
225	0x3d80eaaa	0.062947586
226	0xbe933e4f	-0.28758475
227	0xbefd8a1b	-0.4951943
228	0x3e7adb15	0.24497636
229	0x3e1546f9	0.14577855
230	0xbdc070b8	-0.093964994
231	0xbdb8a085	-0.09014992
232	0xbd84e075	-0.06488124
233	0xbd9f3a42	-0.07774784
234	0xbef38178	-0.47559714
235	0x3eb538e6	0.35394973
236	0x3e965990	0.29365206
237	0xbf4571fb	-0.77127045
238	0xbe685ce3	-0.22691683
239	0xbe841f55	-0.25805154
240	0xbf508a21	-0.8146077
241	0xbf57a5d1	-0.8423739
242	0xbf0952b4	-0.5364182
243	0xbd9816cc	-0.07426223
244	0xbe4e3d17	-0.20140491
245	0xbec64e5b	-0.38731655
246	0xbd8da273	-0.0691575
247	0x3f563131	0.8366881
248	0x3d9fb85b	0.07798835
249	0xbe912daa	-0.2835515
250	0xbe21ddfd	-0.15807338
251	0x3dfe3903	0.12413218
252	0xbf66aad5	-0.9010442
253	0xbedd0459	-0.4316738
254	0x3d3d539b	0.04622231
255	0xbe49e228	-0.19715178

conv2.bias f4 [8]
0	0xbde8d4b4	-0.11368695
1	0xbd4591fd	-0.04823493
2	0x3d22ae1e	0.039716832
3	0x3dab26a5	0.0835698
4	0xbdf9b989	-0.12193591
5	0xbe044e3d	-0.1292047
6	0x3d8b941d	0.0681536
7	0xbdef65c8	-0.11689335

conv3.weight f4 [8, 4, 3, 3]
0	0x3d179f85	0.037017364
1	0x3f3f867e	0.74814594
2	0x3ec82b31	0.39095452
3	0xbe6f508a	-0.23370567
4	0x3d150311	0.036379877
5	0xbe8cb6fc	-0.27483356
6	0xbf08f7e0	-0.5350323
7	0xbddbaa3f	-0.10725831
8	0xbe5f0aa0	-0.21781397
9	0x3c1031f7	0.008800975
10	0xbdcdc485	-0.10047249
11	0xbe294043	-0.1652842
12	0xbec363a5	-0.3816196
13	0x3ec9d9d0	0.3942399
14	0x3ea3d526	0.31998557
15	0x3e401f86	0.18762025
16	0x3edc2f1b	0.4300469
17	0xbc1cc57e	-0.00956857
18	0xbe9ea989	-0.3098872
19	0xbf5caffc	-0.8620603
20	0xbbdba158	-0.0067025833
21	0xbf20361b	-0.6258256
22	0xbe3aa938	-0.18228614
23	0x3ed6a2ee	0.4192118
24	0xbe9f9c35	-0.31173864
25	0xbe863584	-0.26212704
26	0xbeafe221	-0.3435221
27	0xbe026da3	-0.12737136
28	0x3ea9eade	0.33187002
29	0x3ee984ee	0.4560923
30	0x3eabe9ef	0.33576915
31	0xbec42816	-0.38311833
32	0xbf2cfbd5	-0.67571765
33	0x3e5e094e	0.21683237
34	0xbe8e1e44	-0.27757466
35	0xbe02bcb9	-0.12767304
36	0xbe848d1e	-0.25888914
37	0xbe324124	-0.17407662
38	0xbe91fea9	-0.28514603
39	0xbeabd604	-0.33561718
40	0x3e04eb40	0.12980366
41	0x3ef50c89	0.47861126
42	0xbe814a03	-0.2525178
43	0x3cfd8a56	0.030949753
44	0x3ef18fa4	0.47179902
45	0xbe49856f	-0.19679807
46	0xbe6bfe0e	-0.23046133
47	0xbdf9f67c	-0.12205216
48	0xbf0abd93	-0.5419552
49	0xbdd98803	-0.10621645
50	0x3d934d35	0.071924604
51	0xbecb97f6	-0.39764374
52	0x3d842089	0.06451518
53	0x3e9fe021	0.31225684
54	0xbd885bfe	-0.06658171
55	0x3f009e78	0.50241804
56	0x3f6f066a	0.9336916
57	0x3cb63667	0.022242738
58	0x3ebc8a6e	0.36824363
59	0x3f0025da	0.50057757
60	0xbedc06b3	-0.4297386
61	0xbf049b1c	-0.5179918
62	0xbc7f143d	-0.01556879
63	0xbea746ca	-0.32671195
64	0xbe8cc43a	-0.2749346
65	0xbf0460b3	-0.5171005
66	0xbf11a919	-0.5689865
67	0xbe9dc050	-0.30810785
68	0x3e457042	0.19281104
69	0x3e4c287b	0.19937317
70	0x3eb3a216	0.350846
71	0x3dad8349	0.08472306
72	0x3e0dacf9	0.13835515
73	0xbe064b68	-0.13114703
74	0xbedd7fea	-0.43261653
75	0xbc9508e7	-0.018192722
76	0x3bf93fbb	0.007606474
77	0x3dd43ab6	0.10362761
78	0x3f227899	0.6346527
79	0x3ec8ae8a	0.39195663
80	0x3ec38886	0.38190097
81	0xbe18e5ed	-0.1493146
82	0xbeffc594	-0.49955428
83	0xbed3fa8a	-0.41402084
84	0xbcd60672	-0.02612612
85	0xbeb32ec5	-0.3499662
86	0xbcd3aa4f	-0.025838045
87	0x3f7efe93	0.996072
88	0x3e4e7725	0.20162638
89	0x3f214528	0.6299615
90	0x3d4b5f48	0.049651414
91	0xbe15fc1c	-0.14646953
92	0xbeadd11b	-0.33948597
93	0x3dcb319c	0.099215716
94	0x3e086ac0	0.13321972
95	0x3dfc705d	0.12326119
96	0x3f14be76	0.5810312
97	0x3ea77f6e	0.3271441
98	0x3de0b3c1	0.10971785
99	0x3ed0741c	0.40713584
100	0x3e9b2bb3	0.30306777
101	0x3ec5ec6e	0.38656944
102	0xbc837d58	-0.01605098
103	0x3e0774d4	0.1322816
104	0x3ce17d62	0.027525607
105	0xbed61aaa	-0.41817218
106	0xbd2ab39a	-0.041675188
107	0xbdcf5c03	-0.10124972
108	0x3e478c87	0.194872
109	0x3e76fecf	0.2412064
110	0x3ec3942a	0.38198978
111	0x3e2f0fc8	0.17095864
112	0x3ec99330	0.39370108
113	0x3d8531b1	0.065036185
114	0xbf374409	-0.7158819
115	0xbf2d00bd	-0.6757925
116	0xbea69223	-0.32533368
117	0x3ee70c2a	0.45126468
118	0x3f3db50a	0.7410437
119	0x3f31b11d	0.6941088
120	0x3ddb260d	0.10700617
121	0x3f00c92a	0.5030695
122	0x3e1cffb3	0.15331917
123	0xbf27a54f	-0.65486616
124	0xbeaee3f6	-0.34158295
125	0xbed495ca	-0.4152053
126	0x3d642437	0.0556986
127	0x3da437c1	0.08018447
128	0xbe112704	-0.1417504
129	0x3d730c07	0.059337642
130	0x3e0f55de	0.139976
131	0xbd893b6b	-0.06700786
132	0x3ef13428	0.47110105
133	0x3d4b1e2b	0.049589317
134	0xbe359769	-0.1773354
135	0xbc93bdff	-0.018034933
136	0xbb020207	-0.0019837634
137	0x3ccf92af	0.025338499
138	0xbe59fc89	-0.21287741
139	0x3db59094	0.08865467
140	0xbe8f562c	-0.2799543
141	0xbe489970	-0.19589782
142	0xbe6e8f43	-0.23296838
143	0xbdb1e6ca	-0.08686598
144	0xbd15bd94	-0.03655775
145	0xbf190f88	-0.59789324
146	0xbe89acc4	-0.26889622
147	0x3dac853c	0.0842385
148	0xbeca59bb	-0.39521584
149	0xbd9ec271	-0.077519305
150	0x3f1ceb5d	0.61296636
151	0x3e4bdfb6	0.19909558
152	0x3eed75b7	0.46378872
153	0x3f3a9a04	0.7289126
154	0x3eb047bd	0.34429732
155	0xbf1360ad	-0.5756939
156	0xbe27480e	-0.1633608
157	0x3e8a948e	0.27066463
158	0x3cc0c012	0.023529086
159	0x3ddc7502	0.10764505
160	0x3c8c6dcd	0.0171422
161	0x3e82c8e0	0.2554388
162	0xbe43ab17	-0.19108234
163	0xbec018db	-0.37518963
164	0x3e83edf3	0.25767478
165	0xbf29f336	-0.66386735
166	0xbea335d5	-0.31877008
167	0xbd421843	-0.04738642
168	0xbebcfd96	-0.3691222
169	0x3d1d092a	0.038338818
170	0x3e7f4b61	0.24931099
171	0xbe761bce	-0.24034044
172	0xbdf05fd0	-0.11737025
173	0x3f118306	0.5684055
174	0x3dfce898	0.12349051
175	0xbf1953d8	-0.5989356
176	0x3f26cf0c	0.6515968
177	0x3eb8f301	0.36122897
178	0xbe2d694b	-0.16934697
179	0xbe196a76	-0.14982018
180	0xbd59e212	-0.053194113
181	0x3db720ed	0.08941827
182	0x3e1919c7	0.1495124
183	0xbe99bf10	-0.30028582
184	0xbe87ffe8	-0.26562428
185	0x3e97a4a3	0.29617795
186	0xbf0eaed3	-0.5573551
187	0xbe9f8e2b	-0.31163153
188	0x3eb38bac	0.350675
189	0x3dbc777a	0.09202476
190	0xbe9d47df	-0.30718896
191	0x3f5883b0	0.8457594
192	0xbd8fa738	-0.07014316
193	0x3e61ea41	0.22062017
194	0x3eee130f	0.46498916
195	0xbecd52ea	-0.4010232
196	0x3f054eb3	0.5207321
197	0x3e379a93	0.17930059
198	0x3e0288ac	0.12747449
199	0x3d831d1a	0.06402035
200	0xbd0bc76f	-0.03412574
201	0xbf044802	-0.51672375
202	0xbecd5d19	-0.4011009
203	0x3d9b01c9	0.075687
204	0xbfa61461	-1.2974969
205	0xbed18ba8	-0.40926862
206	0x3ea0ef75	0.3143269
207	0xbd175108	-0.03694251
208	0x3e7db7d0	0.2477715
209	0x3e861dea	0.26194698
210	0x3e736095	0.23767312
211	0xbdc382ed	-0.095464565
212	0x3ed7edba	0.42173558
213	0x3e8742f5	0.26418272
214	0xbdb44f14	-0.088041455
215	0x3e30561e	0.17220351
216	0xbe7b9bed	-0.245712
217	0x3e4c0fc6	0.19927892
218	0x3d9caeb6	0.07650511
219	0xbee93967	-0.45551607
220	0x3e12b7ff	0.14328001
221	0x3f1340bf	0.5752067
222	0xbda55273	-0.080723666
223	0x3eac8239	0.33693102
224	0x3ea19783	0.31560907
225	0x3ed0030c	0.40627325
226	0xbe13b110	-0.14423013
227	0xbe847864	-0.258731
228	0x3ee1f67e	0.4413337
229	0xbd14d688	-0.036337405
230	0xbe843325	-0.2582027
231	0xbe41c3ff	-0.18922423
232	0xbf05bb6b	-0.522391
233	0xbe4319f1	-0.19052865
234	0x3e88089a	0.26569062
235	0xbdafd2fd	-0.08585165
236	0xbf879a1b	-1.0593904
237	0x3edfcb58	0.43709826
238	0x3e7a8f87	0.24468814
239	0xbf5ff3fb	-0.8748166
240	0xbda081ca	-0.07837255
241	0xbe0c9e1a	-0.13732186
242	0xbeef1bae	-0.46700805
243	0x3d98e022	0.07464625
244	0x3eb89a39	0.36055163
245	0xbee71d1e	-0.45139402
246	0xbe6d218e	-0.23157331
247	0x3e20d97b	0.15707962
248	0x3e9e780b	0.3095096
249	0x3ce2ccfc	0.027685635
250	0x3ea5ca85	0.32381073
251	0x3b78dff0	0.0037975274
252	0xbe486897	-0.19571148
253	0x3dd8071f	0.10548233
254	0x3ed8610c	0.4226154
255	0xbe4c3b50	-0.19944501

conv3.bias f4 [8]
0	0xbdf5e3e3	-0.120063566
1	0xbe114cb3	-0.14189415
2	0xbc8b2423	-0.016985005
3	0x3d48c5e9	0.049016867
4	0xbe44aee4	-0.1920734
5	0x3e5d17c1	0.21591093
6	0xbdb13e61	-0.08654476
7	0x3caf41e0	0.021393716

conv4.weight f4 [12, 8, 3, 3]
0	0x3e4ee4de	0.20204493
1	0x3b19bde6	0.0023459136
2	0xbd72d158	-0.059281677
3	0xbda150d8	-0.07876748
4	0xbf32957d	-0.6975935
5	0xbf39a54a	-0.72517836
6	0xbf6a14c3	-0.9143793
7	0xbf35a750	-0.70958424
8	0x3ecfdfd4	0.40600455
9	0xbef0d3d4	-0.47036612
10	0xbf80609c	-1.0029483
11	0xbf6f9316	-0.9358381
12	0xbe5813d8	-0.2110132
13	0xbf1646fe	-0.58702075
14	0xbebcb800	-0.3685913
15	0x3f113d72	0.56734383
16	0xbdaacb5f	-0.08339571
17	0xbe82b2ef	-0.2552714
18	0x3ec18fe7	0.378051
19	0x3e93723a	0.28798085
20	0x3d58e267	0.05295029
21	0xbe8483eb	-0.25881895
22	0xbdd94a7d	-0.10609911
23	0x3e118903	0.14212422
24	0x3eb55eee	0.35423988
25	0xbd8dce4a	-0.06924112
26	0xbe0999e1	-0.13437606
27	0xbe086815	-0.13320954
28	0x3e83338c	0.25625265
29	0x3ee7eb28	0.45296597
30	0x3e34a0d4	0.17639476
31	0x3db036f6	0.08604233
32	0xbe54a609	-0.20766462
33	0xbf0548c8	-0.5206418
34	0xbe2b8e30	-0.16753459
35	0x3db9e3b0	0.09076631
36	0xbb3e5b80	-0.0029046237
37	0xbe0de12e	-0.1385543
38	0x3e8d77ae	0.2763037
39	0x3e615250	0.22004056
40	0x3e654b57	0.22392021
41	0x3e31362a	0.17305818
42	0x39fdf781	0.00048440325
43	0x3e82b22f	0.25526568
44	0x3c7e2358	0.015511356
45	0x3e6115cc	0.21980971
46	0x3e42b456	0.19014105
47	0xbe8a0cc8	-0.26962876
48	0x3e057217	0.13031803
49	0xbdd4a66c	-0.10383305
50	0x3df280c2	0.11840965
51	0xbecbd118	-0.39807963
52	0xbe9fa111	-0.3117757
53	0xbda33e8f	-0.079709165
54	0xbf17ef5f	-0.59349626
55	0xbed5eb43	-0.41781053
56	0xbe97536b	-0.2955583
57	0xbec88339	-0.39162615
58	0x3dfb394c	0.12266788
59	0x3ed6394e	0.41840595
60	0x3ed0ba09	0.40766934
61	0x3e4aecbb	0.19816868
62	0x3ea6253a	0.32450277
63	0x3ecce96f	0.40021846
64	0x3ccff657	0.025386019
65	0xbeb12b95	-0.34603563
66	0xbac06e5b	-0.0014681326
67	0xbf25346b	-0.6453311
68	0xbea64e1a	-0.32481462
69	0xbf2187c2	-0.63097775
70	0xbf14e219	-0.581575
71	0x3ddd8fa5	0.10818414
72	0x3dec3864	0.11534193
73	0x3ea170f1	0.3153148
74	0xbe83dbdf	-0.25753686
75	0xbe557833	-0.20846634
76	0xbcb04568	-0.02151747
77	0x3dfe68db	0.12422343
78	0x3e75020b	0.2392656
79	0x3ed79d02	0.42111975
80	0x3e954749	0.2915595
81	0xbeaaf059	-0.33386496
82	0x3e4e7041	0.20160009
83	0x3ef6b195	0.4818236
84	0xbc8af937	-0.016964538
85	0xbea38429	-0.31936768
86	0xbf387256	-0.7204946
87	0x3d9b858d	0.07593832
88	0x3edb02fa	0.42775708
89	0x3e70afcd	0.23504563
90	0x3d8a26a2	0.0674565
91	0x3ed6e4f3	0.4197155
92	0xbe974024	-0.29541123
93	0xbf0650dd	-0.5246714
94	0xbe1078ce	-0.14108583
95	0xbbfe18a4	-0.0077544022
96	0xbf80ba4a	-1.0056851
97	0xbe9cd9e3	-0.30634984
98	0x3e91f2aa	0.2850545
99	0x3d2afb5e	0.04174363
100	0xbe469ef5	-0.19396575
101	0x3f0f8344	0.5605967
102	0x3f043567	0.51643986
103	0x3e40608a	0.18786827
104	0xbdd9c2f4	-0.106328875
105	0x3edf6ad0	0.4363618
106	0x3e0cb58e	0.13741133
107	0xbee74bef	-0.4517512
108	0x3e8f6a4e	0.28010792
109	0x3df6d27d	0.12051866
110	0x3e262501	0.16225053
111	0x3ea91744	0.33025563
112	0xbe00ccb7	-0.12578093
113	0xbe5a8372	-0.21339205
114	0x3d55bb8a	0.052180804
115	0xbe803953	-0.25043735
116	0xbf123f66	-0.5712799
117	0x3f7eee45	0.9958232
118	0x3e98eb2c	0.29866922
119	0xbe93d64a	-0.28874427
120	0x3f0041a8	0.50100183
121	0xbdcf8903	-0.10133555
122	0xbf25a4fb	-0.64704865
123	0xbee901fc	-0.45509326
124	0xbf343253	-0.7038929
125	0xbf77122a	-0.9651209
126	0x3cbb002a	0.022827227
127	0x3c2e2cdc	0.0106308125
128	0x3dd46643	0.103710674
129	0x3a76aa05	0.000940949
130	0x3dfe07ad	0.12403808
131	0x3ef89924	0.48554337
132	0xbec3bf56	-0.38231915
133	0xbdef8541	-0.11695338
134	0xbe3da833	-0.18521194
135	0xbe6bf644	-0.23043162
136	0xbebb21b4	-0.3654915
137	0xbe44a9a7	-0.19205342
138	0x3ed6d45a	0.41958886
139	0x3e7ee68a	0.24892631
140	0x3edbb139	0.42908648
141	0x3eabd107	0.33557913
142	0xbe8874c4	-0.26651585
143	0x3df8d1a4	0.12149361
144	0xbe725ee7	-0.23669015
145	0x3e590994	0.2119506
146	0xbd4641b1	-0.048402492
147	0xbd86ac15	-0.06575791
148	0x3ea0386f	0.31293055
149	0x3e280494	0.16407996
150	0xbdd43faf	-0.10363709
151	0x3ec82822	0.3909312
152	0xbe6f4945	-0.23367794
153	0xbeb26358	-0.34841418
154	0x3e15cd71	0.14629151
155	0xbe58ed79	-0.21184339
156	0x3e998042	0.29980665
157	0xbe9b7ef5	-0.30370298
158	0x3db8d955	0.09025828
159	0xbf00b2fd	-0.50273114
160	0xbf232454	-0.6372731
161	0x3e54d1b4	0.2078312
162	0xbef6573b	-0.48113427
163	0xbf468ece	-0.7756165
164	0xbf01d70b	-0.50718755
165	0x3d2e58d8	0.042565197
166	0xbc393805	-0.01130486
167	0x3dcd0c32	0.10012092
168	0x3e5917ea	0.21200529
169	0x3e8ab4d4	0.27091086
170	0x3e01e301	0.12684251
171	0x3f284ced	0.6574238
172	0x3df93d5d	0.12169907
173	0xbea24563	-0.31693563
174	0xbdb3973d	-0.08769081
175	0xbe099902	-0.13437274
176	0xbf01a4cb	-0.5064208
177	0xbf660ba3	-0.89861506
178	0x3c0e9727	0.00870303
179	0x3ee4eac9	0.44710377
180	0x3dbe4964	0.09291342
181	0x3f1dbed8	0.6161933
182	0x3efd91e5	0.4952537
183	0xbf59652e	-0.8492001
184	0x3daafe6f	0.083493106
185	0x3ec0d47e	0.3766212
186	0xbf055b39	-0.5209232
187	0x3e0cd05a	0.13751355
188	0x3eb2c665	0.34916988
189	0xbe82fe22	-0.25584513
190	0xbdde6620	-0.108593225
191	0xbe57fa3a	-0.21091548
192	0xbeb30c92	-0.34970528
193	0xbdb87f46	-0.090086505
194	0xbd96d982	-0.07365705
195	0x3eed4011	0.4633794
196	0x3f0d6983	0.55239123
197	0x3ed1fceb	0.41013274
198	0x3eb4d870	0.3532138
199	0x3e69d92d	0.22836752
200	0xbee3b8c1	-0.44476894
201	0x3d0e6f79	0.034774277
202	0x3db313fd	0.08744047
203	0xbebdb66c	-0.3705324
204	0xbd5203c7	-0.051273134
205	0xbcb2733d	-0.021783466
206	0xbd7c488f	-0.061592635
207	0xbf3aaee6	-0.72923124
208	0xbf551403	-0.8323366
209	0xbda344dd	-0.07972119
210	0xbf089893	-0.5335781
211	0xbee38afc	-0.44441974
212	0xbedeb1e4	-0.43495095
213	0xbe9c8441	-0.30569652
214	0x397507ee	0.00023367975
215	0xbefbf5dd	-0.49211016
216	0xbed84363	-0.42238912
217	0xbe3707b1	-0.17874028
218	0x3d8dd6b0	0.06925714
219	0xbf141e24	-0.5785849
220	0xbed2abc9	-0.41146687
221	0x3d0dcce0	0.034619212
222	0xbec0c8e4	-0.37653267
223	0x3daa4a6e	0.083149776
224	0x3cf596bc	0.029979102
225	0x3ec6787b	0.38763794
226	0x3d729b95	0.059230406
227	0x3b9b87b8	0.0047464035
228	0x3ee6647a	0.44998533
229	0xbd4a24bb	-0.049351435
230	0x3e220420	0.15821886
231	0x3c12558d	0.00893153
232	0xbda7b799	-0.08189315
233	0x3e7b79a9	0.24558128
234	0xb9eb72aa	-0.00044908124
235	0x3dce1f4d	0.10064564
236	0x3ec7a7d6	0.38995236
237	0x3cbba998	0.022908017
238	0xbcf32eba	-0.029685367
239	0x3e7c0205	0.24610145
240	0xbca783b2	-0.02044854
241	0xbdc2cebf	-0.0951209
242	0xbc1f7c9e	-0.009734301
243	0x3e3e106f	0.18560956
244	0x3d5b8e30	0.053602397
245	0x3dd03b29	0.10167534
246	0x3ed2db87	0.4118311
247	0x3d2ab6e7	0.041678336
248	0x3e792e36	0.24334034
249	0xbd7f0b74	-0.062266782
250	0xbe14452b	-0.1447951
251	0x3a722fe6	0.0009238705
252	0x3d8677ae	0.06565796
253	0x3cf6c340	0.0301224
254	0xbd0475fe	-0.03233909
255	0x3cb8580e	0.022502925

conv4.bias f4 [12]
0	0xbe0f9417	-0.14021336
1	0x3d447b69	0.047969256
2	0x3de6d104	0.11270335
3	0x3db092b2	0.0862173
4	0xbd755d38	-0.059903353
5	0x3bc16d3b	0.005902914
6	0x3d4801d6	0.048829876
7	0xbc1ebb36	-0.009688189
8	0x3ad54fb1	0.001627436
9	0xbdbf484e	-0.09339963
10	0x3e185287	0.14875232
11	0x3d97e39c	0.0741646

conv5.weight f4 [16, 12, 3, 3]
0	0x3ed3fe15	0.41404787
1	0x3da6a2dc	0.08136532
2	0xbe49b0d2	-0.19696358
3	0x3d950acb	0.07277449
4	0xbe9acae0	-0.30232906
5	0xbe22fd32	-0.15916899
6	0x3f07e924	0.5309012
7	0x3ef5f1dd	0.4803609
8	0xbd3eaacf	-0.046549615
9	0xbef46c0c	-0.47738683
10	0xbd3e358c	-0.046437785
11	0x3c578125	0.013153349
12	0x3de0dcd2	0.10979618
13	0x3e29c6e4	0.16579777
14	0x3e533bb4	0.20628244
15	0x3e807dfc	0.25096118
16	0x3e44363e	0.19161317
17	0x3e89151c	0.26773918
18	0x3e36498c	0.17801493
19	0x3e9eab52	0.30990082
20	0x3e33c51b	0.17555659
21	0x3eb0cf9b	0.3453339
22	0x3c4fa510	0.012673631
23	0xbdf9b933	-0.12193527
24	0x3f274815	0.65344363
25	0xbe2221ba	-0.15833178
26	0xbeee6ab1	-0.46565774
27	0x3da21ae6	0.07915287
28	0xbde67e13	-0.112545155
29	0xbe96962e	-0.29411453
30	0xbc199f90	-0.009376422
31	0xbe20f747	-0.15719329
32	0xbe6c9280	-0.2310276
33	0xbd8b205d	-0.06793282
34	0xbe136324	-0.14393288
35	0xbdc3f88e	-0.095688924
36	0xbf22e714	-0.6363385
37	0xbefbaa5d	-0.49153414
38	0xbe71e91d	-0.23624082
39	0xbe58ed70	-0.21184325
40	0xbe813904	-0.25238812
41	0x3c420c31	0.011843727
42	0xbef8e208	-0.48609948
43	0xbf78fe98	-0.9726348
44	0xbfac1957	-1.3445233
45	0x3f23e6db	0.6402413
46	0x3eed8d24	0.46396744
47	0x3f13128d	0.5745018
48	0x3e8a7d1b	0.27048573
49	0x3e520984	0.20511442
50	0x3eccac7e	0.3997535
51	0xbe851a74	-0.25996745
52	0xbea714d9	-0.32633093
53	0x3e30443e	0.17213532
54	0xbe8de483	-0.27713403
55	0xbebb1144	-0.3653661
56	0x3e2ab658	0.16671121
57	0xbe7fda58	-0.24985635
58	0xbdf678b1	-0.12034739
59	0x3e9a1783	0.30096063
60	0xbe56ad31	-0.20964505
61	0x3e255725	0.16146524
62	0x3d49bf70	0.049254835
63	0x3d7cbb80	0.06170225
64	0xbe834b28	-0.25643277
65	0xbe874709	-0.26421383
66	0x3e8ba554	0.27274573
67	0xbca39504	-0.019968517
68	0xbcb83a24	-0.022488661
69	0x3e93ff3a	0.2890566
70	0x3e352ea1	0.17693569
71	0x3e51d08f	0.20489715
72	0xbf3a57b4	-0.72790074
73	0xbf013d7e	-0.50484455
74	0xbedc12b5	-0.42983022
75	0xbe135ef2	-0.14391688
76	0xbe48c443	-0.19606118
77	0xbe0b641e	-0.1361241
78	0x3ed04ef9	0.4068525
79	0x3e98973d	0.29802886
80	0x3e5303d9	0.20606937
81	0x3e4114a7	0.18855534
82	0x3d373735	0.044730384
83	0x3de787d9	0.11305208
84	0x3e9f59cc	0.31123197
85	0x3e28952f	0.16463159
86	0x3ebc6a32	0.3679977
87	0xbe64e5fa	-0.22353354
88	0xbc995d0a	-0.018721122
89	0x3db24cba	0.08706041
90	0xbf21a8dc	-0.63148284
91	0xbea3984d	-0.31952134
92	0xbdeee9ce	-0.116656885
93	0xbf4a7d9b	-0.7909791
94	0xbede3144	-0.43396962
95	0xbdaf2b0d	-0.08553133
96	0xbf1c63ef	-0.61089987
97	0x3d36033f	0.04443669
98	0x3e3a91b1	0.1821964
99	0xbec0635a	-0.375758
100	0xbf398114	-0.7246258
101	0xbf49401c	-0.7861345
102	0xbe1a23ad	-0.15052672
103	0xbea5b821	-0.32367042
104	0xbef52273	-0.47877845
105	0x3d7d3ada	0.061823703
106	0x3e4cd339	0.2000245
107	0x3e2b4e98	0.167292
108	0xbecdc49e	-0.4018907
109	0xbd18ee28	-0.0373365
110	0xbda5afc8	-0.08090168
111	0x3e03a1dd	0.12854715
112	0x3cd4da65	0.025983045
113	0xbe88cb35	-0.26717535
114	0x3e8eb0df	0.27869317
115	0x3c56c869	0.013109305
116	0xbe95d935	-0.29267278
117	0x3dc9a161	0.09845234
118	0x3e665203	0.22492222
119	0x3e796e50	0.24358487
120	0x3da9d404	0.08292392
121	0xbd84df11	-0.06487859
122	0x3b9216aa	0.004458268
123	0xbe3df0ab	-0.18548839
124	0x3d3a0dd2	0.045423336
125	0x3ea008c4	0.31256688
126	0x3dfd6669	0.12373049
127	0xbe8d0092	-0.27539498
128	0xbeaa7253	-0.33290347
129	0x3e05f722	0.13082555
130	0xbe37fa5a	-0.17966595
131	0xbe436896	-0.19082865
132	0xbb18ffae	-0.0023345756
133	0xbe577c91	-0.21043612
134	0xbeaf51ec	-0.3424219
135	0x3e1a38dd	0.15060754
136	0xbda38f92	-0.07986368
137	0xbf3c03c2	-0.73443234
138	0x3e3b6a7c	0.1830234
139	0xbe5ca559	-0.2154745
140	0xbf6d6365	-0.9272979
141	0x3eb36eef	0.35045573
142	0x3e0b6163	0.13611369
143	0xbf690f12	-0.9103862
144	0xbd96f69d	-0.073712565
145	0xbd8e4c48	-0.06948143
146	0x3f54f545	0.8318675
147	0xbc69f6fc	-0.014280077
148	0x3d82e2d5	0.06390921
149	0x3eef2acd	0.46712342
150	0x3e46a85a	0.19400159
151	0x3e182105	0.14856346
152	0x3f16a24c	0.58841395
153	0xbe83439c	-0.2563752
154	0x3ef3b315	0.47597566
155	0x3e0c7151	0.13715102
156	0xbf47e199	-0.7807861
157	0xbe48b7e2	-0.19601396
158	0xbea36cfd	-0.3191909
159	0xbf0c88c6	-0.548962
160	0xbe3a8a27	-0.18216763
161	0xbecaafc9	-0.39587238
162	0x3f1ace7b	0.60471314
163	0x3dc57f55	0.09643427
164	0xbea628f4	-0.3245312
165	0x3dc70712	0.097181454
166	0xbf0cb137	-0.5495791
167	0xbea7fb4d	-0.32808915
168	0x3a7bb83d	0.0009602344
169	0xbe1b572f	-0.15169977
170	0x3f26c775	0.651481
171	0x3e66e5e0	0.22548628
172	0x3ef73d71	0.48289064
173	0x3e08e5fc	0.13368982
174	0x3e93897d	0.28815833
175	0x3e76d58e	0.24104902
176	0xbebb5e25	-0.36595264
177	0x3ea3d4a9	0.31998184
178	0x3ddf89b5	0.109149374
179	0xbc11d4a1	-0.008900792
180	0x3e8b4eb1	0.27208474
181	0x3cf5058e	0.029909875
182	0xbd8528be	-0.065019116
183	0x3ea440b1	0.32080606
184	0x3ec646fd	0.38726035
185	0x3ec7fb10	0.39058733
186	0x3cb3d9d4	0.021954454
187	0x3d33d43a	0.043903567
188	0x3e40e577	0.18837534
189	0xbecfff65	-0.40624538
190	0x3eb92bf4	0.36166346
191	0x3f274fda	0.6535622
192	0xbf0f3a00	-0.55947876
193	0xbd1a7a2a	-0.03771416
194	0x3e405a38	0.18784416
195	0xbea8322e	-0.32850784
196	0x3dd3f446	0.10349326
197	0x3d09b62d	0.033621002
198	0xbf0e0203	-0.5547182
199	0xbeaefd87	-0.341778
200	0xbe61c15e	-0.2204642
201	0x3d97620a	0.07391746
202	0x3e7b4fff	0.24542235
203	0x3dc86426	0.09784727
204	0xbdddaff9	-0.1082458
205	0xbdbcb2af	-0.09213769
206	0xbdb90b13	-0.09035315
207	0xbea625fd	-0.32450858
208	0xbf30c818	-0.6905532
209	0xbf65206d	-0.895026
210	0x3cfff801	0.031246187
211	0xbef105cb	-0.47074732
212	0xbf397ae3	-0.72453135
213	0x3dc9ce2a	0.09853776
214	0xbeb5b51b	-0.35489735
215	0xbf2c708c	-0.6735923
216	0x3e8eace5	0.27866283
217	0x3ea65b80	0.32491684
218	0xbcb4ea07	-0.02208425
219	0x3ed2ff08	0.41210198
220	0xbd72a3e8	-0.059238344
221	0xbed49813	-0.41522273
222	0x3d68f587	0.056874778
223	0x3dc2264a	0.09479959
224	0x3da5345a	0.08066626
225	0x3eec3110	0.46131182
226	0x3e8fd1c0	0.28089714
227	0xba9560e3	-0.0011396672
228	0x3ef94d05	0.48691574
229	0x3e9ace87	0.30235693
230	0x3dd5cf87	0.10439973
231	0xbcec7c84	-0.028867967
232	0xbde03045	-0.10946707
233	0x3e27d6fe	0.16390607
234	0xbf971fcc	-1.1806579
235	0xbf1c2fb4	-0.6101029
236	0xbf24e298	-0.64408255
237	0x3dc714e6	0.09720783
238	0x3e95c5d5	0.29252496
239	0x3f1694b3	0.58820647
240	0x3e1139da	0.14182225
241	0xbe181658	-0.14852273
242	0xbe80068d	-0.25004998
243	0x3f130e34	0.5744355
244	0x3ee025ae	0.43778747
245	0x3f19d54a	0.6009108
246	0xbdb4c232	-0.08826102
247	0xbcc27220	-0.02373606
248	0x3e7979d7	0.24362884
249	0xbf01dd07	-0.50727886
250	0xbce824fa	-0.028337944
251	0x3e6e9d7e	0.23302266
252	0xbd6c9add	-0.057764877
253	0xbdb630c4	-0.0889602
254	0xbe27e643	-0.16396432
255	0x3e8c8f60	0.27453136

conv5.bias f4 [16]
0	0xbba790a0	-0.005113676
1	0x3d94236a	0.07233317
2	0xbd09a832	-0.03360767
3	0x398b3ac8	0.0002655594
4	0xbdaeb534	-0.085306555
5	0x3dc5c74c	0.096571535
6	0x3d2875d4	0.041127995
7	0x3d8a30d4	0.067475945
8	0x3dcd5847	0.10026603
9	0x3d7a3063	0.0610813
10	0xbc9d8560	-0.019228637
11	0xbd99bb47	-0.075064234
12	0x3de57d36	0.11205523
13	0x3ccff95f	0.025387464
14	0x3da07aad	0.078358985
15	0xbcb3a877	-0.021930916

conv6.weight f4 [10, 16, 3, 3]
0	0xbeb085d2	-0.34477097
1	0xbf158154	-0.58400464
2	0xbd748902	-0.059700973
3	0xbe9ac00c	-0.30224645
4	0x3d65b62d	0.05608194
5	0x3e1e34b3	0.1544979
6	0xbb9104ef	-0.004425637
7	0x3ede49f7	0.43415806
8	0x3f0e8f7e	0.556877
9	0xbd493bda	-0.049129345
10	0xbee76b20	-0.45198917
11	0xbf153822	-0.58288777
12	0xbeed2dfd	-0.4632415
13	0xbd946e32	-0.072475806
14	0x3f3c915b	0.73659295
15	0x3de846fb	0.113416635
16	0xbee59bd1	-0.4484544
17	0x3eeee57a	0.46659452
18	0x3e9b2fe1	0.30309966
19	0xbd2beada	-0.04197202
20	0xbb7e8f09	-0.003884258
21	0xbf48c1d9	-0.7842079
22	0xbef5d2f7	-0.48012516
23	0xbeaedbfc	-0.3415221
24	0xbf253a37	-0.64541954
25	0xbe34c82f	-0.17654489
26	0xbf1f89a3	-0.6231939
27	0xbf2b5eab	-0.66941327
28	0xbe753ba4	-0.23948532
29	0x3e5243fa	0.20533744
30	0xbe61f07f	-0.22064398
31	0xbdf63a6f	-0.12022864
32	0xbe0f56d3	-0.13997965
33	0xbf7e52c9	-0.9934507
34	0xbf18c310	-0.5967264
35	0xbe94ef29	-0.29088715
36	0x3f1f6eaf	0.62278265
37	0x3e7155e1	0.23567916
38	0x3f259f95	0.6469663
39	0x3e0e1362	0.13874581
40	0xbe9473c0	-0.2899456
41	0x3efbde7c	0.4919318
42	0x3e22839a	0.15870515
43	0x3e9ad43c	0.30240047
44	0x3ef870c8	0.48523545
45	0x3c9af146	0.018913876
46	0x3f015d93	0.5053341
47	0xbf823993	-1.017382
48	0xbe84d086	-0.2594034
49	0x3cecdb6f	0.028913228
50	0xbf4e616b	-0.806174
51	0x3c43a39a	0.011940861
52	0x3ed5b02f	0.4173598
53	0x3eaedb33	0.3415161
54	0x3ea23c2b	0.3168653
55	0x3e60ad59	0.21941127
56	0x3eb3e545	0.35135856
57	0x3ee3fb49	0.44527653
58	0x3ef1b360	0.47207165
59	0xbe4b5db7	-0.19859968
60	0x3e10ccb3	0.14140587
61	0xbfb2dc95	-1.3973566
62	0xbfaa840b	-1.3321546
63	0xbe4ba038	-0.19885337
64	0xbde62e85	-0.11239342
65	0xbee01454	-0.4376551
66	0xbda464f3	-0.08027067
67	0xbbbac3f0	-0.005699627
68	0xbeae6f68	-0.3406937
69	0x3da129d0	0.07869303
70	0x3e42af54	0.19012195
71	0xbf06dae6	-0.5267776
72	0xbca9f27a	-0.020745505
73	0xbe6a4dff	-0.22881316
74	0xbf70d729	-0.9407831
75	0x3cd8fba8	0.026487187
76	0x3eb2d5af	0.34928653
77	0xbe810133	-0.25196227
78	0x3d8a3576	0.06748478
79	0x3ecdb552	0.401774
80	0xbd8ba3d4	-0.06818357
81	0xbdf6adea	-0.1204489
82	0x3dd7107b	0.1050119
83	0x3ea2f002	0.31823736
84	0xbf7321f9	-0.94973713
85	0x3ebc7fcf	0.3681626
86	0x3c85f46d	0.016351903
87	0xbf1ab0cd	-0.60426027
88	0x3e50c205	0.20386513
89	0x3e103da5	0.14086016
90	0xbf47e87f	-0.78089136
91	0xbf3ee452	-0.7456714
92	0xbfc48f8e	-1.535631
93	0xbf725a0a	-0.9466864
94	0xbe8ac9f2	-0.27107197
95	0x3dcb8370	0.09937179
96	0xbeaa00f6	-0.33203858
97	0xbdc7a994	-0.09749141
98	0x3efa6543	0.48905382
99	0xbdb1e25c	-0.08685753
100	0xbe09b276	-0.13446984
101	0xbf0609a8	-0.52358484
102	0x3eb47e93	0.35252818
103	0xbe149218	-0.14508855
104	0xbf63f901	-0.89051825
105	0x3eee1726	0.46502036
106	0x3ea55be4	0.3229667
107	0xbf44f9ea	-0.7694384
108	0x3d1b8527	0.03796878
109	0x3e71e4af	0.23622392
110	0xbf021719	-0.50816494
111	0x3ea94726	0.33062094
112	0xbe67fa28	-0.22654021
113	0xbf20ed3a	-0.6286198
114	0x3f14d592	0.5813838
115	0xbf2fac48	-0.68622255
116	0x3e31d9f0	0.17368293
117	0x3eb87a38	0.36030746
118	0x3ee7bf2b	0.45263037
119	0xbe0478ab	-0.12936656
120	0xbf1b2f38	-0.60618925
121	0x3e532d03	0.2062264
122	0x3e9bd217	0.30433723
123	0xbfbff08a	-1.4995282
124	0x3ebcd354	0.3687998
125	0x3f627f67	0.8847565
126	0xbe09b392	-0.13447407
127	0x3e6d75c7	0.2318946
128	0x3f286dde	0.65792644
129	0xbe4da259	-0.20081462
130	0xbe6cffc8	-0.23144448
131	0x3e60fed1	0.21972205
132	0xbe09fd2f	-0.13475488
133	0xbe9947b8	-0.2993753
134	0x3eb7c9a5	0.3589603
135	0xbcad9856	-0.021190803
136	0xbe6d544f	-0.23176692
137	0xbebda06e	-0.3703646
138	0x3e252ab0	0.16129565
139	0x3c0a86eb	0.0084550185
140	0xbf1383c7	-0.5762295
141	0x3ea1c808	0.31597924
142	0x3dae9b22	0.08525683
143	0x3e9b6673	0.303516
144	0xbdfbad86	-0.12288956
145	0xbe507f90	-0.20361161
146	0xbe59fee3	-0.21288638
147	0xbeeac42e	-0.45852798
148	0xbf0bb4ac	-0.5457256
149	0x3de02932	0.109453574
150	0xbe9d2c20	-0.30697727
151	0xbe9ce28b	-0.3064159
152	0x3d772ef3	0.06034751
153	0x3eaddeb4	0.33958972
154	0x3efd75ac	0.4950384
155	0x3f157a8e	0.5839013
156	0xbcc368fa	-0.023853768
157	0xbe2aab71	-0.16666962
158	0xbef1ed13	-0.47251186
159	0x3e62770e	0.22115728
160	0xbf29caca	-0.66325057
161	0xbe56b582	-0.20967677
162	0xbf919d76	-1.1376178
163	0xbf1a814b	-0.60353535
164	0xbf16c05c	-0.5888727
165	0xbfc94381	-1.5723726
166	0xbf666da3	-0.9001104
167	0xbf6db630	-0.9285612
168	0xbe9d0845	-0.30670372
169	0xbe8847dd	-0.26617327
170	0xbf132cf8	-0.5749049
171	0xbea2f621	-0.31828406
172	0xbe3ad5c9	-0.18245615
173	0xbe89c40d	-0.26907387
174	0xbc0404f1	-0.008057819
175	0xbd7c0132	-0.061524577
176	0xbec4eeeb	-0.3846353
177	0x3d5c7b3b	0.05382846
178	0x3da78c49	0.08181054
179	0xbf15aa64	-0.5846312
180	0xbf0807ff	-0.531372
181	0xbebe81eb	-0.37208495
182	0x3ca27712	0.019832168
183	0x3da99273	0.08279886
184	0xbc1fc6a0	-0.009751946
185	0xbf00df4f	-0.5034074
186	0xbd482c74	-0.04887052
187	0x3e11f106	0.142521
188	0xbf6d8c9a	-0.92792666
189	0x3e64f5bd	0.22359367
190	0xbd8f263c	-0.069897145
191	0xbf30c33c	-0.69047904
192	0x3eaa830b	0.33303103
193	0x3f0154eb	0.505202
194	0x3e5b19b1	0.21396519
195	0x3f083500	0.5320587
196	0x3ee29256	0.4425227
197	0x3f033893	0.512582
198	0x3eae9989	0.34101513
199	0x3e9d6f7b	0.30749115
200	0x3eb61fe0	0.35571194
201	0x3e9ebc25	0.31002918
202	0x3f1b6cb4	0.6071274
203	0x3c0090df	0.00784704
204	0x3f5f9b13	0.87346
205	0x3f0c5301	0.54814154
206	0x3e23566c	0.15950936
207	0x3db599a4	0.08867195
208	0x3e0f326c	0.13984078
209	0xbeb4a2f1	-0.35280564
210	0x3dae1bd3	0.08501401
211	0xbd91d5b8	-0.07120842
212	0xbe97d635	-0.29655614
213	0xbe93b9b3	-0.28852615
214	0xbeb72a38	-0.35774398
215	0xbf27fb4a	-0.6561781
216	0x3e41ea0e	0.18936941
217	0x3e8502b0	0.25978613
218	0x3ee8114e	0.45325702
219	0x3e408e0c	0.18804187
220	0x3e8a9895	0.27069536
221	0x3eb5e75c	0.35528076
222	0x3e668680	0.22512245
223	0x3ed95a7b	0.42451844
224	0x3e377761	0.17916633
225	0x3e123f20	0.14281893
226	0xbdb456f6	-0.08805649
227	0x3eaf8537	0.34281322
228	0x3e55fb5f	0.20896672
229	0xbed1485f	-0.40875527
230	0x3ec2a217	0.3801429
231	0x3edf450e	0.43607372
232	0x3e772643	0.2413569
233	0x3eea8afa	0.45809156
234	0xbd755cdd	-0.059903014
235	0xbf0fe28b	-0.5620505
236	0xbf0bbbb9	-0.5458332
237	0xbeb66517	-0.35624
238	0xbf3605b8	-0.71102476
239	0xbecf6f85	-0.4051477
240	0x3e2d3257	0.16913734
241	0xbc7e6ccf	-0.015528872
242	0xbdf0a9ef	-0.11751162
243	0xbf5ea679	-0.8697277
244	0xbe4ca134	-0.19983369
245	0x3bb4e4e8	0.005520452
246	0xbf616130	-0.8803892
247	0xbed689f5	-0.41902128
248	0xbcfeddf0	-0.031111687
249	0xbf1ba0f3	-0.60792464
250	0xbf39fbd7	-0.726499
251	0xbbf186a5	-0.007370787
252	0xbe8b9085	-0.27258697
253	0x3e825ccd	0.25461426
254	0x3e6ab1d4	0.22919399
255	0x3c80219f	0.015641032

conv6.bias f4 [10]
0	0xbd95bf11	-0.07311834
1	0x3e3d7e5d	0.18505235
2	0xbe3aa70f	-0.1822779
3	0xbd51324d	-0.05107336
4	0x3e68bb4f	0.22727703
5	0xbd9e6e90	-0.07735932
6	0xbd3074b0	-0.043080032
7	0x3ddbfc5c	0.10741493
8	0x3de5c623	0.11219432
9	0xbcc3e719	-0.023913907

bn1.weight f4 [4]
0	0x3f7c3237	0.9851412
1	0x3f6fc4f3	0.93659896
2	0x3fe9e0c4	1.8271718
3	0x3f72a501	0.94783026

bn1.bias f4 [4]
0	0x3e8cd7c8	0.27508378
1	0x3e926a09	0.28596523
2	0x3e8f2bb6	0.27963036
3	0x3e2f4e98	0.17119825

bn1.running_mean f4 [4]
0	0xbf0d4288	-0.55179644
1	0x3e37b089	0.17938437
2	0xbe888408	-0.26663232
3	0x3e7a8319	0.24464072

bn1.running_var f4 [4]
0	0x3fcda8ae	1.6067102
1	0x4002f1f4	2.0460176
2	0x40f50850	7.6572647
3	0x3f6b4d6d	0.9191502

bn2.weight f4 [8]
0	0x3f9fca32	1.248358
1	0x3f70b963	0.9403288
2	0x3fbbf7b5	1.4684969
3	0x3f577f5f	0.8417873
4	0x3f878cdb	1.0589861
5	0x3f7d8fb4	0.990474
6	0x3f6e6b93	0.93132895
7	0x3fc4909c	1.5356631

bn2.bias f4 [8]
0	0xbe1a19d5	-0.15048917
1	0xbe571054	-0.21002322
2	0xbe3a0822	-0.18167165
3	0xbdd0573f	-0.10172891
4	0xbe7eaebb	-0.24871342
5	0x3f2c14ab	0.67219037
6	0xbf2da4c2	-0.67829525
7	0xbd871760	-0.06596255

bn2.running_mean f4 [8]
0	0x3f82b2af	1.021078
1	0xc011a3a9	-2.275614
2	0xbf96e254	-1.178782
3	0xc00e4fc3	-2.2236183
4	0x3f4801e5	0.7812789
5	0xc0996da2	-4.794633
6	0xc04d4513	-3.207341
7	0xc00c7701	-2.1947634

bn2.running_var f4 [8]
0	0x418290be	16.320675
1	0x406eb56a	3.7298226
2	0x41837d5a	16.436207
3	0x409334b2	4.6001825
4	0x4069da38	3.653944
5	0x41284486	10.516729
6	0x4058ed5e	3.3894877
7	0x418ed26d	17.852747

bn3.weight f4 [8]
0	0x3f905b44	1.1277852
1	0x3fa8f90f	1.3201007
2	0x3f7ad2c2	0.9797784
3	0x3f8eb581	1.1149141
4	0x3f8950b7	1.0727757
5	0x3f629ae7	0.8851761
6	0x3f99d5c0	1.2018356
7	0x3fc78c2d	1.5589653

bn3.bias f4 [8]
0	0xbe2dfc65	-0.16990812
1	0xbf097c1e	-0.5370501
2	0xbd15a03e	-0.036529772
3	0x3c824d4d	0.015906
4	0xbeda653b	-0.42655358
5	0xbdb81014	-0.08987442
6	0xbeda0025	-0.42578235
7	0xbc176e25	-0.009242569

bn3.running_mean f4 [8]
0	0xbfb3d8b2	-1.4050505
1	0xbf276ca1	-0.6540013
2	0x3fd4bc4b	1.6619962
3	0x3f4e6475	0.80622035
4	0xbe061f68	-0.13097918
5	0x3e8bf6b6	0.27336663
6	0xbf1c1d6a	-0.6098238
7	0xc0042dc1	-2.0652926

bn3.running_var f4 [8]
0	0x40bdb730	5.9286118
1	0x41066823	8.400424
2	0x40b3a167	5.6134524
3	0x40f7b7a9	7.7411695
4	0x406de400	3.717041
5	0x40501512	3.251286
6	0x409ecae7	4.9622684
7	0x40d06374	6.5121403

bn4.weight f4 [12]
0	0x3f8f9505	1.1217352
1	0x3f80610d	1.0029618
2	0x3f8db7f3	1.1071762
3	0x3f7cc122	0.987322
4	0x3f996ec7	1.1986932
5	0x3fb3a94a	1.4036038
6	0x3f9d8f03	1.2309269
7	0x3f9366c0	1.1515732
8	0x3f50fd09	0.816361
9	0x3f995c48	1.1981287
10	0x3f856294	1.0420709
11	0x3f93bf51	1.154276

bn4.bias f4 [12]
0	0xbee8fdcd	-0.45506135
1	0xbec302b4	-0.38088
2	0xbed2db13	-0.41182765
3	0xbd95551e	-0.072916254
4	0xbf258741	-0.64659506
5	0xbf41894f	-0.7560014
6	0xbeb57e62	-0.35447985
7	0xbec03f77	-0.3754842
8	0xbc54abc4	-0.012980405
9	0xbf11ebfa	-0.57000697
10	0xbe032f3d	-0.12810989
11	0xbf7e6dc4	-0.9938624

bn4.running_mean f4 [12]
0	0xc0428b0a	-3.0397363
1	0x3e3c483c	0.1838693
2	0xc025517b	-2.5830982
3	0xbdae0c8c	-0.08498487
4	0xc019d36a	-2.4035287
5	0xc047389e	-3.1128306
6	0x3ea490e4	0.32141793
7	0xbff1437f	-1.8848723
8	0x3eb709a3	0.3574954
9	0xc083bfd8	-4.1171684
10	0xbf768593	-0.9629757
11	0xbf476d63	-0.77901286

bn4.running_var f4 [12]
0	0x4130779f	11.029204
1	0x4103437b	8.203975
2	0x4149a40e	12.602552
3	0x414e427a	12.89123
4	0x411264dd	9.149625
5	0x4131dba2	11.116121
6	0x4188d626	17.104565
7	0x41679d81	14.475953
8	0x412f449f	10.954253
9	0x414b616e	12.711287
10	0x41145ac8	9.272163
11	0x40a03ff2	5.007806

bn5.weight f4 [16]
0	0x3fad76ae	1.3551843
1	0x3fb06ddf	1.378353
2	0x3fbfca91	1.4983693
3	0x3ff60819	1.9221221
4	0x3fcf985c	1.6218371
5	0x3fc11623	1.508488
6	0x3fd0ad7a	1.6302941
7	0x3ff8a2f2	1.9424727
8	0x3fa9c46d	1.3263069
9	0x3f9d8f7d	1.2309414
10	0x3fd36c9c	1.651752
11	0x3fe046c5	1.7521597
12	0x3faaaba7	1.3333634
13	0x3fad9f8c	1.3564315
14	0x3fb004ea	1.37515
15	0x3fad6ae4	1.3548245

bn5.bias f4 [16]
0	0xbe8a3d75	-0.27000013
1	0xbe732920	-0.23746157
2	0xbe8f75b9	-0.28019503
3	0xbf01239d	-0.50444967
4	0xbeab404e	-0.33447498
5	0xbea25395	-0.31704393
6	0xbe7bbf67	-0.24584733
7	0xbf19b616	-0.60043466
8	0xbdcd4c04	-0.100242645
9	0xbe6ec43b	-0.23317043
10	0xbe84c50f	-0.25931594
11	0xbe6edb75	-0.23325904
12	0xbd8fd5ff	-0.070232384
13	0xbecfbbe0	-0.40573025
14	0xbe60cd4e	-0.21953318
15	0xbe750d4d	-0.23930855

bn5.running_mean f4 [16]
0	0xbfe3589e	-1.7761419
1	0xbf8c4f2d	-1.0961663
2	0xbff4c56b	-1.9122747
3	0xbf96db0d	-1.1785599
4	0xbfe350b0	-1.7758999
5	0x3e87c3e3	0.26516637
6	0xc07cd8b6	-3.950727
7	0xbffbe546	-1.9679344
8	0xbfac3136	-1.3452518
9	0xbf5efe48	-0.8710675
10	0xc01e6209	-2.4747336
11	0x3da74f8e	0.08169471
12	0xbf4aa379	-0.7915569
13	0xbf7a0ad1	-0.97672755
14	0xbf807e30	-1.0038509
15	0x3efbd169	0.49183205

bn5.running_var f4 [16]
0	0x40e76741	7.231354
1	0x40b38a39	5.610623
2	0x41143996	9.264059
3	0x41044303	8.26636
4	0x40d3e685	6.6218896
5	0x40be8d74	5.954767
6	0x411432b4	9.262379
7	0x410ffee3	8.999728
8	0x413e8c8d	11.909314
9	0x40be27b6	5.9423475
10	0x4101ea22	8.119661
11	0x411275aa	9.153727
12	0x40cf39d1	6.4758077
13	0x40c67339	6.2015653
14	0x40d1cab7	6.5559955
15	0x4103b639	8.231988

conv1d_1.weight f4 [4, 8, 1]
0	0x3f249cc6	0.6430172
1	0xbddb6c58	-0.10714024
2	0xbe71d694	-0.23617011
3	0xbed0161c	-0.40641868
4	0x3dc956de	0.09831022
5	0x3f111dff	0.56686395
6	0xbed48931	-0.4151092
7	0xbf636816	-0.888307
8	0x3ea3f2f9	0.3202131
9	0x3edd01bf	0.43165395
10	0xbf320942	-0.69545376
11	0x3edf2071	0.43579438
12	0xbf1ba440	-0.607975
13	0xbd9ec191	-0.077517636
14	0x3f015320	0.50517464
15	0xbe5b62e1	-0.21424438
16	0xbd819726	-0.063276574
17	0x3ef0df8c	0.47045553
18	0x3f726e5e	0.94699657
19	0x3e364ae7	0.1780201
20	0xbf397cb5	-0.7245591
21	0xbee6cb22	-0.45076853
22	0xbe05c58d	-0.13063641
23	0x3f0b8e7f	0.54514307
24	0xbf0e206a	-0.5551821
25	0x3e51d0b3	0.20489769
26	0xbefce171	-0.49390748
27	0xbe3c0540	-0.18361378
28	0xbe4730e3	-0.19452243
29	0x3f28563a	0.6575657
30	0xbd6dec9c	-0.058086976
31	0xbf250711	-0.6446391

conv1d_1.bias f4 [4]
0	0xbe8124d8	-0.25223422
1	0xbc30ed76	-0.010798803
2	0x3f0e8c31	0.55682665
3	0xbd89c467	-0.06726914

bn1d_1.weight f4 [4]
0	0x3f8bbce8	1.0917025
1	0x3f83c988	1.0295877
2	0x3fb0816a	1.3789494
3	0x3f73e091	0.95264536

bn1d_1.bias f4 [4]
0	0x3f0b5e1d	0.5444048
1	0x3f080cbb	0.53144425
2	0x3e07785f	0.13229512
3	0xbe463e6b	-0.19359748

bn1d_1.running_mean f4 [4]
0	0xbe8342b3	-0.25636825
1	0xbde44f34	-0.11147919
2	0x3f6e114e	0.92995155
3	0xbf137c2d	-0.5761135

bn1d_1.running_var f4 [4]
0	0x401ecccf	2.4812505
1	0x3fa895c2	1.3170702
2	0x4004dea3	2.0760887
3	0x3ef6e0bc	0.48218334
