best_model.pth (torch, 32354 bytes, 38 tensors)

conv1.weight f4 [4, 1, 3, 3]
0	0x3ebdde1a	0.37083513
1	0xbda91dee	-0.08257662
2	0xbf3a8cce	-0.728711
3	0x3f819fe1	1.0126916
4	0x3ea29f29	0.31762055
5	0xbebb5314	-0.3658682
6	0xbe765c76	-0.24058709
7	0x3d819fd8	0.06329316
8	0x3e040560	0.12892675
9	0xbf376d65	-0.716513
10	0x3e456a1c	0.19278759
11	0xbef396e8	-0.4757607
12	0x3d2d3e1e	0.042295568
13	0x3f3bf2a4	0.73417115
14	0x3ed1e30f	0.40993544
15	0x3f119313	0.5686504
16	0x3e155f54	0.14587146
17	0xbcc0a6af	-0.02351698
18	0xbea38846	-0.31939906
19	0x3dc83aba	0.09776826
20	0x3eab2607	0.3342745
21	0xbf6b3bb2	-0.9188796
22	0xbe3bdc70	-0.18345809
23	0x3f25af8c	0.6472099
24	0xbf364fd7	-0.71215576
25	0xbeb3d563	-0.3512374
26	0x3d1f34a1	0.03886855
27	0xbcf0828b	-0.029359123
28	0xbed7dc7c	-0.42160404
29	0xbf0bdb3d	-0.54631406
30	0x3e853270	0.26015043
31	0xbe126408	-0.14295971
32	0x3ed7120f	0.42005965
33	0x3dc81741	0.0977006
34	0x3e301b1a	0.17197838
35	0x3f0263e7	0.5093369

conv1.bias f4 [4]
0	0xbd950be6	-0.0727766
1	0x3e716140	0.23572254
2	0x3e0a5014	0.1350711
3	0xbef0ee68	-0.4705689

conv2.weight f4 [8, 4, 3, 3]
0	0x3cd6cd08	0.026220813
1	0x3e1552e2	0.14582399
2	0xbd07d7ae	-0.033164673
3	0x3ee4a0c0	0.44653893
4	0xbdab90c0	-0.08377218
5	0xbe47ba9b	-0.19504778
6	0x3ec832a0	0.39101124
7	0xbe31e17a	-0.17371169
8	0x3e24d1ee	0.16095707
9	0x3e155cb5	0.14586146
10	0xbe8e61c3	-0.2780896
11	0xbc7dea73	-0.015497792
12	0x3e2b4d37	0.16728674
13	0xbcd2207c	-0.025650255
14	0x3ebddf2d	0.37084332
15	0x3db33948	0.0875116
16	0xbee7e0ae	-0.45288604
17	0xbd013159	-0.031541202
18	0xbf0e6e20	-0.5563679
19	0xbf1cced9	-0.61253124
20	0x3d62915d	0.05531441
21	0xbf6372a0	-0.8884678
22	0xbf85d794	-1.0456414
23	0xbf60d389	-0.8782278
24	0xbee8c3ff	-0.45462033
25	0xbf85076f	-1.0392894
26	0xbf4f1ce7	-0.80903476
27	0xbe9403ee	-0.28909248
28	0x3e972168	0.29517674
29	0x3ef39a4d	0.4757866
30	0x3edcbeb2	0.4311424
31	0x3e1adcce	0.15123293
32	0x3e674a1a	0.22586861
33	0xbdf76b2c	-0.12080988
34	0x3d9a6426	0.07538633
35	0x3bc9826e	0.0061495816
36	0xbe590355	-0.21192677
37	0xbe2e8b54	-0.17045337
38	0xbd3371e1	-0.043809775
39	0xbdbf6385	-0.09345154
40	0xbd4cf35c	-0.050036773
41	0xbe2833a4	-0.1642595
42	0xbe08ec33	-0.13371353
43	0xbe19e8ed	-0.1503026
44	0x3da83371	0.08212937
45	0xbc8ef49b	-0.017450621
46	0xbdebdeb6	-0.11517088
47	0xbe90d0e6	-0.28284377
48	0x3dde9658	0.108685195
49	0x3d3c5936	0.045983516
50	0x3daf4682	0.0855837
51	0x3e60b27c	0.21943086
52	0x3e8162d0	0.252707
53	0x3ed4c273	0.41554603
54	0xbdc3df15	-0.09564034
55	0xbd58d61c	-0.052938566
56	0x3eb49221	0.35267738
57	0xbd190077	-0.03735396
58	0xbe8284e4	-0.25492013
59	0xbe096645	-0.13417919
60	0xbec2c9d4	-0.38044608
61	0xbef88008	-0.4853518
62	0xbdfe93bd	-0.124305226
63	0xbec51b24	-0.3849727
64	0xbf1b1884	-0.6058428
65	0xbe8c9f12	-0.2746511
66	0x3d2a2472	0.041538663
67	0xbe7f4728	-0.24929488
68	0xbc389e79	-0.011268252
69	0xbea02be3	-0.31283483
70	0x3f245e98	0.6420684
71	0x3f99aa69	1.200513
72	0x3ecb494d	0.39704362
73	0xbd4d1791	-0.050071303
74	0x3eb7a2c9	0.35866383
75	0x3d5387e2	0.05164326
76	0x3e91e275	0.28493086
77	0xbe0e20f2	-0.13879755
78	0xbe936814	-0.28790343
79	0xbf344cf2	-0.7042991
80	0xbf489016	-0.7834486
81	0x3dd66513	0.10468497
82	0xbe49707e	-0.19671819
83	0xbf20d1c2	-0.62820065
84	0xbf5ab6ef	-0.85435385
85	0xbf914dbc	-1.1351848
86	0xbf01a4b0	-0.5064192
87	0xbf9a38d8	-1.2048597
88	0xbe7bad6c	-0.24577874
89	0x3ea91109	0.3302081
90	0xbd951a00	-0.0728035
91	0x3d3278b4	0.043572143
92	0xbecbb8ea	-0.39789516
93	0x3cc3c297	0.023896499
94	0xbf21fa53	-0.6327259
95	0xbee001d6	-0.437514
96	0xbdf593e6	-0.119911
97	0xbe820203	-0.2539216
98	0xbd3d1182	-0.046159275
99	0x3cb3d197	0.021950526
100	0xbeca5865	-0.39520565
101	0xbee6fca3	-0.45114622
102	0xbc939bbb	-0.018018594
103	0x3b60dd4b	0.0034311588
104	0x3df6a81a	0.120437816
105	0xbe4794ab	-0.19490306
106	0x3e83b54f	0.25724265
107	0x3e9dbd5a	0.30808526
108	0x3e10168e	0.14071104
109	0xbf1ffaa3	-0.62491816
110	0xbee55cd2	-0.4479738
111	0x3e87745c	0.26455963
112	0xbee81f1d	-0.45336238
113	0xbecfe294	-0.40602553
114	0x3f155531	0.58333117
115	0xbe1d6d03	-0.15373616
116	0xbc23f67d	-0.010007498
117	0xbdba65d1	-0.09101451
118	0xbe6a6236	-0.22889027
119	0xbdc3266b	-0.09528812
120	0x3d2632e6	0.040575884
121	0xbd2e5f9d	-0.042571653
122	0x3d1c39cd	0.03814106
123	0xbd4eb6e1	-0.050467376
124	0x3d6d5448	0.057941705
125	0x3e279325	0.16364725
126	0xbe5fe982	-0.2186642
127	0xbd336e55	-0.043806393
128	0x3ecd2221	0.400651
129	0xbedcd3c8	-0.43130326
130	0xbe9d86a4	-0.30766785
131	0x3f193e6b	0.5986087
132	0xbf6d926d	-0.92801553
133	0xbf268faa	-0.65062964
134	0xbe74d508	-0.2390939
135	0xbe40c7f3	-0.18826275
136	0xbe7f7a64	-0.24949032
137	0xbe93e0da	-0.28882486
138	0x3f13a2c4	0.57670236
139	0xbe6b8645	-0.23000439
140	0xbe8d6cc0	-0.27622032
141	0x3d2c0a3b	0.042001944
142	0x3f1fb731	0.623889
143	0xbec8bee3	-0.39208135
144	0x3eb86e35	0.3602158
145	0x3d524aef	0.051340993
146	0xbe6364b6	-0.22206387
147	0x3e8572ad	0.26064053
148	0x3d6a7172	0.057237096
149	0xbd961513	-0.07328238
150	0x3eac95af	0.3370795
151	0x3e7a39e7	0.2443615
152	0x3ce0aa26	0.027424883
153	0x3e171b3b	0.14756481
154	0xbe4a49d3	-0.19754724
155	0xbec02d6d	-0.37534657
156	0x3e6bf160	0.23041296
157	0xbe1a7b13	-0.15086012
158	0xbe45b6d2	-0.19308022
159	0x3e87d0bf	0.26526448
160	0xbebf8811	-0.37408498
161	0xbea5cb70	-0.32381773
162	0xbe0a8ad0	-0.13529515
163	0xbe1ab288	-0.15107167
164	0xbc57e27d	-0.013176558
165	0xbeba685f	-0.36407754
166	0xbb8e4e34	-0.0043428186
167	0x3edee641	0.43535045
168	0xbf054b6e	-0.5206822
169	0x3eb0ea3a	0.345537
170	0x3f25e70a	0.6480566
171	0xbd8e0883	-0.06935217
172	0xbe46f868	-0.19430697
173	0xbd89bc6a	-0.0672539
174	0xbe855b7b	-0.26046357
175	0x3d33abdf	0.04386508
176	0xbd5edb64	-0.054408446
177	0xbeecb905	-0.4623491
178	0xbe9b2b89	-0.30306652
179	0xbe62f56a	-0.2216393
180	0xbf0fe074	-0.56201863
181	0x3d7c346d	0.061573435
182	0x3edd3721	0.43206123
183	0xbdfa8d23	-0.12233951
184	0x3da551ac	0.08072218
185	0x3e31bb3d	0.17356582
186	0x3e7da4a9	0.24769844
187	0x3e9c641c	0.30545127
188	0x3d6094c5	0.054829378
189	0x3ecbea71	0.39827302
190	0x3dc3eaa5	0.09566239
191	0x3f648800	0.8927002
192	0x3f824c92	1.0179617
193	0x3ebba922	0.36652476
194	0x3e6f82f8	0.23389804
195	0x3d5d420d	0.05401807
196	0x3dd592e4	0.10428408
197	0x3ddf2bd4	0.108970314
198	0x3e349817	0.17636143
199	0x3cbf44b8	0.023348197
200	0xbf6bfbaf	-0.92180914
201	0xbea44c9d	-0.320897
202	0xbed0ef65	-0.40807644
203	0xbef0e62c	-0.47050607
204	0xbe4779e7	-0.19480096
205	0xbe9146d5	-0.28374353
206	0xbed20e2a	-0.4102643
207	0xbe3adbd0	-0.18247914
208	0xbd58d563	-0.052937876
209	0xbd2f4271	-0.042787973
210	0x3d4ac64e	0.049505524
211	0xbdc87a39	-0.09788937
212	0xbe77b724	-0.24190956
213	0xbdf29904	-0.11845592
214	0xbdd9dab7	-0.1063742
215	0xbdbb64e8	-0.09150106
216	0x3de0b4ec	0.10972008
217	0xbe5fe924	-0.2186628
218	0xbede65ae	-0.4343695
219	0x3ec58ac0	0.3858242
220	0x3e941226	0.28920096
221	0xbec6aa21	-0.38801673
222	0x3de2123d	0.11038635
223	0x3f00f579	0.5037456
224	0x3d773707	0.060355213
225	0x3d6554d0	0.055989087
226	0xbe04ebf0	-0.12980628
227	0xbed33d38	-0.41257644
228	0x3e5c8ce3	0.21538119
229	0x3d22dac0	0.039759398
230	0xbd14864e	-0.036260895
231	0x3db9a053	0.090637825
232	0xbdcb2ee6	-0.099210545
233	0x3d4591ba	0.04823468
234	0xbe50b3c5	-0.20381077
235	0xbee54cda	-0.44785196
236	0x3f27345e	0.6531428
237	0xbd924fa1	-0.07144094
238	0xbecbbcf7	-0.39792606
239	0x3d893d35	0.067011274
240	0x3ee85c58	0.45382953
241	0xbf1d3cd6	-0.61420953
242	0xbf2c4361	-0.6729031
243	0xbd95b5a5	-0.073100366
244	0xbeac9200	-0.3370514
245	0xbe2f1b59	-0.17100276
246	0xbe10b24b	-0.14130513
247	0x3f7df801	0.9920655
248	0x3ea5647e	0.32303232
249	0xbe52b5b6	-0.2057713
250	0xbe5222ef	-0.20521139
251	0x3c44c144	0.012008969
252	0xbf1a097b	-0.60170716
253	0x3f1187ec	0.56848025
254	0xbe118676	-0.14211449
255	0xbf5c69c6	-0.860989

conv2.bias f4 [8]
0	0xbdee4f94	-0.11636272
1	0xbc075f9c	-0.008262541
2	0x3dcb3a93	0.099232815
3	0x3d91460c	0.070934385
4	0xbea04ef6	-0.31310242
5	0xbe0c6259	-0.13709392
6	0x3ce0f8c8	0.027462378
7	0xbea6ff69	-0.32616737

conv3.weight f4 [8, 4, 3, 3]
0	0x3d940e1c	0.07229254
1	0x3eab6aeb	0.3348001
2	0xbd8feebd	-0.070279576
3	0xbd15d3ed	-0.03657906
4	0xbe017934	-0.12643892
5	0x3c262e7c	0.010142919
6	0xbf1df13e	-0.6169623
7	0xbd8cb888	-0.06871134
8	0xbe084d84	-0.1331082
9	0xbea64e13	-0.3248144
10	0x3ec53992	0.38520485
11	0x3ce172dd	0.027520591
12	0xbe4aa482	-0.19789317
13	0x3f64a640	0.8931618
14	0x3e86ddc2	0.26341063
15	0x3e3b3dd5	0.18285306
16	0x3e880a69	0.26570442
17	0xbe136cd3	-0.14396982
18	0xbf364236	-0.7119478
19	0xbe66426b	-0.22486274
20	0x3ea1646a	0.31521922
21	0xbf3b0eb6	-0.7306932
22	0x3ca623e9	0.020280795
23	0x3e9dc452	0.30813843
24	0xbe7eff08	-0.24901974
25	0xbeae86d1	-0.34087232
26	0x3e52c117	0.2058147
27	0xbeb5d78b	-0.3551601
28	0x3dbaaceb	0.09115013
29	0x3c320402	0.010865213
30	0x3e1acdda	0.15117589
31	0x3ce8bb8e	0.028409746
32	0x3edb7089	0.42859295
33	0x3e5e5d44	0.21715266
34	0x3eb78bbd	0.358488
35	0x3f49323c	0.78592277
36	0x3e017e45	0.12645824
37	0xbee7d2ec	-0.45278108
38	0xbeaf7193	-0.34266338
39	0xbdfd8ab3	-0.123799704
40	0x3e0a523f	0.13507937
41	0x3f19235d	0.59819585
42	0xbd836189	-0.06415088
43	0xbba8f416	-0.0051560504
44	0x3e1e2f5b	0.15447752
45	0xbe900dd3	-0.28135547
46	0xbe583181	-0.21112634
47	0x3e6c17a5	0.23055895
48	0xbede1984	-0.43378842
49	0x3d0b7691	0.03404862
50	0x3e07ec37	0.13273703
51	0xbe860b91	-0.261807
52	0xbe1c1772	-0.15243319
53	0x3e611cc4	0.2198363
54	0xbeebc210	-0.46046495
55	0x3f5f96c6	0.87339437
56	0x3f6f71b5	0.9353288
57	0x3e565e7a	0.20934477
58	0x3f1335ee	0.57504165
59	0x3ee75db8	0.4518869
60	0xbebba1b1	-0.36646798
61	0xbeceed56	-0.40415448
62	0xbe2fdc5c	-0.17173904
63	0xbe233923	-0.15939765
64	0xbd80a0c6	-0.06280665
65	0x3d9d0df3	0.07668676
66	0x3f1afff5	0.6054681
67	0x3c06021d	0.008179215
68	0xbe892b3d	-0.267908
69	0x3e7dd4a3	0.24788146
70	0xbe5aadb4	-0.21355325
71	0xbef6ace5	-0.48178783
72	0xbbc6ef82	-0.006071032
73	0xbcae3814	-0.021266975
74	0xbec30868	-0.3809235
75	0xbc40f033	-0.011776018
76	0x3df6dfe7	0.12054425
77	0xbd22719e	-0.039659135
78	0x3eca572e	0.39519638
79	0x3e55cc74	0.20878774
80	0x3df2cee3	0.11855867
81	0xbe7d29a6	-0.24722919
82	0xbf1e1af4	-0.6175988
83	0xbf38bb2a	-0.7216059
84	0xbccbdf6f	-0.024886815
85	0xbf149769	-0.58043534
86	0xbe63c1e3	-0.2224193
87	0x3f6e6b82	0.93132794
88	0x3eb92f24	0.36168778
89	0x3f135299	0.5754791
90	0x3deff80b	0.11717232
91	0xbe87668d	-0.26445428
92	0xbeb930af	-0.36169955
93	0x3e307758	0.17233026
94	0xbca71b77	-0.020398838
95	0x3d9e137e	0.077185616
96	0x3eb084f6	0.3447644
97	0x3e769d8a	0.24083534
98	0x3d128f43	0.035781156
99	0x3dcf9374	0.10135546
100	0xbdcfb4e9	-0.10141928
101	0x3e5e330e	0.21699163
102	0x3ea9f579	0.33195093
103	0x3e6f139a	0.23347321
104	0x3eaab243	0.33339128
105	0xbc0fa17f	-0.008766531
106	0xbec08a97	-0.37605736
107	0xbf04b7a6	-0.51842725
108	0x3e2cff4f	0.16894267
109	0x3e1cc168	0.15308154
110	0x3ec5e151	0.38648465
111	0x3e859a0a	0.26094085
112	0x3e998195	0.29981676
113	0xbe2ea07f	-0.17053412
114	0xbf10db59	-0.565847
115	0xbf0a930e	-0.5413064
116	0xbedde629	-0.4333966
117	0x3f338109	0.7011877
118	0x3f3ac09a	0.72950137
119	0x3f31876d	0.6934727
120	0x3e3dbcd6	0.18529066
121	0x3bed3cab	0.007239898
122	0x3e8343a3	0.2563754
123	0xbede4ee2	-0.43419558
124	0xbe9e5a19	-0.30928114
125	0xbf0c0d48	-0.54707766
126	0x3e08a0c8	0.13342583
127	0x3d8ae4af	0.06781899
128	0xbe0f73e2	-0.1400905
129	0xbe83c390	-0.2573514
130	0x3e604b4d	0.21903725
131	0xbdc4d3e5	-0.09610728
132	0x3f0ce517	0.55037063
133	0x3ea71ad5	0.3263766
134	0xbe936553	-0.28788242
135	0xbf025b8a	-0.5092093
136	0xbf1590ec	-0.5842426
137	0xbf57b700	-0.8426361
138	0xbe062b1a	-0.1310238
139	0x3ef149f4	0.47126734
140	0x3c97f80c	0.018550895
141	0x3d2c8580	0.042119503
142	0xbdc3ecfe	-0.09566687
143	0xbe1b72cf	-0.15180515
144	0xbc1e8db5	-0.00967734
145	0xbeb00ee7	-0.3438637
146	0xbe8ec03f	-0.27881047
147	0x3dae0b48	0.084982455
148	0xbede0ae7	-0.43367693
149	0xbeb8fa9a	-0.36128694
150	0x3f208dce	0.62716377
151	0xbe41489f	-0.18875359
152	0x3efddb27	0.49581262
153	0x3f20b350	0.6277361
154	0x3dc7bf3d	0.09753273
155	0xb8bd2b8c	-9.0203335e-05
156	0x3d95135d	0.07279084
157	0xbd4792ac	-0.04872386
158	0x3ea9f115	0.33191743
159	0xbe1fc902	-0.15604022
160	0x3e1ee45d	0.15516801
161	0x3c88e389	0.01671006
162	0x3e82a312	0.25515038
163	0xbefa602f	-0.48901507
164	0xbeef9ef8	-0.4680097
165	0xbe9a673e	-0.30156893
166	0xbef2c539	-0.47416094
167	0x3d0c015d	0.034180988
168	0xbe013d89	-0.1262113
169	0xbe125364	-0.14289623
170	0xbef27479	-0.47354487
171	0xbad38200	-0.0016136765
172	0x3e86f610	0.26359606
173	0x3f3c8509	0.73640496
174	0xbe7f2488	-0.2491628
175	0xbe88849f	-0.26663682
176	0xbe644662	-0.22292474
177	0xbed0d691	-0.407887
178	0xbe716c3c	-0.23576444
179	0xbf141da7	-0.57857746
180	0xbe1c41ed	-0.15259524
181	0x3e1a952b	0.15095966
182	0x3f37eab4	0.71842504
183	0xbe9d1c06	-0.30685443
184	0x3ded5dac	0.11590132
185	0x3dac8f73	0.08425798
186	0xbed6bbc7	-0.41940138
187	0xbee92ebc	-0.45543468
188	0xbec20bcb	-0.37899622
189	0x3e867411	0.26260427
190	0x3d54bc8e	0.051937632
191	0x3e79a41c	0.24379009
192	0xbe135e7f	-0.14391516
193	0xbebe850d	-0.37210885
194	0x3e4010cd	0.18756409
195	0xbeafec61	-0.3436003
196	0xbeac1833	-0.33612213
197	0x3ebda90e	0.3704304
198	0xbd2360be	-0.039887182
199	0x3e93b391	0.28847936
200	0xbcfe20ae	-0.031021442
201	0xbd6e1158	-0.05812201
202	0xbf0f88a0	-0.5606785
203	0xbde621f2	-0.11236943
204	0xbf33f17e	-0.7029036
205	0xbf9123d3	-1.1339058
206	0xbef49b48	-0.4777472
207	0x3e76116e	0.24030086
208	0x3e465976	0.19370064
209	0xbed23409	-0.41055325
210	0x3ee275d4	0.4423052
211	0x3c74cd00	0.014941454
212	0xbdcc041f	-0.099617235
213	0xbe3da332	-0.18519285
214	0xbf5ccb83	-0.86248034
215	0xbf1752b5	-0.59110576
216	0xbefdc118	-0.4956138
217	0x3da78235	0.08179132
218	0x3d6e5b43	0.058192503
219	0xbf25d97d	-0.64784986
220	0x3e3605b2	0.1777561
221	0x3f08e288	0.5347066
222	0xbdb2280d	-0.08699045
223	0x3e8eb543	0.27872667
224	0x3ea649b1	0.32478097
225	0x3e9e0241	0.30861095
226	0xbe356e52	-0.17717865
227	0xbdb29768	-0.08720285
228	0x3ef9cd4d	0.48789445
229	0xbdbd248f	-0.092354886
230	0xbedf489f	-0.43610093
231	0x3e148925	0.14505441
232	0xbeb1aae0	-0.3470068
233	0xbedaff26	-0.42772788
234	0xbe3a9f90	-0.18224931
235	0xbd9ad994	-0.07561031
236	0xbf280f88	-0.656487
237	0x3e8072d4	0.25087607
238	0x3e739a5d	0.23789354
239	0xbf88d15b	-1.068889
240	0x3e909dee	0.2824549
241	0xbeab7d4e	-0.33494037
242	0xbe044266	-0.12915954
243	0xbd78969d	-0.06069051
244	0x3e23bfe0	0.15991163
245	0xbf3274e2	-0.697096
246	0x3e69defb	0.22838967
247	0xbd47772a	-0.048697628
248	0xbea60883	-0.3242837
249	0x3ddae5c4	0.106883556
250	0x3a12ae01	0.00055953866
251	0x3f1264c9	0.57185036
252	0xbe6a21d9	-0.22864474
253	0x3e9fea61	0.31233504
254	0x3f1dc94a	0.6163527
255	0xbef289d8	-0.4737079

conv3.bias f4 [8]
0	0x3de6f693	0.11277499
1	0xbd7ead93	-0.062177252
2	0x3db5363b	0.08848234
3	0x3e254adf	0.16141842
4	0xbe714a39	-0.2356347
5	0x3e8c2fdf	0.27380273
6	0xbe8d6e71	-0.27623323
7	0x3cd2dd86	0.025740396

conv4.weight f4 [12, 8, 3, 3]
0	0xbdff8531	-0.12476576
1	0xbe1c77f0	-0.15280128
2	0x3d8b2dea	0.06795867
3	0xbf457fb1	-0.77147967
4	0xbf7e453c	-0.99324393
5	0xbf02d11f	-0.51100343
6	0xbf063328	-0.5242181
7	0xbdbe3ebf	-0.092893116
8	0x3f00f177	0.50368446
9	0xbea79e99	-0.32738188
10	0xbf8777f7	-1.0583485
11	0xbf9704c7	-1.1798333
12	0xbdf9d99a	-0.12199707
13	0xbee002bd	-0.4375209
14	0xbf071595	-0.52767307
15	0x3f163737	0.58678
16	0x3d2b541a	0.041828252
17	0xbe0ff57e	-0.14058492
18	0x3ec216ec	0.37908113
19	0x3cf5b1f9	0.02999209
20	0xbefff084	-0.49988186
21	0xbe1966c7	-0.14980613
22	0xbcc2e29c	-0.023789696
23	0x3e37fd80	0.17967796
24	0x3e071c3c	0.13194364
25	0x3db189a6	0.086688325
26	0x3e7fe280	0.24988747
27	0x3e279a8b	0.16367547
28	0x3ddc0cbb	0.10744616
29	0x3e7b9d1a	0.24571648
30	0x3eb3dc89	0.35129192
31	0xbe9c4b5e	-0.3052625
32	0xbf19b5ad	-0.6004284
33	0xbd1d796a	-0.038445868
34	0x3d4e3689	0.050344978
35	0xba2a8a7a	-0.000650562
36	0x3e964c4b	0.29355082
37	0x3dabc781	0.08387662
38	0x3ebc5f45	0.36791435
39	0x3e85f782	0.26165396
40	0xbd83a68f	-0.06428253
41	0xbe38db3d	-0.18052383
42	0x3e3e3d8f	0.1857817
43	0x3d0e30c4	0.034714475
44	0x3e043a88	0.12912953
45	0xbe801522	-0.25016123
46	0xbe3a99ac	-0.18222684
47	0xbe220a4d	-0.15824242
48	0xbe2d2759	-0.16909541
49	0x3d78ec26	0.060772084
50	0xbe341574	-0.17586309
51	0xbcbf9bb6	-0.023389678
52	0xbcb8bd51	-0.02255121
53	0x3da88da2	0.08230139
54	0xbef98d54	-0.48740637
55	0xbec88e43	-0.39171037
56	0xbf09d5a2	-0.538416
57	0xbe2fe724	-0.17178017
58	0x3ea4d9ad	0.32197323
59	0x3f0023bd	0.5005453
60	0x3e67e92d	0.22647543
61	0x3e8e760f	0.27824447
62	0x3f2728e1	0.6529675
63	0x3e7efe09	0.24901594
64	0x3ee9233e	0.455347
65	0x3efb5484	0.49087918
66	0xbe880fb6	-0.26574486
67	0xbe088037	-0.1333016
68	0xbddac136	-0.10681383
69	0xbf403414	-0.75079465
70	0xbe93b554	-0.2884928
71	0x3e3dde26	0.18541774
72	0x3d753f60	0.059874892
73	0xbdd9d93a	-0.10637136
74	0x3e66e782	0.2254925
75	0x3e5d7f2e	0.21630546
76	0x3db3836b	0.087653
77	0x3e8cf8f4	0.27533686
78	0xbbb18f53	-0.005418697
79	0x3cfa7ebc	0.03057801
80	0x3eac8c39	0.3370073
81	0xbead5fe2	-0.33862215
82	0x3dacfd95	0.084468044
83	0x3e986e7f	0.29771802
84	0xbe2c15de	-0.16805217
85	0xbd9888fb	-0.07448002
86	0xbea14a8a	-0.3150218
87	0xbe28ee86	-0.1649724
88	0xbeaa5d69	-0.3327439
89	0xbe293f59	-0.16528071
90	0x3eead551	0.45865873
91	0x3ec5c321	0.38625434
92	0xbe1390dc	-0.14410728
93	0xbd953a6b	-0.07286533
94	0xbd91aead	-0.07113395
95	0xbea67d22	-0.32517344
96	0xbf0e0f0b	-0.55491704
97	0xbef293cc	-0.47378385
98	0xbe817ae4	-0.2528907
99	0xbe3b51a2	-0.18292859
100	0xbe1acc21	-0.15116931
101	0x3e9eabe2	0.3099051
102	0x3f1a9c65	0.6039489
103	0x3e8bcb20	0.2730341
104	0x3e4a7bbe	0.19773766
105	0x3de08dc0	0.10964537
106	0x3e416bee	0.18888828
107	0xbdd59d46	-0.10430388
108	0x3f0e939b	0.5569398
109	0x3d9b41a3	0.075808786
110	0xbecfb7e2	-0.4056998
111	0xbbe31f13	-0.0069311946
112	0xbf009896	-0.5023283
113	0xbf503df0	-0.8134451
114	0xbe3fe3b0	-0.187392
115	0xbed22a99	-0.41048124
116	0xbf6905c6	-0.91024435
117	0x3e862843	0.26202592
118	0x3ea44689	0.32085064
119	0xbef92f0d	-0.4866871
120	0x3cfea06d	0.031082356
121	0x3d84a830	0.06477392
122	0xbecac812	-0.39605767
123	0xbf0b9741	-0.5452767
124	0xbe37f5b0	-0.17964816
125	0xbcaa5bf2	-0.020795796
126	0xbe644be8	-0.22294581
127	0x3f031d81	0.51216894
128	0x3efc580b	0.4928592
129	0xbe722200	-0.23645782
130	0x3e24905f	0.16070698
131	0x3ddb5ed5	0.10711447
132	0xbe310d69	-0.17290272
133	0x3ea2bee5	0.31786266
134	0xbd86da34	-0.06584588
135	0xbf464bde	-0.77459514
136	0xbe685fe0	-0.22692823
137	0xbe0e9b3e	-0.13926408
138	0x3ea79bb6	0.32735986
139	0x3f152a3b	0.58267564
140	0x3f236439	0.638248
141	0x3ebcbf26	0.36864585
142	0x3c470653	0.012147504
143	0x3e696949	0.2279407
144	0x3da0e334	0.078558356
145	0x3e3bcf1d	0.18340726
146	0x3e3c5900	0.18393326
147	0x3e0daf2a	0.13836351
148	0x3d49f798	0.04930839
149	0xbe824151	-0.25440457
150	0x3ec07c02	0.3759461
151	0x3ea41752	0.32049042
152	0x3e37d0f9	0.1795081
153	0x3e970e4d	0.29503098
154	0xbea41479	-0.3204687
155	0x3d7e80dd	0.062134612
156	0xbefd3eb2	-0.49461895
157	0xbe0757e3	-0.1321712
158	0x3ed3bf00	0.4135666
159	0xbf027b1f	-0.5096912
160	0xbe1afc66	-0.15135345
161	0x3e88f74b	0.2675117
162	0xbf5ecc69	-0.87030655
163	0xbf128f92	-0.5725032
164	0xbe92a655	-0.28642526
165	0x3e504c6c	0.20341653
166	0xbc813785	-0.015773544
167	0x3db95352	0.09049095
168	0x3e70e346	0.23524198
169	0x3ec058ed	0.37567845
170	0x3ea0f519	0.31436995
171	0x3d7a1a39	0.061060164
172	0x3d52f3c7	0.051502015
173	0x3dc474f6	0.09592621
174	0xbf450322	-0.76957905
175	0xbf2af94f	-0.66786665
176	0xbf250f13	-0.64476126
177	0xbf046330	-0.5171385
178	0x3ea65de8	0.3249352
179	0x3f0a26bf	0.5396537
180	0xbe3009da	-0.17191258
181	0x3e878fd9	0.26476935
182	0x3e4b3d6e	0.19847652
183	0xbe204823	-0.15652518
184	0x3e9025fd	0.28153983
185	0x3e3607f1	0.17776467
186	0xbe0f9499	-0.1402153
187	0x3e44ca45	0.19217785
188	0x3bc31fe3	0.005954729
189	0x3e6a5f3b	0.2288789
190	0xbdf94ece	-0.12173234
191	0xbf3ee9de	-0.74575603
192	0x3e9b3699	0.30315092
193	0xbed2950b	-0.41129336
194	0xbf06fe2f	-0.52731603
195	0x3eed3e87	0.46336767
196	0x3e22b2b7	0.15888487
197	0x3d68c65a	0.056829788
198	0x3e7fe9ba	0.24991503
199	0xbe01993e	-0.12656114
200	0xbf0e48a1	-0.5557957
201	0xbdf5d890	-0.12004197
202	0x3bd60f91	0.0065326174
203	0x3ef9ea32	0.4881149
204	0x3e5083b3	0.2036274
205	0xbb6b5d0f	-0.0035913622
206	0x3e7ec7ce	0.24880907
207	0xbf185fca	-0.5952116
208	0xbf1869c9	-0.59536415
209	0xbdfc876d	-0.12330518
210	0xbee4b9d6	-0.44673032
211	0xbeae37a8	-0.34026837
212	0xbeefe835	-0.46856847
213	0xbe9183e9	-0.28420952
214	0xbe0e3d58	-0.13890588
215	0xbf5c1781	-0.85973364
216	0x3c8c7c44	0.017149098
217	0xbe69a60e	-0.22817251
218	0xbe1150ce	-0.14190981
219	0xbd062773	-0.032752465
220	0xbe8f7242	-0.2801686
221	0x3e350b0c	0.17679995
222	0xbec43d4f	-0.38328025
223	0xbe839cd0	-0.25705576
224	0xbd152f1b	-0.036421876
225	0x3f1ec2d8	0.6201606
226	0x3de8801f	0.11352562
227	0x3e31d8e0	0.17367887
228	0x3ecade95	0.39622942
229	0xbcad218a	-0.021134157
230	0x3e4d895b	0.20071928
231	0x3e75ef82	0.24017146
232	0xbe7a9138	-0.24469459
233	0x3c175d5b	0.009238566
234	0x3d6f4d05	0.05842306
235	0x3dfd16a1	0.12357832
236	0x3e712b94	0.2355178
237	0x3cd0b7ec	0.025478326
238	0xbd5139d9	-0.05108056
239	0xbcc70a1f	-0.024296818
240	0xbd6564e0	-0.056004405
241	0xbe96dfca	-0.29467613
242	0xbec13641	-0.37736705
243	0x3e949a2b	0.2902387
244	0xbc242164	-0.010017727
245	0xbe8565a3	-0.26054105
246	0x3e9da6c5	0.30791298
247	0x3d94ef25	0.07272176
248	0x3ded772e	0.11594997
249	0xbd4d6dfb	-0.050153714
250	0xbe45b2e1	-0.19306518
251	0xbd56bfee	-0.052429132
252	0x3e05a37b	0.13050644
253	0xbd8d7d54	-0.0690867
254	0xbe289c80	-0.1646595
255	0x3a3f91cd	0.0007307798

conv4.bias f4 [12]
0	0xbe8a9677	-0.2706792
1	0x3dd71173	0.10501375
2	0x3ddbf77e	0.10740565
3	0x3aed1ba0	0.0018089898
4	0x3c43d592	0.011952775
5	0x3dd5ab16	0.10433023
6	0x3a382ceb	0.0007025736
7	0xbdef898c	-0.11696157
8	0x3de7ae6d	0.11312566
9	0xbda06687	-0.078320555
10	0x3c49e82c	0.0123234205
11	0x3dda4e48	0.10659462

conv5.weight f4 [16, 12, 3, 3]
0	0x3ee7b0e4	0.45252144
1	0x3e90763b	0.28215203
2	0xbdcb8711	-0.09937871
3	0x3e268a75	0.16263755
4	0x3d4bfa06	0.049798988
5	0xbe3e8300	-0.1860466
6	0x3eb170e3	0.34656438
7	0x3e8f7ec5	0.28026405
8	0x3e91a1c6	0.28443736
9	0x3cc2fb6f	0.023801534
10	0x3ddbb056	0.10726993
11	0x3e9394f6	0.28824586
12	0x3e815c1a	0.2526558
13	0x3de00db1	0.109401114
14	0x3da12854	0.0786902
15	0x3e832a49	0.256182
16	0x3cb2557d	0.02176928
17	0xbe0538ec	-0.13009995
18	0x3bf07c1c	0.0073390137
19	0x3ed09175	0.40735975
20	0xbba6adab	-0.005086621
21	0x3e9e7594	0.3094908
22	0x3ecfddd6	0.40598935
23	0xbe29546f	-0.16536115
24	0x3ebda6ec	0.37041414
25	0x3ec3805a	0.38183862
26	0xbe20621b	-0.15662424
27	0x3e0ef27e	0.13959691
28	0xbd6db124	-0.058030263
29	0x3c533dec	0.012893181
30	0xbe73d174	-0.23810369
31	0xbee19970	-0.44062376
32	0xbe0d9bef	-0.13829015
33	0xbd1b0bf4	-0.037853196
34	0xbea5d4b4	-0.32388842
35	0xbe3823b1	-0.17982365
36	0xbf46b67f	-0.77622217
37	0xbf149500	-0.58039856
38	0xbe71cb16	-0.23612627
39	0xbe6d0212	-0.23145321
40	0xbd7bb844	-0.061455026
41	0xbe11e8ff	-0.14249037
42	0xbf2b0225	-0.6680015
43	0xbf43c789	-0.7647634
44	0xbfb42935	-1.4075075
45	0x3f696c9f	0.9118137
46	0x3ef2dbd9	0.47433355
47	0x3f3709cf	0.7149934
48	0x3eafd137	0.34339306
49	0x3dfe1a57	0.12407368
50	0x3e62f7bb	0.22164814
51	0xbeaadf0b	-0.33373293
52	0x3e230c4b	0.15922658
53	0x3f125364	0.57158494
54	0xbf43bf20	-0.7646351
55	0xbf021957	-0.50819916
56	0xbe328018	-0.17431676
57	0xbee674d9	-0.45011023
58	0x3d02d83e	0.031944506
59	0x3eb8567b	0.3600348
60	0xbe8dbb1c	-0.27681816
61	0x3d9c46f2	0.07630719
62	0xbe784f0b	-0.24248902
63	0xbc591c52	-0.013251381
64	0xbeadb5fa	-0.339279
65	0xbeab4e4a	-0.33458167
66	0xbe3c7dd1	-0.1840737
67	0xbe158b88	-0.14604008
68	0x3e3233e3	0.17402606
69	0xbe880c9a	-0.26572114
70	0xbdfaecd2	-0.12252201
71	0x3d443c42	0.04790903
72	0xbf0ca5ca	-0.54940474
73	0xbee863c4	-0.45388615
74	0xbec11eb5	-0.3771874
75	0xbd3ced06	-0.04612448
76	0x3cc55578	0.024088606
77	0xbe2d032a	-0.16895738
78	0x3d807687	0.06272607
79	0x3e4f8f9d	0.20269628
80	0x3e82f7d5	0.25579706
81	0x3e43ebfb	0.19132988
82	0x3cf63a7e	0.030057188
83	0x3ec017d4	0.3751818
84	0x3e30ee74	0.17278463
85	0x3d160a95	0.036631186
86	0x3e507ce2	0.20360139
87	0x3d8cdbd4	0.068778664
88	0x3db19f5b	0.08672973
89	0x3e7c9988	0.24667943
90	0xbebf7bfe	-0.37399286
91	0xbbb977cd	-0.0056600333
92	0xbe8aee07	-0.27134725
93	0xbea2ad36	-0.31772774
94	0x3e98f164	0.29871666
95	0x3e915a94	0.28389418
96	0xbf33a6a1	-0.7017613
97	0xbddd7429	-0.108131714
98	0x3df8369d	0.12119792
99	0xbe81dbc9	-0.25362995
100	0xbea0b0dd	-0.31384936
101	0xbf769d12	-0.9633342
102	0xbdef613b	-0.11688467
103	0xbd92aa18	-0.07161349
104	0xbf0bdccc	-0.54633784
105	0x3e158a1c	0.14603466
106	0x3efa665d	0.48906222
107	0x3f075f38	0.5287967
108	0xbe037d69	-0.12840809
109	0xbe576976	-0.21036324
110	0xbed776b8	-0.42082763
111	0xbcacdb47	-0.021100653
112	0x3a6825ab	0.00088557106
113	0xbe980a0c	-0.29695165
114	0x3e1ae95f	0.15128087
115	0x3e5a5233	0.21320419
116	0x3d497929	0.049187813
117	0x3f41159c	0.754236
118	0x3f1dc164	0.61623216
119	0x3f29fdf4	0.66403127
120	0x3eaca6bb	0.33720955
121	0x3d954b10	0.07289708
122	0x3ed27d77	0.41111347
123	0xbe6bea81	-0.23038675
124	0xbe38b036	-0.18035969
125	0x3eec2023	0.46118268
126	0x3ea553b1	0.32290414
127	0xbf02ce9a	-0.510965
128	0xbee29cf3	-0.44260368
129	0x3f03cf6a	0.51488364
130	0xbe6af767	-0.22945939
131	0xbee4c3cb	-0.44680628
132	0x3f314438	0.6924472
133	0xbe5a6ea7	-0.21331273
134	0xbf4050e1	-0.7512341
135	0xbdf327f8	-0.11872858
136	0xbe2b6547	-0.16737853
137	0xbf1ef8d4	-0.6209843
138	0x3e3cb836	0.18429646
139	0xbe5378ad	-0.20651503
140	0xbf0d1b97	-0.55120224
141	0x3ebbd2a3	0.3668414
142	0xbd87b471	-0.06626213
143	0xbf6a75b7	-0.9158587
144	0x3c84b2e5	0.016198585
145	0x3d725ca5	0.059170384
146	0x3f177f8e	0.5917901
147	0x3dd4415b	0.10364028
148	0xbdfc5c57	-0.123223
149	0x3e3fdeb1	0.18737294
150	0x3d58afe8	0.052902132
151	0x3d3ce7c4	0.046119466
152	0x3ebd82e2	0.37013918
153	0xbe8bcbb9	-0.27303866
154	0x3f2fa585	0.6861194
155	0x3e2435e0	0.16036177
156	0xbf5b8d44	-0.8576243
157	0xbe1a3d92	-0.1506255
158	0xbe17653c	-0.14784712
159	0xbf37e46f	-0.71832937
160	0xbe68ac0d	-0.22721882
161	0xbe0e9f97	-0.13928066
162	0xbe089065	-0.13336332
163	0xbf2440d0	-0.64161396
164	0xbf183f45	-0.5947154
165	0x3c8fd5a2	0.017557923
166	0xbe9cd2b9	-0.3062952
167	0xbdb0b34f	-0.086279504
168	0xbe971108	-0.2950518
169	0xbe632b66	-0.22184524
170	0x3eaa77e0	0.33294582
171	0xbd1859d0	-0.037195027
172	0x3e3d0da7	0.18462239
173	0xbd3c6c67	-0.046001818
174	0x3e0bb2da	0.13642445
175	0x3df94876	0.12172024
176	0xbebc4ea2	-0.36778742
177	0x3e034544	0.12819391
178	0x3de538e9	0.111924954
179	0xbdef8fc8	-0.11697346
180	0x3e0d41bf	0.13794611
181	0xbcc0c13f	-0.023529647
182	0xbe3c11ad	-0.18366118
183	0x3dac078f	0.08399879
184	0x3e8da307	0.27663442
185	0x3eb6ee34	0.3572861
186	0x3cf260a8	0.029587105
187	0x3f15abec	0.58465457
188	0x3f6c2ab1	0.9225264
189	0xbe04a984	-0.1295529
190	0x3eb50c51	0.3536096
191	0x3f3a5811	0.7279063
192	0xbe80c141	-0.2514744
193	0xbe0e0035	-0.13867266
194	0x3e671c21	0.22569324
195	0xbd8dab65	-0.069174565
196	0xbde08201	-0.10962296
197	0xbe02659e	-0.12734076
198	0xbe5b9477	-0.21443354
199	0xbe7cef40	-0.24700642
200	0xbe958d3b	-0.29209313
201	0xbe1a82bb	-0.15088932
202	0x3cb77b82	0.02239776
203	0x3b705b6f	0.0036675592
204	0x3e3a944c	0.18220633
205	0x3e96a93a	0.29425985
206	0x3e11fdf8	0.14257038
207	0xbe8fe355	-0.28103128
208	0xbef529f5	-0.47883573
209	0xbf0ad673	-0.54233474
210	0xbd2f094f	-0.042733487
211	0xbda93c9d	-0.08263514
212	0x3c5b3836	0.013380101
213	0x3b661f9a	0.003511405
214	0x3e7d61ab	0.24744289
215	0xbe226384	-0.15858275
216	0x3eaa448b	0.3325542
217	0x3e89e258	0.269305
218	0xbdd7f8b3	-0.105454825
219	0x3e243994	0.1603759
220	0xbe4598bd	-0.19296546
221	0xbf29dcea	-0.66352713
222	0xbe5b29e5	-0.214027
223	0xbe671ec8	-0.22570336
224	0xbe1cfbc3	-0.15330414
225	0x3d6be201	0.05758858
226	0xba54f334	-0.00081233983
227	0x3d9e5b02	0.07732202
228	0xbe5331cc	-0.20624465
229	0xbe6548ce	-0.22391054
230	0xbdb9aff8	-0.090667665
231	0xbebe8478	-0.3721044
232	0xbeafdf4f	-0.34350058
233	0xbe909f89	-0.28246716
234	0xbf900910	-1.1252766
235	0xbf1b660c	-0.60702586
236	0xbf294ae2	-0.6612989
237	0x3d383c52	0.0449794
238	0x3d416ac3	0.047220957
239	0x3c626a8b	0.013819347
240	0x3e2b7a4a	0.16745868
241	0x3d37377a	0.04473064
242	0xbeb2b71f	-0.34905335
243	0x3ee1c79e	0.44097608
244	0x3d9f74e6	0.077859685
245	0x3e86ba88	0.26314187
246	0xbeb7bc61	-0.3588591
247	0xbd442fe0	-0.04789722
248	0x3eb9d544	0.3629552
249	0xbf2688e2	-0.65052617
250	0x3d3bc25d	0.045839656
251	0x3f0e8632	0.55673516
252	0x3e808210	0.2509923
253	0x3e9cf6b9	0.30656984
254	0xbce3be93	-0.027800834
255	0x3eb06020	0.34448338

conv5.bias f4 [16]
0	0xbd86bcb8	-0.06578964
1	0x3dbf1b4a	0.09331377
2	0xbdfd2934	-0.123613745
3	0x3b145bea	0.0022637793
4	0xbd87168a	-0.06596096
5	0x3d9f0caf	0.07766091
6	0x3d043ab7	0.032282557
7	0x3dc7e7a1	0.097609766
8	0x3e0e9e1a	0.13927498
9	0x3d3d73ee	0.046253137
10	0xbc701b5b	-0.01465496
11	0xbdc9794d	-0.098375894
12	0x3d95a4d3	0.07306828
13	0x3bc8ef67	0.0061320546
14	0xbd1f7cf8	-0.03893754
15	0xbd95d5ff	-0.07316207

conv6.weight f4 [10, 16, 3, 3]
0	0xbf221dac	-0.63326526
1	0xbf07c782	-0.530388
2	0x3e165ae7	0.14683114
3	0xbe99ea12	-0.30061394
4	0x3f01f2d3	0.50761145
5	0x3da5643d	0.080757596
6	0x3e1e6d29	0.15471329
7	0x3f1837b1	0.5945998
8	0x3eac95b6	0.3370797
9	0x3e1dbdcc	0.15404433
10	0xbe0b4d64	-0.13603741
11	0xbea25bee	-0.31710762
12	0xbe789f3b	-0.24279492
13	0xbdb87db8	-0.09008354
14	0x3f35ae8b	0.70969456
15	0xbd2dd245	-0.042436857
16	0xbe6fc9de	-0.2341685
17	0x3f00b332	0.5027343
18	0x3ed7fc2b	0.42184576
19	0x3e166102	0.14685443
20	0x3dc3cc9a	0.09560509
21	0xbe07861f	-0.13234757
22	0xbe9682d0	-0.29396677
23	0xbede9d4f	-0.43479392
24	0xbf1e87f6	-0.6192621
25	0xbeb28db4	-0.34873736
26	0xbf57228b	-0.84037083
27	0xbf408ae9	-0.7521196
28	0xbebd3c47	-0.3696005
29	0xbe181ce2	-0.14854768
30	0xbf0e72ba	-0.5564381
31	0xbf00ecbc	-0.5036123
32	0xbe9f29e4	-0.31086648
33	0xbf88a729	-1.0676013
34	0xbf3bd03a	-0.73364604
35	0xbe86f85f	-0.26361367
36	0x3e4475dc	0.19185585
37	0x3d1f2aa7	0.038859036
38	0xbe74c78e	-0.23904249
39	0x3e1e4951	0.15457655
40	0xbe032681	-0.12807657
41	0x3e85ee4b	0.26158366
42	0xbf0ae74e	-0.5425919
43	0x3e8f9f81	0.2805138
44	0x3e9470cf	0.28992316
45	0x3e72790b	0.23678987
46	0xbd9ef919	-0.07762355
47	0xbfb16d45	-1.3861471
48	0xbe3d436a	-0.18482748
49	0x3b9dd8f7	0.004817124
50	0xbf32f8af	-0.6991071
51	0xbbce0b2b	-0.0062879524
52	0x3e1c9c62	0.1529403
53	0xbd1ab954	-0.0377744
54	0x3e5db452	0.21650818
55	0x3ec42eee	0.38317055
56	0x3f07bbe1	0.53021055
57	0x3ec00167	0.3750107
58	0x3eac69cd	0.3367447
59	0xbdc094e8	-0.094034016
60	0x3ef3e2df	0.47634026
61	0xbfd0d425	-1.6314741
62	0xbfe98e65	-1.824658
63	0xbf010e65	-0.5041259
64	0xbeb3cddd	-0.35118
65	0xbc83718d	-0.016045356
66	0xbeb05ed2	-0.34447342
67	0xbe192d91	-0.14958788
68	0x3c8fd825	0.01755912
69	0x3d58404b	0.05279569
70	0x3d9ecfc8	0.07754475
71	0xbf5db1a8	-0.86599207
72	0xbe086436	-0.13319477
73	0xbf17d819	-0.59314114
74	0xbf3ab196	-0.72927225
75	0xbe3815e6	-0.17977104
76	0x3e4a7694	0.19771796
77	0xbece2cc0	-0.40268517
78	0xbec5c26c	-0.38624895
79	0x3ea0c889	0.31402996
80	0xbdac01d2	-0.08398785
81	0xbee3b78c	-0.44475973
82	0xbcc0beba	-0.023528446
83	0x3ec9cbdb	0.39413342
84	0xbf6fa951	-0.9361773
85	0x3f0e7e2f	0.5566129
86	0x3e02c89c	0.12771839
87	0xbf3e9524	-0.7444632
88	0x3ee96e10	0.45591784
89	0x3ea11b14	0.3146597
90	0xbf1451d9	-0.5793739
91	0xbe58720a	-0.21137252
92	0xbfb46a17	-1.4094876
93	0xbf2d8b79	-0.67790943
94	0x3d1ced68	0.038312346
95	0xbe2f7683	-0.17135052
96	0xbe8b3bca	-0.27194053
97	0xbe0127b2	-0.12612799
98	0x3df1cd18	0.11806697
99	0xbe55c6c2	-0.20876601
100	0xbe788929	-0.24271072
101	0x3d804e32	0.062649146
102	0x3e96c61b	0.29448017
103	0xbea147a1	-0.3149996
104	0xbf067321	-0.5251942
105	0x3ea72b32	0.32650143
106	0x3e9cc71d	0.3062066
107	0xbf20c12e	-0.6279477
108	0x3e094587	0.13405429
109	0xbe544a25	-0.20731409
110	0xbf4e87af	-0.80675787
111	0x3ec1093a	0.37702352
112	0xbe72a6d8	-0.23696458
113	0xbf5d043b	-0.8633458
114	0x3f26fa3a	0.65225565
115	0xbd0a3e48	-0.033750802
116	0x3ed78649	0.4209464
117	0x3ece888c	0.40338552
118	0x3f220da8	0.6330209
119	0xbe9232f2	-0.28554493
120	0xbe8831ed	-0.2660059
121	0x3e27c6a0	0.16384363
122	0x3ecaf2dd	0.39638415
123	0xbfa8a033	-1.3173889
124	0x3ee3c265	0.4448425
125	0x3f2aba33	0.6669037
126	0xbe608724	-0.21926552
127	0x3ea70404	0.3262025
128	0x3f56f25b	0.83963555
129	0x3cadc719	0.021213101
130	0xbea06aee	-0.3133158
131	0x3f2e4e0e	0.6808785
132	0x3e252cb5	0.16130336
133	0x3d967cc6	0.073480174
134	0x3f18c16a	0.59670126
135	0x3e0c25c2	0.13686278
136	0xbdbf34e7	-0.09336262
137	0xbf02e009	-0.511231
138	0xbc87c948	-0.01657547
139	0xbe94bf0e	-0.29052013
140	0xbf1b0035	-0.6054719
141	0x3e5834b0	0.21113849
142	0xbc576dfb	-0.01314878
143	0x3ec6dcc1	0.38840297
144	0xbe3af353	-0.18256883
145	0xbd9f7952	-0.07786812
146	0xbd5a4423	-0.053287636
147	0xbe534f17	-0.20635639
148	0xbf318558	-0.6934409
149	0x3e9916f2	0.29900318
150	0xbeb5bb70	-0.35494566
151	0xbe92c7cf	-0.28668067
152	0x3b02df39	0.0019969477
153	0x3eb14311	0.3462148
154	0x3f3580a1	0.708994
155	0x3e5ae322	0.21375707
156	0x3db8fca3	0.09032562
157	0x3c9cf321	0.019158902
158	0xbded659f	-0.11591648
159	0x3ecd8ba2	0.40145594
160	0x3e1bfa75	0.1523226
161	0xbdd25912	-0.10270895
162	0xbf9c1724	-1.2194562
163	0xbf4821d6	-0.7817663
164	0xbf0bb853	-0.5457813
165	0xbf88f084	-1.06984
166	0xbf5aedef	-0.8551931
167	0xbf50c8e9	-0.81556565
168	0xbf394e5e	-0.72385204
169	0xbec62c8e	-0.38705868
170	0xbf3301ca	-0.69924605
171	0xbe7d33b0	-0.24726748
172	0xbe8ee551	-0.2790933
173	0xbe271e9a	-0.16320267
174	0xbdf82ff0	-0.12118518
175	0xbea8f1ec	-0.32997072
176	0xbee5aa19	-0.44856337
177	0xbe2449c0	-0.16043758
178	0xbd0dcbbf	-0.034618136
179	0xbe986405	-0.2976381
180	0x3ecffb62	0.40621477
181	0xbe1b5296	-0.15168223
182	0xbe3d1712	-0.18465832
183	0x3e111fc7	0.14172278
184	0x3e29a56c	0.1656701
185	0xbe4c750e	-0.19966528
186	0x3e0857d4	0.13314754
187	0x3e9ad7a5	0.3024265
188	0xbf2a3f7c	-0.6650312
189	0x3e65f712	0.22457531
190	0xbe5a71eb	-0.21332519
191	0xbf204425	-0.6260398
192	0x3dbb9a46	0.09160285
193	0x3e971801	0.295105
194	0x3d96cccf	0.07363283
195	0x3ea1f524	0.3163234
196	0x3ecd69d0	0.4011979
197	0x3f231bf4	0.6371453
198	0x3e8bee92	0.27330452
199	0x3ec041f7	0.37550327
200	0x3ee18c7f	0.44052503
201	0x3f08b610	0.53402805
202	0x3e80ebdf	0.25179955
203	0xbda1d73f	-0.07902383
204	0x3f02126f	0.5080938
205	0x3edfde81	0.43724445
206	0x3dce0f85	0.10061554
207	0x3f02c522	0.5108205
208	0x3e234906	0.15945825
209	0xbec15d84	-0.3776666
210	0x3cefc562	0.029268924
211	0xbe569da9	-0.2095858
212	0xbdd9a429	-0.10627014
213	0xbecf58a9	-0.4049733
214	0xbeacf661	-0.33781722
215	0xbf13894f	-0.5763139
216	0x3e31fd01	0.1738167
217	0x3e58390d	0.21115513
218	0x3ef1bf14	0.47216094
219	0x3eb970c0	0.36218834
220	0x3e920bd1	0.2852464
221	0x3e7e8c4c	0.24858207
222	0x3dbf38a5	0.09336976
223	0x3f0cd9af	0.5501966
224	0x3cf60108	0.030029789
225	0x3e6ec309	0.23316588
226	0xbd24623c	-0.040132746
227	0x3e23f119	0.1600994
228	0x3ee66269	0.44996956
229	0xbbf7e1cf	-0.0075647603
230	0x3c60e39a	0.013726139
231	0x3f16450b	0.586991
232	0x3ec04b45	0.37557426
233	0xbe051106	-0.12994775
234	0xbd24b41e	-0.040210836
235	0xbeb491c7	-0.3526747
236	0xbf015b4e	-0.50529945
237	0xbe3caed2	-0.18426064
238	0xbf66ca0d	-0.90152055
239	0xbea1c1e0	-0.31593227
240	0x3d8c4867	0.06849747
241	0xbe346bd5	-0.1761926
242	0xbd1a5170	-0.03767532
243	0xbf6ae468	-0.9175477
244	0xbf1dbf2e	-0.6161984
245	0xbe7ace51	-0.24492766
246	0xbf89b0e5	-1.0757109
247	0xbf2aaa1f	-0.66665834
248	0x3cfc6da0	0.030813992
249	0xbf36ac41	-0.7135659
250	0xbf716f98	-0.94310904
251	0xbe548adb	-0.20756094
252	0xbdb059fc	-0.08610913
253	0x3eade631	0.33964685
254	0x3e37ede5	0.17961843
255	0xbed2d040	-0.41174507

conv6.bias f4 [10]
0	0xbcd5a132	-0.02607784
1	0x3e6768fc	0.22598642
2	0xbdcf5489	-0.10123546
3	0xbe0359b2	-0.12827185
4	0x3e29d0c0	0.16583538
5	0xbc0af8cc	-0.008482169
6	0xbe3bdd90	-0.18346238
7	0x3db432e3	0.08798768
8	0x3dc41a65	0.09575347
9	0x3d0cf427	0.03441253

bn1.weight f4 [4]
0	0x3f80fb8c	1.0076766
1	0x3f8febdc	1.1243854
2	0x3fb69de5	1.4266936
3	0x3f94bf3e	1.1620862

bn1.bias f4 [4]
0	0x3e00a9eb	0.12564819
1	0x3ea4b612	0.3217016
2	0x3e285b56	0.16441092
3	0x3e921bd1	0.28536847

bn1.running_mean f4 [4]
0	0xbd2ba480	-0.041904926
1	0x3e95d339	0.29262713
2	0x3d473cb6	0.048641883
3	0xbee615fd	-0.4493865

bn1.running_var f4 [4]
0	0x3faf2979	1.3684531
1	0x3fd5e578	1.6710653
2	0x4051739b	3.272681
3	0x3f4b64c8	0.79450655

bn2.weight f4 [8]
0	0x3f68959e	0.908533
1	0x3f6cde80	0.9252701
2	0x3fd81e87	1.6884316
3	0x3f8512b9	1.0396339
4	0x3f9120c0	1.133812
5	0x3f527825	0.82214576
6	0x3f71ce84	0.9445574
7	0x3fd5056c	1.664228

bn2.bias f4 [8]
0	0x3ea22a5d	0.31672946
1	0x3dd3730c	0.10324678
2	0xbe436028	-0.1907965
3	0x3e32cf37	0.17461859
4	0xbe979293	-0.29604015
5	0x3ea46a45	0.32112327
6	0xbf141652	-0.5784656
7	0xbe8022b7	-0.25026485

bn2.running_mean f4 [8]
0	0xc044cd42	-3.075028
1	0xbf377e7e	-0.71677387
2	0xc078032d	-3.8751938
3	0xbfe4214d	-1.7822663
4	0xbf8c2d48	-1.0951319
5	0xbeaa621d	-0.3327798
6	0xbf1793ca	-0.59209883
7	0xc047bc84	-3.120881

bn2.running_var f4 [8]
0	0x41280107	10.500251
1	0x40d2afa3	6.58394
2	0x41cad6be	25.354855
3	0x40dfbde9	6.9919324
4	0x40d87d6b	6.76531
5	0x416ec2ae	14.922529
6	0x407e5707	3.9740617
7	0x41ded502	27.854008

bn3.weight f4 [8]
0	0x3f7fc1d9	0.99905163
1	0x3f99a314	1.2002892
2	0x3f92970a	1.1452343
3	0x3f9638b0	1.173605
4	0x3f7b0f51	0.98070246
5	0x3f8b9e5a	1.09077
6	0x3faed1de	1.3657796
7	0x3fa93356	1.3218791

bn3.bias f4 [8]
0	0xbec29180	-0.38001633
1	0xbe149ffe	-0.14514157
2	0xbe594253	-0.21216707
3	0xbe32e267	-0.17469178
4	0xbe8a2f6c	-0.26989305
5	0xbef7a725	-0.4836971
6	0xbebe275f	-0.37139413
7	0xbd2e56e9	-0.042563353

bn3.running_mean f4 [8]
0	0x3e6f98df	0.2339816
1	0x3f2b072d	0.66807824
2	0x3dc9192e	0.09819256
3	0x3f0f35ce	0.55941474
4	0xbfef8653	-1.8712867
5	0xc04253aa	-3.0363564
6	0xbfe52a38	-1.7903509
7	0x3f8ff479	1.1246482

bn3.running_var f4 [8]
0	0x402b2aeb	2.6744945
1	0x40adbc31	5.4292226
2	0x40c2fc0a	6.0932665
3	0x4112d4bf	9.17694
4	0x40740b8a	3.8132043
5	0x40519fd2	3.2753797
6	0x40bbb885	5.8662744
7	0x40a7fed1	5.2498555

bn4.weight f4 [12]
0	0x3f86a8a2	1.0520213
1	0x3f775269	0.9661012
2	0x3f8c56ae	1.0963953
3	0x3f84c4c4	1.0372548
4	0x3fabdd62	1.3426936
5	0x3fb7e2d5	1.4366099
6	0x3fa92bbd	1.3216473
7	0x3f9bbb0c	1.2166457
8	0x3f843d7f	1.0331267
9	0x3f968dc9	1.1762019
10	0x3f87a7bc	1.0598063
11	0x3f8b6198	1.0889158

bn4.bias f4 [12]
0	0xbe19db78	-0.15025127
1	0xbeff306c	-0.4984163
2	0xbef92c0e	-0.48666424
3	0xbd3cb803	-0.046073925
4	0xbf051293	-0.51981467
5	0xbf002ee8	-0.50071573
6	0xbdf48f87	-0.11941438
7	0xbf0556af	-0.52085394
8	0xbe8d42fc	-0.27590168
9	0xbe957fc9	-0.29199055
10	0xbd875393	-0.066077374
11	0xbf0a8bdd	-0.54119664

bn4.running_mean f4 [12]
0	0xc002afdc	-2.0419836
1	0xbcb414c2	-0.021982554
2	0xc0046a8b	-2.0690029
3	0xbfb71562	-1.43034
4	0xc0058452	-2.0862012
5	0xc03b1a3d	-2.9234765
6	0xc0019a99	-2.025061
7	0xc002617f	-2.0372007
8	0xbf6b2ee3	-0.9186842
9	0xc06b116d	-3.6729386
10	0xbf84c5a9	-1.0372821
11	0xbebd3ca5	-0.3696033

bn4.running_var f4 [12]
0	0x412e2dc0	10.886169
1	0x41074f62	8.456881
2	0x41141020	9.253937
3	0x4134d80f	11.302749
4	0x412bd777	10.740104
5	0x413aeeb0	11.683273
6	0x41a547ca	20.660053
7	0x41185ec3	9.523135
8	0x41372959	11.447595
9	0x4192054e	18.25259
10	0x411ff642	9.997622
11	0x40a0e058	5.0273857

bn5.weight f4 [16]
0	0x3fbe9cb3	1.4891571
1	0x3fb66a9e	1.4251287
2	0x3fbacc92	1.459368
3	0x3ff106f4	1.8830247
4	0x3fc3153d	1.5240856
5	0x3fabbc9c	1.3416934
6	0x3fc2a52b	1.5206655
7	0x3ffeb643	1.9899372
8	0x3fa46808	1.2844248
9	0x3fb0527d	1.3775173
10	0x3fc77ddb	1.5585283
11	0x3fcd1afd	1.6023861
12	0x3fa2b675	1.2711931
13	0x3fb5d59b	1.4205812
14	0x3fef5118	1.8696623
15	0x3faddd33	1.358313

bn5.bias f4 [16]
0	0xbebc7105	-0.36804977
1	0xbe950360	-0.29104137
2	0xbed932e3	-0.42421636
3	0xbf00135e	-0.5002955
4	0xbf1a57b0	-0.6029005
5	0xbe7172de	-0.23578975
6	0xbdfcaaf5	-0.12337295
7	0xbf357659	-0.7088371
8	0xbe2a86fd	-0.16653056
9	0xbeb9ef7f	-0.36315534
10	0xbef7f320	-0.48427677
11	0xbe40c04e	-0.18823358
12	0x3d15e93f	0.036599394
13	0xbeabce91	-0.33556035
14	0xbed4bfca	-0.41552573
15	0xbe3e9018	-0.18609655

bn5.running_mean f4 [16]
0	0xbfc025f7	-1.5011586
1	0xbfc1cb00	-1.5140076
2	0xc03cc6a0	-2.949623
3	0xc010a6b0	-2.2601738
4	0xc081a411	-4.0512776
5	0xbf47561a	-0.77865756
6	0xc07c98c4	-3.946824
7	0xbff1f12b	-1.8901724
8	0xbee80813	-0.4531866
9	0x40320d9f	2.7820814
10	0xc02fbbd6	-2.7458396
11	0xbfd9473f	-1.6974868
12	0xbdab3c14	-0.08361068
13	0xc04e4797	-3.2231195
14	0xbfe0c09d	-1.7558781
15	0x3f336f3c	0.70091605

bn5.running_var f4 [16]
0	0x40e3cff7	7.1191363
1	0x40b31aee	5.5970373
2	0x4114b0c7	9.293159
3	0x4128d79a	10.552637
4	0x40da6e56	6.8259687
5	0x40b5938f	5.6742625
6	0x40db34b4	6.8501835
7	0x4127bc3d	10.483457
8	0x4108820c	8.53175
9	0x40fb9848	7.862339
10	0x4102fc9e	8.186674
11	0x411c038f	9.750869
12	0x4109929e	8.598295
13	0x40fd0a6e	7.907523
14	0x4104a5ab	8.290446
15	0x410022ce	8.008497

conv1d_1.weight f4 [4, 8, 1]
0	0x3ea47974	0.3212391
1	0xbda54875	-0.08070461
2	0x3e5b06bb	0.21389286
3	0xbf0bac9b	-0.5456025
4	0x3c5fd28a	0.013661036
5	0x3f519023	0.8186056
6	0xbede02d1	-0.43361524
7	0xbf5e3e87	-0.8681416
8	0x3f04e1f3	0.5190727
9	0x3e9af0ac	0.30261743
10	0xbf330214	-0.69925046
11	0x3eb405a2	0.35160547
12	0xbf1ddcc4	-0.61664987
13	0xbe53693f	-0.20645617
14	0x3eb66c24	0.3562938
15	0x3d91184b	0.07084712
16	0xbd913a31	-0.07091177
17	0x3ed35c2b	0.41281256
18	0x3f6a0702	0.91416943
19	0xbe117397	-0.1420425
20	0xbf171409	-0.59014946
21	0xbec911bf	-0.39271352
22	0xbddf151f	-0.108927004
23	0x3f6b7021	0.9196797
24	0xbc82228b	-0.015885612
25	0xbf2c23e1	-0.67242247
26	0x3f7d2c1f	0.9889545
27	0xbef08fe8	-0.46984792
28	0xbe6c906c	-0.23101968
29	0x3cb1b521	0.021692814
30	0xbdfc9c89	-0.12334544
31	0x3efeb0ae	0.4974417

conv1d_1.bias f4 [4]
0	0xbe92e798	-0.28692317
1	0xbc8cf4dc	-0.017206602
2	0x3e5712ea	0.21003309
3	0xbdb917fb	-0.09037777

bn1d_1.weight f4 [4]
0	0x3f89a04b	1.0752043
1	0x3f745194	0.9543698
2	0x3f89289d	1.0715519
3	0x3f8ac977	1.0842732

bn1d_1.bias f4 [4]
0	0x3f12e546	0.57381094
1	0x3f1cba27	0.61221546
2	0x3f23b0d6	0.63941705
3	0x3e383ce7	0.17991982

bn1d_1.running_mean f4 [4]
0	0xbef55cbe	-0.4792232
1	0x3df9712d	0.1217979
2	0x3f79bf24	0.9755728
3	0x3d27be89	0.040953193

bn1d_1.running_var f4 [4]
0	0x3fc254e7	1.518216
1	0x3f896d68	1.0736513
2	0x3fc4cf30	1.5375729
3	0x3f96c1f7	1.1777943
