best_model.pth (torch, 69986 bytes, 50 tensors)

conv1.weight f4 [4, 1, 3, 3]
0	0x3eb29471	0.34878877
1	0xbf78c6b1	-0.9717818
2	0xbf0a2c19	-0.5397354
3	0xbe111fbb	-0.1417226
4	0x3dd969ef	0.10615908
5	0x3f09a26e	0.53763473
6	0x3ea81276	0.32826585
7	0x3f7e3625	0.9930137
8	0x3edaa47d	0.4270362
9	0x3e9d08b6	0.30670708
10	0xbf83733f	-1.0269545
11	0xbf05253d	-0.52009946
12	0xbf7f2b37	-0.99675316
13	0x3c4a505d	0.012348262
14	0x3f363e0f	0.71188444
15	0xbf873e38	-1.0565863
16	0x3dcb2403	0.09918978
17	0x3df74bd2	0.120750085
18	0xbe8f0118	-0.27930522
19	0xbd34bd13	-0.044125628
20	0xbf03df77	-0.51512855
21	0xbe590a8f	-0.21195434
22	0x3f4986c7	0.7872128
23	0x3eac6354	0.3366953
24	0xbebdf1c1	-0.37098506
25	0x3ec7a814	0.3899542
26	0x3f4218c1	0.7581902
27	0x3efb26ef	0.4905314
28	0x3e95cf4a	0.29259712
29	0x3f0aa0cb	0.541516
30	0xbf899ecd	-1.0751587
31	0xbec3174b	-0.3810371
32	0xbed7c37f	-0.4214134
33	0x3de0113b	0.109407865
34	0xbed9f2ba	-0.42567998
35	0xbf58bc1a	-0.8466202

conv1.bias f4 [4]
0	0xbe6690f5	-0.22516234
1	0x3e86c984	0.2632562
2	0x3e1d3bcd	0.15354843
3	0xbe40b270	-0.18818069

conv2.weight f4 [8, 4, 3, 3]
0	0x3e6eb879	0.23312558
1	0x3f23bfb6	0.639644
2	0x3e06444a	0.13111988
3	0xbd7b00aa	-0.06127993
4	0x3f0cd08d	0.55005723
5	0x3e1d1c19	0.1534275
6	0xbed7c6b1	-0.42143777
7	0xbdbd9372	-0.092566386
8	0x3e453783	0.19259457
9	0x3e883f5d	0.26610842
10	0xbe0474be	-0.12935159
11	0xbec77f0f	-0.38964126
12	0xbecc15d8	-0.39860415
13	0x3cf086a8	0.029361084
14	0xbf638068	-0.8886781
15	0x3e440e82	0.1914616
16	0xbf57a799	-0.8424011
17	0xbecb5750	-0.39715052
18	0x3d1baad3	0.038004708
19	0x3f510dcc	0.8166168
20	0xbc0159b5	-0.007894923
21	0x3f02588a	0.5091635
22	0xbe2e6957	-0.17032371
23	0x3f1534d7	0.5828375
24	0x3df460ad	0.11932502
25	0x3e7223d9	0.23646487
26	0x3f45c617	0.77255386
27	0xbf8b670f	-1.0890826
28	0xbfc8e408	-1.569459
29	0xbf41438e	-0.75493705
30	0x3d6afbfa	0.05736921
31	0xbe40c950	-0.18826795
32	0x3d8f31de	0.06991933
33	0x3f76203c	0.96142936
34	0x3ef8fb01	0.48629
35	0x3e769166	0.24078903
36	0xbe834602	-0.2563935
37	0xbe83d6eb	-0.25749907
38	0xbdb0ad2e	-0.086267814
39	0x3ee60f2f	0.4493346
40	0x3f709d45	0.93989974
41	0x3eff4b23	0.49862012
42	0x3ea3bba2	0.3197909
43	0xbe4ffd98	-0.20311582
44	0x3e426974	0.1898554
45	0xbe5a09ce	-0.21292803
46	0x3c55d7a4	0.013051901
47	0x3d0cefda	0.034408428
48	0xbeffd781	-0.49969104
49	0xbed80525	-0.42191425
50	0x3ecb48f8	0.39704108
51	0xbec46d6d	-0.38364735
52	0xbee0ac7e	-0.438816
53	0xbebb4935	-0.3657929
54	0xbe87db84	-0.26534665
55	0xbd9f98f9	-0.07792849
56	0x3e89a785	0.2688562
57	0xbd5562be	-0.05209612
58	0x3ea49628	0.3214581
59	0xbe069f73	-0.13146763
60	0xbd9801ea	-0.0742224
61	0xbece3785	-0.40276733
62	0x3f38b81f	0.72155946
63	0xbe18f0b4	-0.14935571
64	0xbe02eb52	-0.1278508
65	0xbe4e0df2	-0.20122507
66	0xbe660127	-0.22461377
67	0xbee38ac0	-0.44441795
68	0xbed1a4b4	-0.4094597
69	0xbeab45be	-0.33451647
70	0xbedf2fcd	-0.43591157
71	0xbe83f7d0	-0.25775003
72	0xbe0c6de9	-0.13713802
73	0x3ddc90b5	0.10769788
74	0xbee9c93d	-0.45661345
75	0x3dff18f0	0.12455928
76	0xbf3533ee	-0.70782363
77	0x3e66195c	0.22470611
78	0xbf8ca532	-1.0987914
79	0xbf5a7357	-0.85332245
80	0xbed24629	-0.41069153
81	0x3e7707d5	0.24124081
82	0x3e8dc8f3	0.27692375
83	0xbc628896	-0.01382651
84	0x3e0ce877	0.13760553
85	0xbe5fd5ae	-0.21858856
86	0x3e483cac	0.19554394
87	0x3e3d551b	0.18489496
88	0xbed3f21e	-0.41395658
89	0xbe538e86	-0.20659837
90	0xbe2ddaaa	-0.16977945
91	0xbce274c7	-0.027643574
92	0x3e1afb79	0.15134992
93	0x3dc9abe3	0.09847238
94	0xbe8a66ee	-0.27031654
95	0x3f7718ad	0.9652203
96	0xbe8eec28	-0.27914548
97	0xbe622ce6	-0.2208744
98	0xbe6af252	-0.22944
99	0xbd1bc703	-0.03803159
100	0xbd8c6be3	-0.06856515
101	0xbec303bd	-0.3808879
102	0x3f134823	0.57531947
103	0xbd4eb725	-0.05046763
104	0xbee3510c	-0.4439777
105	0xbca32401	-0.019914629
106	0x3ef40f05	0.4766771
107	0xbe9b7d9d	-0.30369273
108	0xbe804c65	-0.25058284
109	0x3f55ea17	0.8356032
110	0xbe9a671e	-0.30156797
111	0x3f0f130d	0.55888444
112	0xbeace7df	-0.33770654
113	0x3d698536	0.057011805
114	0xbd5a3366	-0.053271674
115	0x3d599d4a	0.05312852
116	0x3ed98b86	0.4248926
117	0x3eba8d42	0.36435896
118	0xbeac6626	-0.33671683
119	0xbe821037	-0.25402996
120	0xbee5ccd6	-0.4488284
121	0xbf46d2dc	-0.77665496
122	0xbec79008	-0.38977075
123	0xbed1ff40	-0.41015053
124	0xbf885257	-1.0650128
125	0xbe81754f	-0.25284812
126	0xbeb15bc3	-0.3464032
127	0x3d9030e5	0.07040576
128	0x3df43b1e	0.11925338
129	0x3e5d436b	0.21607749
130	0x3e99a3c5	0.3000776
131	0xbd587236	-0.052843295
132	0xbe8afc3b	-0.27145562
133	0x3f083775	0.5320962
134	0x3f5a694a	0.8531691
135	0xbda9ae99	-0.08285255
136	0xbec6fa12	-0.38862664
137	0xbeb1ba31	-0.34712365
138	0x3e9ae870	0.3025546
139	0xbd407326	-0.046984814
140	0xbf2c5927	-0.67323536
141	0x3e417736	0.18893132
142	0xbe36b891	-0.17843844
143	0x3def8e42	0.116970554
144	0xbe522cdb	-0.20524924
145	0xbe923f94	-0.2856413
146	0xbdaa2307	-0.08307462
147	0xbe994f5f	-0.29943368
148	0x3fab1af5	1.3367602
149	0x3e19bd98	0.1501373
150	0xbe398d78	-0.18120372
151	0xbefcb9c6	-0.49360484
152	0xbc077663	-0.008267972
153	0xbdbb0f29	-0.09133751
154	0xbee3fee2	-0.44530398
155	0xbedd5129	-0.43225983
156	0xbf45b15e	-0.77223766
157	0xbf1c650f	-0.61091703
158	0xbe8a225e	-0.26979345
159	0xbf3a6f74	-0.72826314
160	0x3c4647f7	0.012102119
161	0x3e5681c4	0.20947939
162	0xbe70e0c2	-0.23523238
163	0xbf406c6d	-0.75165445
164	0xbdcfc107	-0.10144239
165	0x3e1a7073	0.15081958
166	0xbea52ff2	-0.32263142
167	0x3dab11d6	0.08353011
168	0xbe81c94e	-0.25348896
169	0x3f0b86cf	0.54502577
170	0xbe13f979	-0.14450635
171	0x3ecd64b6	0.401159
172	0x3e22ee66	0.15911254
173	0xbf60f772	-0.8787757
174	0xbe53f357	-0.20698296
175	0xbeb53d06	-0.3539812
176	0xbf3532ed	-0.7078083
177	0x3f16a539	0.5884586
178	0xbebb5280	-0.3658638
179	0xbe30de37	-0.17272268
180	0x3e264790	0.16238236
181	0xbecda705	-0.40166488
182	0xbe25c0e9	-0.1618687
183	0xbf2db595	-0.678552
184	0xbe914975	-0.28376356
185	0x3f365c5f	0.712347
186	0x3d83b810	0.064315915
187	0x3eee5320	0.46547794
188	0x3e7dae66	0.24773559
189	0xbe8d9506	-0.27652758
190	0xbf3be657	-0.73398346
191	0xbe36f61f	-0.17867325
192	0xbead036f	-0.33791682
193	0xbede3797	-0.43401787
194	0x3e812e50	0.25230646
195	0xbeabb124	-0.33533585
196	0x3c5d59c1	0.0135101685
197	0x3e2d175b	0.1690344
198	0x3ee58300	0.44826508
199	0xbea23c69	-0.31686714
200	0x3d0dbfa9	0.03460661
201	0xbd3663c8	-0.044528753
202	0x3e8d6afb	0.27620682
203	0x3f2a168d	0.6644066
204	0xbc854d8e	-0.016272333
205	0xbc4a3c83	-0.012343529
206	0x3e389ac3	0.18027787
207	0x3de5ad34	0.112146765
208	0xbeac87fd	-0.336975
209	0xbec86cc4	-0.39145482
210	0xbf219a5b	-0.6312615
211	0xbf273192	-0.65310013
212	0xbe6f1933	-0.23349456
213	0x3e4addca	0.19811168
214	0xbce21a09	-0.027600305
215	0xbdc77850	-0.09739745
216	0x3eb85334	0.3600098
217	0x3dddd767	0.108321
218	0xbf4fa74a	-0.8111464
219	0x3d0dd09f	0.034622785
220	0xbf7a73af	-0.9783277
221	0xbeb06d07	-0.3445818
222	0xbea2a963	-0.31769857
223	0xbf005783	-0.5013353
224	0x3f0ba5a8	0.54549646
225	0xbf42626b	-0.75931424
226	0xbf22d874	-0.6361153
227	0xbedcd6eb	-0.4313272
228	0xbe47c90b	-0.19510286
229	0xbe5a8dfc	-0.21343225
230	0x3e977bda	0.2958668
231	0x3ddfa8cf	0.109208696
232	0xbf87de82	-1.0614779
233	0x3ed01eec	0.40648592
234	0x3e0a5143	0.13507561
235	0xbe457fca	-0.19287029
236	0xbf385fce	-0.72021186
237	0xbeb0d9ee	-0.34541267
238	0xbf77faeb	-0.96867245
239	0xbcfa1577	-0.030527813
240	0xbf023f94	-0.5087826
241	0xbe5b9f91	-0.21447589
242	0x3e37f26f	0.17963575
243	0xbebf1fd9	-0.37328985
244	0xbdaa0513	-0.08301749
245	0x3edd62f4	0.43239558
246	0x3f1e14d4	0.6175053
247	0x3f014362	0.50493443
248	0xbde073b2	-0.10959567
249	0x3f2aa1e2	0.66653264
250	0xbdec5526	-0.11539678
251	0xbeceac8c	-0.40366018
252	0xbeccdafe	-0.40010828
253	0xbf1664d4	-0.587476
254	0xbe0c3064	-0.13690335
255	0xbd6af3a6	-0.057361268

conv2.bias f4 [8]
0	0x3d31174c	0.04323511
1	0xbd1b651c	-0.037938222
2	0x3d8a56b4	0.067548186
3	0x3dc07c51	0.093987115
4	0x3d1f5060	0.03889501
5	0xbd39f839	-0.04540274
6	0x3d775fe2	0.060394175
7	0x3c905448	0.017618313

conv3.weight f4 [8, 4, 3, 3]
0	0xbce839f4	-0.028347947
1	0xbeabce34	-0.33555758
2	0xbe260b4b	-0.16215245
3	0x3cc4ee95	0.024039546
4	0xbf10c80d	-0.56555253
5	0xbe071366	-0.13190994
6	0xbecfe1f9	-0.4060209
7	0xbec96f20	-0.39342594
8	0x3dd0111e	0.10159515
9	0x3ccb0199	0.024781035
10	0x3f164ff8	0.5871577
11	0x3ea9f39f	0.3319368
12	0xbeca7e8f	-0.39549682
13	0xbd878194	-0.06616512
14	0x3c38794c	0.011259388
15	0xbf711e05	-0.9418643
16	0xbee22fbf	-0.44177052
17	0xbe290969	-0.16507496
18	0xbf1c0f86	-0.60961187
19	0xbedc895b	-0.43073544
20	0xbd8a1912	-0.06743063
21	0xbec41151	-0.3829446
22	0xbe428e5d	-0.1899962
23	0xbd979014	-0.074005276
24	0x3ed74589	0.4204524
25	0x3eb9769b	0.362233
26	0x3c4927e1	0.012277574
27	0x3ed2e406	0.41189593
28	0xbe809315	-0.25112215
29	0xbf5a18d2	-0.8519412
30	0x3ef750b8	0.4830377
31	0xbe3bc59c	-0.183371
32	0x389bc337	7.4273376e-05
33	0x3eef8d45	0.46787468
34	0xbde7e59b	-0.11323091
35	0xbc93f490	-0.018060952
36	0x3ebff363	0.37490377
37	0xbf1ab967	-0.6043915
38	0xbe17cdb8	-0.14824569
39	0xbe144f7e	-0.14483449
40	0xbee6a0de	-0.45044607
41	0xbd31ac20	-0.04337704
42	0x3e6b0c9f	0.22954033
43	0x3e1a8830	0.15091014
44	0x3ecbe298	0.39821315
45	0xbece75cd	-0.4032425
46	0xbf8186d6	-1.0119274
47	0xbf5e3e6f	-0.86814016
48	0x3e5dd17b	0.21661942
49	0xbe561c27	-0.20909177
50	0xbf0a508f	-0.5402917
51	0x3ea87ab6	0.3290612
52	0x3e8e0802	0.27740484
53	0xbcbeec7e	-0.023306128
54	0xbdec1ab3	-0.1152853
55	0xbe35fa40	-0.17771244
56	0xbd846b1f	-0.06465744
57	0xbd03948d	-0.03212409
58	0xbd0e8c64	-0.034801856
59	0xbec02eb5	-0.37535635
60	0xbe2efe4a	-0.17089191
61	0xbe72e24c	-0.23719138
62	0xbe860665	-0.26176754
63	0xbdcff887	-0.10154825
64	0xbec5c2c7	-0.38625166
65	0xbf051041	-0.51977926
66	0x3ed6049c	0.41800392
67	0x3a221366	0.00061827
68	0xbd414e5a	-0.047193862
69	0x3ef5f550	0.4803872
70	0x3e7b0ff5	0.24517806
71	0x3f116f6e	0.56810653
72	0x3dccc2bf	0.09998082
73	0x3e20992d	0.15683432
74	0x3f3b65ea	0.73202384
75	0xbddd0dac	-0.10793623
76	0xbe0217cc	-0.1270439
77	0x3ef9a363	0.48757467
78	0xbf46cf9c	-0.77660537
79	0x3e8a62b1	0.2702842
80	0x3eab5c21	0.33468726
81	0xbf496268	-0.7866578
82	0xbfa3f4a4	-1.2809033
83	0xbefa97e8	-0.4894402
84	0xbf151d7a	-0.582481
85	0xbd732f4f	-0.05937129
86	0x3d299ba1	0.041408185
87	0xbddeecac	-0.10884985
88	0x3d061a92	0.032740183
89	0xbe891a67	-0.26777956
90	0xbe6953f3	-0.2278593
91	0xbcab9e60	-0.020949543
92	0x3e49f360	0.19721746
93	0xbee17f21	-0.44042304
94	0xbd62d3b8	-0.055377692
95	0xbf0b6615	-0.5445264
96	0xbe86420a	-0.2622226
97	0xbf434f88	-0.7629323
98	0xbf345b33	-0.7045166
99	0x3dcea3d3	0.10089841
100	0xbdae5db4	-0.08513966
101	0x3ea1b61a	0.31584245
102	0x3f0ff990	0.5624018
103	0x3d747392	0.05968053
104	0xbdb36ce7	-0.08761006
105	0xbd96dae7	-0.07365971
106	0xbf161542	-0.58626187
107	0xbe999898	-0.29999232
108	0xbe77ae6a	-0.24187627
109	0xbed7e5d7	-0.4216754
110	0xbe8957bd	-0.26824751
111	0x3e661204	0.2246781
112	0x3e1a3033	0.15057449
113	0x3e885349	0.26626042
114	0x3e8d5945	0.2760717
115	0x3f173b4d	0.5907486
116	0x3df80f6f	0.12112319
117	0x3d2df3bc	0.04246877
118	0x3e9a6a4b	0.3015922
119	0xbe264997	-0.1623901
120	0x3e606cda	0.21916524
121	0x3ef4efc7	0.47839186
122	0xbf16a093	-0.58838767
123	0xbe893ef6	-0.26805848
124	0xbf165266	-0.5871948
125	0xbee756ec	-0.45183504
126	0xbed1d063	-0.409793
127	0x3e8dfe22	0.2773295
128	0x3daaab53	0.08333459
129	0xbe65c1e6	-0.22437248
130	0x3ea0193f	0.3126926
131	0xbdef2224	-0.11676434
132	0x3e883d66	0.26609343
133	0x3e92eaa7	0.2869465
134	0x3f527414	0.8220837
135	0x3e2c0c00	0.16801453
136	0xbecb9255	-0.3976008
137	0x3e8697bb	0.26287636
138	0xbdaaaa7c	-0.083332986
139	0xbf6038d6	-0.87586725
140	0xbe3503fb	-0.176773
141	0x3ee167ed	0.44024602
142	0x3e86c81d	0.2632455
143	0x3e8ed90b	0.27899966
144	0x3e123816	0.14279208
145	0xbd85cd65	-0.065333165
146	0xbdd65e3d	-0.10467193
147	0x3e497e91	0.19677188
148	0xbdb6f236	-0.08932917
149	0x3e887d7c	0.26658237
150	0xbd12a647	-0.035803106
151	0xbe50ce07	-0.20391093
152	0xbda94236	-0.08264582
153	0xbded7c80	-0.11596012
154	0x3e78d0b4	0.24298364
155	0x3e659acd	0.22422333
156	0x3e513dd2	0.20433739
157	0x3f0d0817	0.5509047
158	0x3eb9d284	0.36293423
159	0xbe71677d	-0.23574634
160	0xbee4e542	-0.4470616
161	0xbe385f4e	-0.18005106
162	0xbefbbc74	-0.49167216
163	0x3dd78d3a	0.10524984
164	0x3ef1a388	0.47195077
165	0xbf03b340	-0.5144539
166	0xbf23c200	-0.63967896
167	0xbd990b68	-0.07472879
168	0xbeeb7e39	-0.45994738
169	0xbf252893	-0.64515036
170	0x3dbac3fb	0.091194116
171	0x3f2eccbc	0.6828115
172	0xbe3e5738	-0.18587959
173	0xbee7549f	-0.45181748
174	0x3f938e85	1.1527869
175	0x3e617592	0.22017506
176	0xbf2efd4f	-0.6835527
177	0x3f1bbaab	0.6083171
178	0x3e15c928	0.14627516
179	0xbeb367db	-0.35040173
180	0xbdf3649f	-0.11884426
181	0x3e5c71d9	0.21527804
182	0x3e824925	0.2544643
183	0xbebbbeb2	-0.36668926
184	0xbf3bdb07	-0.73381084
185	0xbd866ad7	-0.06563347
186	0xbea0ab71	-0.313808
187	0xbf16630e	-0.58744895
188	0x3e0715c3	0.13191895
189	0xbf72001f	-0.94531435
190	0xbeb7f33f	-0.3592777
191	0xbe1de469	-0.15419163
192	0xbd594cde	-0.053051822
193	0x3e36c33b	0.17847912
194	0x3f16fbfe	0.5897826
195	0x3e888937	0.26667187
196	0x3ec25be9	0.37960747
197	0xbdfb9e8f	-0.12286102
198	0xbeee62d9	-0.4655979
199	0x3e5283f3	0.20558147
200	0x3eb3fbd1	0.35153058
201	0x3e466d7d	0.19377704
202	0x3f26da24	0.65176606
203	0x3d2d6c18	0.042339414
204	0xbdcbad9f	-0.09945225
205	0x3e7e834b	0.24854772
206	0xbebc43c1	-0.36770442
207	0x3ec8a92a	0.39191562
208	0x3ecf34fd	0.40470114
209	0x3e0399a5	0.1285158
210	0x3ee6372d	0.4496397
211	0x3ea36ad3	0.31917438
212	0xbe12c504	-0.14332968
213	0x3e8bd319	0.27309492
214	0xbf0480d0	-0.5175905
215	0xbef29f55	-0.47387186
216	0x3cbfd951	0.023419054
217	0x3c3f9892	0.01169409
218	0x3db87ee1	0.09008575
219	0xbeffbff5	-0.4995114
220	0x3c7eda38	0.015554957
221	0x3e989199	0.29798582
222	0xbea2157c	-0.31657016
223	0xbedd7a0d	-0.4325718
224	0xbee747ff	-0.45172116
225	0x3ea30d8c	0.31846273
226	0xbec150cc	-0.37756956
227	0x3e00bb8c	0.12571543
228	0x3e8f9936	0.28046578
229	0xbf1897e0	-0.5960674
230	0xbf88e4f9	-1.0694877
231	0x3ea38f4c	0.31945264
232	0x3e1abae0	0.1511035
233	0x3f272a14	0.6529858
234	0x3eeb37bf	0.45940968
235	0x3cb13cf4	0.02163551
236	0xbde39bea	-0.111137226
237	0x3f061157	0.5237021
238	0xbf300e90	-0.6877222
239	0xbee6aff2	-0.4505611
240	0xbe059b11	-0.13047434
241	0xbd5b795c	-0.053582534
242	0x3ea705c1	0.32621577
243	0x3df9db87	0.12200075
244	0xbcdc8b2b	-0.02692183
245	0xbe912d41	-0.28354838
246	0xbf103527	-0.56331104
247	0xbcbcd371	-0.023050042
248	0x3e7e9478	0.24861324
249	0xbf181495	-0.59406406
250	0x3e9fa77f	0.31182477
251	0x3f0576b9	0.5213428
252	0xbd940e0d	-0.072292425
253	0x3e8b072e	0.27153915
254	0x3f0fcf3a	0.5617558
255	0xbdd6a669	-0.10480959

conv3.bias f4 [8]
0	0x3c0bcfee	0.008533461
1	0xbe8f08ae	-0.2793631
2	0x3e19f74a	0.1503574
3	0x3e06b3db	0.13154547
4	0x3d1ad5a9	0.03780142
5	0xbcf2d094	-0.029640473
6	0x3e26900a	0.16265884
7	0xbdbd98e7	-0.092576794

conv4.weight f4 [16, 8, 3, 3]
0	0xbb2646cf	-0.0025371795
1	0x3e964905	0.29352584
2	0x3f023d09	0.5087438
3	0x3e36964e	0.17830774
4	0xbde4b74c	-0.111677736
5	0xbeb91a42	-0.36152846
6	0x3e1b29af	0.1515262
7	0xbdb410af	-0.08792245
8	0x3d373cae	0.044735603
9	0xbea5d25e	-0.3238706
10	0x3dd13e2a	0.10216935
11	0x3e376017	0.17907749
12	0xbf1ccdb6	-0.6125139
13	0x3e7aa132	0.24475554
14	0x3ef5e89c	0.4802903
15	0xbe712c2b	-0.23552005
16	0x3e8dd02f	0.27697894
17	0x3d650ede	0.05592238
18	0x3d03a0cd	0.032135773
19	0xbe688a8c	-0.22709101
20	0xbe0213e3	-0.12702899
21	0xbe8fcd5e	-0.2808637
22	0xbe80c517	-0.25150368
23	0x3d1a6653	0.03769524
24	0xbec09845	-0.37616172
25	0xbe1ea445	-0.15492351
26	0xbde5203c	-0.11187789
27	0xbee5edfd	-0.44908133
28	0xbe5a8f36	-0.21343693
29	0x3beedc37	0.0072894352
30	0xbf1abdff	-0.6044616
31	0xbdfba50d	-0.1228734
32	0x3e3766ca	0.17910305
33	0x3db9b6a4	0.09068039
34	0x3c838377	0.016053898
35	0x3f967657	1.1754864
36	0xbecbfecf	-0.3984284
37	0x3ebd3b7d	0.36959448
38	0x3e998b48	0.29989076
39	0xbe915bd7	-0.2839038
40	0x3da1f159	0.079073615
41	0xbd5d4a03	-0.05402566
42	0xbd653f65	-0.05596866
43	0x3cc2af0d	0.023765111
44	0x3e3c3c97	0.18382488
45	0x3e28a529	0.16469254
46	0x3ed2b563	0.41154012
47	0x3e8d26c1	0.2756863
48	0xbefd9e14	-0.49534667
49	0xbdf16e11	-0.117885716
50	0xbe79533a	-0.24348155
51	0xbecab630	-0.39592123
52	0xbeb6a742	-0.35674483
53	0xbee17575	-0.44034925
54	0x3e6cdc9b	0.2313103
55	0x3e8d4538	0.27591872
56	0x3ea91c63	0.3302947
57	0xbedfa7ba	-0.43682653
58	0xbee91168	-0.45521092
59	0xbeb36740	-0.3503971
60	0xbe5b54b8	-0.21419036
61	0xbd9f9197	-0.07791441
62	0xbe3845d6	-0.1799539
63	0x3f3c6a9d	0.7360018
64	0x3e7b8eb8	0.24566162
65	0xbee3a90d	-0.44464913
66	0x3ee004fa	0.43753797
67	0x3bd0c163	0.0063707097
68	0xbe3eead5	-0.18644269
69	0x3ec03998	0.3754394
70	0x3e411921	0.18857242
71	0x3e15afb8	0.14617813
72	0x3ec32729	0.38115814
73	0x3eb9a786	0.36260623
74	0xbe13672e	-0.14394829
75	0x3eb3b334	0.3509766
76	0xbe474f5a	-0.19463864
77	0x3e8e8435	0.2783524
78	0xbf1cdf82	-0.61278546
79	0xbe3c8eda	-0.18413869
80	0xbdce3b50	-0.10069907
81	0xbe3b376b	-0.18282859
82	0x3ea6a3cb	0.3254684
83	0x3ea41cc0	0.32053185
84	0xbf250f8e	-0.6447686
85	0xbe9c7450	-0.3055749
86	0xbca7ccc5	-0.020483384
87	0x3da7d829	0.08195526
88	0x3dbca115	0.092104115
89	0xbcf33717	-0.029689355
90	0xbcd12c02	-0.02553368
91	0x3d4c1596	0.049825273
92	0x3f3eb5fa	0.74496424
93	0x3e868832	0.26275784
94	0x3eae8ec9	0.3409331
95	0x3e52928e	0.20563719
96	0xbeea437b	-0.4575461
97	0xbec59f4b	-0.38598093
98	0x3de95ac0	0.11394262
99	0xbd622aee	-0.055216722
100	0x3e021828	0.12704527
101	0xbf058943	-0.5216257
102	0xbe3c2246	-0.1837245
103	0x3e474fc7	0.19464026
104	0x3eb7aaaa	0.35872394
105	0x3cdc926d	0.02692529
106	0x3d371184	0.04469444
107	0x3f0a6ada	0.5406929
108	0xbbcd1a13	-0.006259212
109	0x3cd4401a	0.025909472
110	0xbf1c1376	-0.60967195
111	0xbd71fbfa	-0.059078194
112	0xbf7211c1	-0.9455834
113	0xbf5911a2	-0.8479253
114	0xbee90713	-0.4551321
115	0xbf691176	-0.9104227
116	0xbe8388c3	-0.25690278
117	0x3e607436	0.21919331
118	0x3e3861ad	0.1800601
119	0x3d73511a	0.059403516
120	0x3ef0b0c9	0.47009876
121	0x3ea68c13	0.32528743
122	0xbf02a2e3	-0.51029795
123	0x3d9e0cc0	0.077172756
124	0xbeee0fdd	-0.46496478
125	0xbf1aa2a2	-0.6040441
126	0x3e2034f0	0.15645194
127	0xbedc3813	-0.4301153
128	0xbdf8a637	-0.12141078
129	0xbf5d7974	-0.8651345
130	0xbed253ea	-0.41079646
131	0xbdc025f7	-0.09382241
132	0x3f128876	0.5723947
133	0x3f240b10	0.6407938
134	0x3f141d68	0.5785737
135	0xbe700349	-0.23438753
136	0x3dd4c89d	0.103898264
137	0x3eed8f43	0.46398363
138	0x3e8ded0c	0.27719915
139	0x3eacfd87	0.33787176
140	0x3bf6df0d	0.007533914
141	0xbe7b4154	-0.2453664
142	0xbceec303	-0.029145723
143	0xbe8d4357	-0.2759044
144	0xbe5fa2f5	-0.21839507
145	0xbe2b2616	-0.16713747
146	0xbddc25cd	-0.107493974
147	0xbeedf63f	-0.46476933
148	0xbf30f237	-0.6911959
149	0xbecb1f57	-0.39672348
150	0x3ed1d47c	0.40982425
151	0xbf1f24fc	-0.6216581
152	0xbf025d1d	-0.5092333
153	0x3e273818	0.16329992
154	0x3eb87dd0	0.36033487
155	0x3eacdf5f	0.3376417
156	0xbd35779f	-0.044303533
157	0xbcad9a8f	-0.021191863
158	0xbe841950	-0.25800562
159	0xbd1507fe	-0.036384575
160	0xbf023ac4	-0.5087092
161	0xbec2c1ad	-0.38038388
162	0xbe4ed5cd	-0.20198746
163	0x3e0f12b8	0.13971984
164	0x3da7182d	0.08158908
165	0x3e18259f	0.14858101
166	0xbcf609bb	-0.030033937
167	0x3e18fb8b	0.14939706
168	0x3f212af0	0.6295614
169	0x3f2f0ec6	0.6838192
170	0x3e1d218d	0.1534483
171	0xbf180567	-0.59383243
172	0x3e43b87d	0.19113345
173	0x3f70478a	0.9385916
174	0xbddda0b6	-0.10821669
175	0xbe67db85	-0.22642334
176	0x3ec71cd4	0.38889182
177	0x3e970ebc	0.2950343
178	0x3e080d17	0.13286243
179	0xbf02db73	-0.511161
180	0x3e0839b5	0.13303263
181	0x3dbff9e0	0.09373832
182	0x3dc90d41	0.09816981
183	0xbdcfb45c	-0.10141823
184	0xbe30fe22	-0.17284444
185	0x3da15e2d	0.07879291
186	0x3efa659b	0.48905644
187	0xbe0dddff	-0.13854216
188	0x3da5753d	0.08079002
189	0xbe8b019a	-0.2714966
190	0xbeed9ac6	-0.46407145
191	0xbef7b765	-0.48382106
192	0xbe4c1d91	-0.19933154
193	0xbe104fe3	-0.14092974
194	0xbe15554d	-0.14583321
195	0x3e5db01b	0.2164921
196	0xbe05d1c6	-0.13068303
197	0xbe47ee6b	-0.19524543
198	0x3d8619c6	0.06547885
199	0xbd105f4e	-0.03524714
200	0xbed7c62e	-0.42143387
201	0x3e2e9b4b	0.17051427
202	0xbe050b9f	-0.12992714
203	0xbdbccc83	-0.09218695
204	0x3e85ea35	0.26155248
205	0xbe4c0b4a	-0.19926181
206	0xbd4828f1	-0.04886717
207	0xbdac76bb	-0.084210835
208	0xbe2d03c5	-0.16895969
209	0x3eac98e7	0.33710405
210	0x3f323563	0.6961271
211	0x3ec523c6	0.38503855
212	0xbe460f74	-0.19341832
213	0x3d1a6d88	0.037702113
214	0xbc040313	-0.008057374
215	0xbea287d3	-0.3174425
216	0xbf36663f	-0.71249765
217	0xbdb04adc	-0.08608028
218	0x3d2e9c8a	0.042629756
219	0xbed0a363	-0.40749654
220	0xbed8b2c3	-0.42323884
221	0xbdd5d7a5	-0.104415216
222	0xbebef989	-0.37299755
223	0xbd962ecd	-0.07333145
224	0xbdfe1d1b	-0.12407895
225	0x3e98b0c1	0.29822353
226	0x3ec46f01	0.3836594
227	0x3ea0411b	0.31299672
228	0xbd8b5d1d	-0.06804869
229	0x3ec92b44	0.39290822
230	0x3f100784	0.5626147
231	0xbee4c71f	-0.44683167
232	0xbf075311	-0.52861124
233	0xbd68a88f	-0.056801375
234	0x3ec060e8	0.37573934
235	0x3ef5eb9b	0.48031315
236	0x3ee2f15f	0.44324777
237	0x3ea141b2	0.31495434
238	0x3e3c3af0	0.18381858
239	0x3f1298d6	0.5726446
240	0x3ea0ff62	0.31444842
241	0xbda93642	-0.08262302
242	0x3ec9af96	0.39391774
243	0xbf2191af	-0.6311292
244	0xbf168276	-0.5879282
245	0xbe04cb69	-0.1296822
246	0xbf48d1d0	-0.7844515
247	0xbef37d58	-0.47556567
248	0x3da1ab04	0.07893947
249	0x3e16a51d	0.14711423
250	0xbebf7c0f	-0.37399337
251	0xbeda0b0b	-0.4258655
252	0xbed02a20	-0.4065714
253	0x3ec0e437	0.37674114
254	0x3eaf1ffd	0.34204093
255	0xbf289b2f	-0.6586179

conv4.bias f4 [16]
0	0xbe016f1e	-0.12640044
1	0xbdbacda8	-0.09121257
2	0xbca5e20b	-0.020249387
3	0x3ca89193	0.020577228
4	0xbde8a514	-0.11359611
5	0xbd43bafd	-0.047785748
6	0x3c03e334	0.008049775
7	0xbd153ec1	-0.0364368
8	0x3d4575e9	0.04820815
9	0xbd18f9e5	-0.037347693
10	0x3dfb43d2	0.12268795
11	0xbd8075a7	-0.062724404
12	0xbc203b87	-0.009779817
13	0x3d972c56	0.07381503
14	0x3d6ecd8f	0.058301505
15	0x3dfa23b0	0.12213838

conv5.weight f4 [16, 8, 3, 3]
0	0x3b828d92	0.0039841617
1	0x3ea6f165	0.32606044
2	0xbd502b08	-0.050822288
3	0xbf1d6cf4	-0.61494374
4	0xbd422655	-0.047399838
5	0xbe092992	-0.13394764
6	0xbe096f31	-0.13421322
7	0xbf1d0e5a	-0.61350024
8	0xbee5d0c7	-0.44885847
9	0x3db76b18	0.089559734
10	0x3e255ba8	0.16148245
11	0xbe726576	-0.23671517
12	0xbf19de7a	-0.601051
13	0x3dfa6282	0.1222582
14	0x3ca7ee2a	0.020499308
15	0xbf1581ab	-0.5840098
16	0xbec0fe18	-0.37693858
17	0x3e08abfd	0.13346858
18	0xbe29ee96	-0.1659492
19	0x3e8145a2	0.25248438
20	0x3ec3f000	0.38269043
21	0x3df18367	0.11792641
22	0xbdbc5e1f	-0.0919764
23	0x3d9cb155	0.07651011
24	0xbef8f72b	-0.48626074
25	0xbecc89dd	-0.3994893
26	0xbdc2ba72	-0.09508218
27	0x3f02aa2e	0.51040924
28	0xbc9b37fd	-0.018947596
29	0xbebda601	-0.37040713
30	0xbad609a6	-0.001632978
31	0xbee24ff6	-0.4420163
32	0x3ef2e018	0.47436595
33	0x3e4b280a	0.19839492
34	0xbe85cca9	-0.26132706
35	0x3edcaa64	0.43098748
36	0x3e12b28b	0.14325921
37	0x3e14a187	0.14514743
38	0xbe4701e6	-0.19434318
39	0xbd8641a6	-0.0655549
40	0x3ec650cd	0.3873352
41	0x3f293c7e	0.6610793
42	0xbeaac372	-0.33352238
43	0xbee15cac	-0.44016016
44	0xbe8cc430	-0.2749343
45	0x3f5c2f30	0.860095
46	0x3fb5aa05	1.4192511
47	0x3eaf2f4a	0.34215766
48	0xbf5028a1	-0.81311995
49	0xbe6f5c88	-0.23375142
50	0x3d9f0ec6	0.0776649
51	0xbcfd2838	-0.030902967
52	0xbd70f708	-0.058829337
53	0xbe3c8421	-0.18409778
54	0x3e3e10cf	0.185611
55	0xbdb10bfd	-0.08644865
56	0x3de8b67b	0.113629304
57	0x3ea32058	0.31860614
58	0x3eb38a8e	0.35066646
59	0xbe11b8f1	-0.14230706
60	0xbcbdb109	-0.023155706
61	0x3ef53b3a	0.4789675
62	0x3e2cbd3d	0.16869064
63	0xbf027379	-0.5095745
64	0x3d9a62e1	0.07538391
65	0x3f58cc01	0.84686285
66	0xbf8069b9	-1.0032264
67	0xbf25606d	-0.6460026
68	0xbcde48a6	-0.02713425
69	0xbf529131	-0.82252795
70	0xbf2787d6	-0.65441644
71	0x3e665227	0.22492276
72	0x3f207fd7	0.6269507
73	0x3ebb19fa	0.36543256
74	0x3debaa49	0.11507089
75	0x3eb2abc0	0.3489666
76	0x3eaf1b88	0.34200692
77	0x3e0b6c4c	0.1361553
78	0x3e2f7192	0.17133167
79	0x3e9627ee	0.2932734
80	0xbe7b4b15	-0.2454036
81	0x3c2a9ad2	0.010412889
82	0xbe3e9d76	-0.18614754
83	0x3ea37ab9	0.31929567
84	0x3c9d68de	0.019215044
85	0xbdd3368a	-0.10313137
86	0xbf2f2826	-0.68420637
87	0x3ea892a4	0.32924378
88	0x3e7459d8	0.23862398
89	0xbea80418	-0.32815623
90	0x3edae46d	0.427524
91	0x3efbccfe	0.49179834
92	0xbed009a9	-0.4063237
93	0xbe26b7da	-0.16281071
94	0x3bcf4d6b	0.0063263676
95	0x3d163a05	0.036676425
96	0xbdc69a49	-0.09697396
97	0xbea7998c	-0.32734334
98	0xbd98c4a5	-0.07459382
99	0xbf0ad386	-0.5422901
100	0xbeb62137	-0.35572216
101	0xbd3c40f3	-0.045960378
102	0xbe3a18d0	-0.18173528
103	0xbd20dd3b	-0.03927348
104	0xbd1f43c1	-0.038882975
105	0x3d8f6f50	0.07003653
106	0xbee19c6f	-0.44064662
107	0xbe4391b5	-0.19098552
108	0xbc6336e1	-0.013868065
109	0x3d3c9299	0.046038244
110	0x3e4e9809	0.20175184
111	0x3ca37a21	0.019955697
112	0x3e19ae1d	0.15007825
113	0x3f731dc9	0.94967324
114	0xbe4cb2b0	-0.19990039
115	0xbd018fcd	-0.03163128
116	0x3f0ef930	0.5584898
117	0xbd05ad33	-0.03263588
118	0xbf06c541	-0.52644736
119	0xbea7d388	-0.32778573
120	0x3e8e61fb	0.27809128
121	0xbe69f137	-0.22845922
122	0x3dbb2434	0.091377646
123	0x3ed87d7d	0.4228324
124	0xbc5dd837	-0.013540319
125	0xbe493fad	-0.19653197
126	0xbeb2362a	-0.3480695
127	0x3d5719a9	0.052514706
128	0xbd5a5919	-0.053307626
129	0xbe1fce15	-0.15605958
130	0x3e3a68d0	0.18204045
131	0xbec6c098	-0.38818812
132	0x3d83184a	0.06401117
133	0xbe60e2e3	-0.2196155
134	0xbedbeee5	-0.429557
135	0x3eabf680	0.33586502
136	0x3eb2932f	0.34877917
137	0x3e0e3e30	0.1389091
138	0x3e7e042c	0.24806279
139	0x3e46359f	0.19356392
140	0x3f494018	0.78613424
141	0x3e767a7e	0.24070165
142	0x3e988395	0.2978789
143	0x3ee24b26	0.4419796
144	0x3efa1ecb	0.48851618
145	0x3f167844	0.5877726
146	0x3e4cdd83	0.20006375
147	0x3da9133f	0.08255624
148	0xbd9f75d7	-0.07786148
149	0xbe1d85b5	-0.15383036
150	0x3e69dba8	0.22837698
151	0xbd44eff0	-0.048080385
152	0x3e44c35b	0.19215147
153	0xbedc5383	-0.43032464
154	0x3f23961b	0.6390092
155	0x3f503924	0.8133719
156	0xbde080f1	-0.109620936
157	0x399b9504	0.0002967493
158	0xbeb1a4cc	-0.34696043
159	0xbe5d6c6e	-0.21623394
160	0xbf807cf4	-1.0038133
161	0xbef1e3c0	-0.47244072
162	0x3d801012	0.06253065
163	0xbe3943df	-0.18092297
164	0xbd51cc7a	-0.051220395
165	0xbcaf64f4	-0.021410443
166	0xbd7bbdcf	-0.061460312
167	0xbabee549	-0.0014564182
168	0xbebf04e1	-0.3730841
169	0xbec1cbcb	-0.37850794
170	0x3ec0d160	0.3765974
171	0x3d2a0ee0	0.041518092
172	0xbe28a243	-0.16468148
173	0xbed23d20	-0.4106226
174	0xbda32526	-0.0796607
175	0xbf4281ef	-0.7597951
176	0xbf652ee1	-0.89524657
177	0x3d422fa4	0.047408715
178	0x3ec4677f	0.3836021
179	0x3edba851	0.42901853
180	0xbeb15996	-0.3463866
181	0xbebe18c9	-0.37128285
182	0x3e6edd7f	0.23326682
183	0xbe2dfa28	-0.16989958
184	0xbd70090b	-0.058602374
185	0xbe84318a	-0.25819045
186	0x3e0d01e9	0.1377026
187	0x3e12bfd9	0.14330997
188	0xbdbfa67d	-0.09357927
189	0x3e7bf16b	0.24603812
190	0x3ee111b0	0.43958807
191	0x3e52f096	0.20599589
192	0xbe9d95e9	-0.30778435
193	0xbf01935c	-0.5061548
194	0xbf2af070	-0.6677313
195	0xbec22694	-0.37920058
196	0xbe6c0496	-0.23048624
197	0x3e0605b9	0.1308812
198	0xbf3bc423	-0.73346156
199	0xbee539a6	-0.44770545
200	0xbe3144d4	-0.17311412
201	0xbd66522b	-0.056230705
202	0x3e6508c4	0.22366625
203	0xbdd7d664	-0.10538939
204	0xbed35500	-0.41275787
205	0xbf11113d	-0.5666693
206	0xbef78f28	-0.48351407
207	0x3efeda3e	0.4977588
208	0xbdacf87b	-0.084458314
209	0xbe662fd7	-0.22479187
210	0xbf2516d3	-0.6448795
211	0xbe972a06	-0.2952425
212	0x3e41519d	0.18878789
213	0xbf628a33	-0.88492125
214	0xbde48d23	-0.11159732
215	0x3e9a9f3c	0.3019961
216	0x3db7cca3	0.08974578
217	0xbeac8d75	-0.33701673
218	0xbee6830c	-0.45021856
219	0x3ded2757	0.11579769
220	0xbd84ea3a	-0.06489988
221	0xbece35c0	-0.40275383
222	0xbed227df	-0.41046044
223	0xbd44e08a	-0.0480657
224	0xbefa1188	-0.488415
225	0xbe48ed8f	-0.19621871
226	0xbf31f3b4	-0.69512486
227	0xbf2e1fd1	-0.680173
228	0x3e880ca5	0.26572147
229	0xbc1e4180	-0.009659171
230	0xbc4f9262	-0.012669178
231	0x3e7c9ff4	0.24670392
232	0x3ec490f6	0.38391846
233	0xbefd3efd	-0.4946212
234	0xbe565eac	-0.20934552
235	0x3e8f790b	0.28022036
236	0xbd83a124	-0.064272195
237	0xbf4f8aea	-0.8107134
238	0xbf7c1f6d	-0.9848545
239	0xbf39247e	-0.7232131
240	0xbd16e280	-0.0368371
241	0x3eb13684	0.34611905
242	0xbcaf6ad8	-0.021413252
243	0xbf515adf	-0.81779283
244	0xbf6609c5	-0.8985866
245	0xbedd2e30	-0.431993
246	0xbed34b35	-0.41268316
247	0xbee5c5db	-0.44877514
248	0xbd647c49	-0.05578259
249	0x3f17f509	0.5935827
250	0x3ec94570	0.3931079
251	0xbe14ea29	-0.1454245
252	0x3e164f75	0.14678748
253	0x3eaef345	0.34169975
254	0x3f2be6ee	0.67149246
255	0x3e505256	0.20343909

conv5.bias f4 [16]
0	0xbd23a4c5	-0.03995206
1	0xbe038217	-0.12842594
2	0x3e0fa850	0.1402905
3	0x3d1a954b	0.037740033
4	0x3d56dbc9	0.052455697
5	0x3d3eb9e8	0.046564013
6	0xbd254d1e	-0.040356748
7	0x3e03dd5e	0.12877414
8	0x3e291d45	0.16515072
9	0xbde78c85	-0.11306099
10	0xbdc0ab57	-0.094076805
11	0x3dced560	0.10099292
12	0xbd0808d3	-0.03321154
13	0xbe4d3b90	-0.20042253
14	0x3e46b632	0.1940544
15	0x3d667e55	0.056272823

conv6.weight f4 [32, 16, 3, 3]
0	0x3e4554fa	0.19270697
1	0xbd78bffc	-0.060729966
2	0xbdd07e7e	-0.101803765
3	0xbf24269d	-0.6412142
4	0xbebfa0b5	-0.37427297
5	0xbd84af39	-0.064787336
6	0xbf2dcfdc	-0.67895293
7	0xbefd3325	-0.49453083
8	0x3e6acdfa	0.22930136
9	0xbebae3bd	-0.36501876
10	0xbec355e3	-0.38151464
11	0xbe7e4bb4	-0.24833566
12	0x3efd28f5	0.4944531
13	0x3c57f572	0.013181077
14	0xbd54a522	-0.051915295
15	0x3d757684	0.05992748
16	0xbe907589	-0.28214672
17	0xbe9220e7	-0.28540727
18	0xbe00f32b	-0.12592761
19	0xbec8a665	-0.3918945
20	0x3e830ddb	0.25596508
21	0xbf022ae6	-0.5084671
22	0xbe818035	-0.25293127
23	0x3f040e36	0.51584184
24	0x3ea4c4d4	0.32181418
25	0x3e75e21c	0.24012035
26	0x3e43e21b	0.19129221
27	0xbe810506	-0.25199145
28	0x3e7fe937	0.24991308
29	0x3f4ade24	0.7924521
30	0xbec9b363	-0.39394674
31	0xbe9fd0aa	-0.31213886
32	0x3d8501e0	0.06494498
33	0xbf4dade7	-0.8034348
34	0xbecca768	-0.3997147
35	0x3e8aded4	0.2712313
36	0xbe8412c1	-0.25795558
37	0xbe50c8a4	-0.20389038
38	0xbe4c2dec	-0.19939393
39	0x3e0d5a0f	0.13803886
40	0xbda4e22b	-0.080509506
41	0xbe8316fc	-0.25603473
42	0xbd594ce8	-0.05305186
43	0xbd4a1511	-0.049336497
44	0xbe207e6a	-0.15673223
45	0xbe379a22	-0.17929891
46	0x3e513a52	0.20432404
47	0x3f2d6309	0.6772924
48	0xbe963f04	-0.29344952
49	0x3da6b598	0.08140105
50	0x3e0edcf6	0.13951477
51	0xbdc833fb	-0.097755395
52	0x3f085201	0.5325013
53	0xbeaff5ff	-0.34367368
54	0x3e58fc9f	0.21190117
55	0xbc972348	-0.01844944
56	0x3d5a53d8	0.053302616
57	0xbf435e49	-0.7631574
58	0xbe582e17	-0.21111332
59	0xbe90f417	-0.28311226
60	0x3bde4cea	0.006784071
61	0x3d9f7c0a	0.077873304
62	0x3ca072cf	0.019585995
63	0xbddbf662	-0.10740353
64	0xbda7fe9d	-0.082028605
65	0x3ec04561	0.37552932
66	0x3e1e92c4	0.15485674
67	0x3da9cd68	0.08291131
68	0x3ec699c7	0.38789198
69	0x3e081422	0.1328893
70	0x3ec6009e	0.38672346
71	0xbd8fba11	-0.07017911
72	0xbe8e7f4a	-0.2783149
73	0x3d947bf9	0.072502084
74	0xbe7cc553	-0.24684648
75	0xbed18ea4	-0.4092914
76	0x3cadfb0e	0.021237876
77	0xbe9d87f6	-0.30767792
78	0xbed36652	-0.41289002
79	0xbea52d98	-0.32261348
80	0xbedebf9e	-0.43505567
81	0x3d8125a1	0.06306005
82	0xbd606219	-0.054781053
83	0xbe8c85f8	-0.2744596
84	0xbe8f867d	-0.28032294
85	0xbe563884	-0.20919997
86	0xbdac7108	-0.084199965
87	0x3e216649	0.15761675
88	0x3c901927	0.017590119
89	0xbe565aff	-0.2093315
90	0xbf08a3dc	-0.5337503
91	0xbf0c2ee6	-0.5475906
92	0xbea0875f	-0.3135328
93	0x3d3cfe46	0.04614093
94	0xbe3b0de4	-0.18267018
95	0xbeb37957	-0.35053512
96	0x3e8aa692	0.27080208
97	0xbec2dd95	-0.3805968
98	0xbe9714f0	-0.29508162
99	0xbecde5c4	-0.4021436
100	0xbec98b17	-0.3936393
101	0x3dbac8d2	0.09120335
102	0xbf0fea78	-0.56217146
103	0xbf1f6227	-0.62259144
104	0xbc02308b	-0.007946144
105	0xbe4586f7	-0.19289766
106	0xbefbe6a7	-0.4919941
107	0x3c01872c	0.007905763
108	0xbe1fe185	-0.15613373
109	0x3e1a3154	0.1505788
110	0x3e4a9b5c	0.19785827
111	0xbe1208c7	-0.14261161
112	0x3e28f656	0.1650022
113	0xbe113d19	-0.14183463
114	0x3e9224f2	0.28543812
115	0x3ec5786c	0.38568437
116	0xbeb1ffb9	-0.34765413
117	0x3f4aa81c	0.79162765
118	0x3f6d558a	0.9270865
119	0x3eec4055	0.4614283
120	0x3f693a46	0.91104543
121	0x3f1cf7cf	0.61315626
122	0x3e7d16ed	0.24715777
123	0x3ec80678	0.39067435
124	0xbdd4c6c0	-0.10389471
125	0x3ea636e8	0.32463765
126	0xbf0b9fd2	-0.5454074
127	0xbee8c00d	-0.45459023
128	0xbe858691	-0.2607923
129	0xbe9187e6	-0.28423995
130	0x3e72a070	0.23694015
131	0x3d84de4c	0.06487712
132	0x3deaf95a	0.11473341
133	0x3e42f001	0.19036867
134	0x3c4f0e39	0.012637668
135	0xbeed73c8	-0.46377397
136	0xbe709f38	-0.23498237
137	0xbe82c144	-0.25538075
138	0xbec40ccb	-0.3829101
139	0x3e04d148	0.1297046
140	0x3e2b1c4d	0.16710015
141	0x3ef6f2fa	0.4823225
142	0xbcf3fb17	-0.029782815
143	0xbe9166e3	-0.2839881
144	0x3d9b8252	0.07593216
145	0xbe92968b	-0.2863048
146	0xbf14153c	-0.578449
147	0x3d5c87cf	0.053840455
148	0xbe63abb8	-0.22233474
149	0xbeba86dc	-0.36431015
150	0xbd895940	-0.06706476
151	0x3ae0c76d	0.0017149277
152	0x3d2909ae	0.041268997
153	0xbd9e969c	-0.0774357
154	0x3e94aa3e	0.29036134
155	0x3f51bd99	0.8192993
156	0x3ef8bc7e	0.48581308
157	0x3e88cecf	0.26720282
158	0x3f1f4b35	0.6222413
159	0x3f37bbf2	0.71771157
160	0x3e817a0e	0.25288433
161	0x3e92d8e2	0.28681093
162	0xbde4b62b	-0.11167558
163	0x3ddd9376	0.108191416
164	0xbd110a35	-0.035410125
165	0xbe545f20	-0.20739412
166	0xbde0ac52	-0.109703675
167	0xbf17a281	-0.59232336
168	0xbe807e51	-0.25096372
169	0xbe23741c	-0.15962261
170	0x3e1d6429	0.1537024
171	0x3e9a5c60	0.30148602
172	0xbe5a60e9	-0.21326031
173	0xbf36536e	-0.71221054
174	0xbeeaf92b	-0.45893225
175	0xbf1cb48a	-0.6121298
176	0xbedf0e81	-0.43565753
177	0xbe5831ba	-0.21112719
178	0xbea1a3e4	-0.3157035
179	0xbea74e89	-0.32677105
180	0x3e38dd7f	0.18053244
181	0x3d87c85d	0.06630013
182	0xbe856a88	-0.2605784
183	0xbe6f223b	-0.23352902
184	0xbe154eb8	-0.1458081
185	0x3d9bf58a	0.07615192
186	0xbe4aaddf	-0.19792889
187	0xbe34265f	-0.17592762
188	0xbe4bd15c	-0.19904083
189	0x3eefa239	0.46803454
190	0x3dcca6c7	0.09992748
191	0xbed74032	-0.42041165
192	0x3ea4b01c	0.3216561
193	0x3e509e8c	0.20372981
194	0x3e0b4d26	0.13603649
195	0xbdc8134c	-0.097693056
196	0xbf2e9a70	-0.682044
197	0xbf09de8a	-0.5385519
198	0xbd0ee585	-0.034886856
199	0xbe38f400	-0.18061829
200	0x3ec40567	0.38285372
201	0x3e6e2aa8	0.2325846
202	0xbeae318b	-0.34022173
203	0xbea0425f	-0.31300637
204	0xbed953fb	-0.42446885
205	0xbdd18fb9	-0.10232491
206	0x3ecf443b	0.40481743
207	0xbc8c0330	-0.017091364
208	0xbd22c450	-0.039738
209	0x3e9b8ab7	0.3037927
210	0x3e1c686b	0.15274207
211	0xbd4fdb44	-0.050746217
212	0x3eed21c3	0.4631482
213	0x3f57211e	0.8403491
214	0x3efffb78	0.49996543
215	0x3f13ba43	0.5770609
216	0xbd8ff6a1	-0.070294626
217	0xbdab7732	-0.08372344
218	0xbe8f1d76	-0.27952164
219	0xbee0cc59	-0.43905905
220	0xbe117796	-0.14205775
221	0xbb09e83a	-0.0021042959
222	0xbdfe58d3	-0.124192856
223	0xbe8e8292	-0.27833992
224	0x3e922a51	0.2854791
225	0x3dfdc65c	0.1239135
226	0xbe475f45	-0.19469936
227	0x3cb07655	0.0215408
228	0x3e109b94	0.14121848
229	0xbd2db78e	-0.04241138
230	0xbeb55538	-0.3541658
231	0xbd33904f	-0.043838795
232	0xbe85b297	-0.26112816
233	0xbebed480	-0.372715
234	0xbebebed6	-0.3725497
235	0xbe905cf9	-0.28195933
236	0x3edeed22	0.43540293
237	0xbe92c57a	-0.28666288
238	0xbdeebb63	-0.11656835
239	0xbdf9ac52	-0.121910706
240	0x3ee116fa	0.43962842
241	0x3eb1d97f	0.3473625
242	0x3ef1fb1f	0.47261903
243	0xba7725a0	-0.0009427909
244	0xbd471936	-0.048608027
245	0x3bf858e6	0.007578957
246	0x3e39b1c0	0.18134212
247	0x3ebada4d	0.36494675
248	0xbe2bd17a	-0.16779128
249	0xbe3e51ca	-0.18585888
250	0x3c7b6ca0	0.015345722
251	0x3ebf3002	0.37341315
252	0xbd6eb362	-0.05827654
253	0xbf10c29d	-0.56546956
254	0xbeac0c24	-0.33603013
255	0xbbbe70e9	-0.0058118

conv6.bias f4 [32]
0	0x3dba0214	0.090824276
1	0x3d9e8b94	0.07741466
2	0xbbacdcb9	-0.0052753356
3	0xbd8f4906	-0.0699635
4	0x3d6a66f7	0.0572271
5	0xbd0cdb30	-0.03438872
6	0x3cbbd258	0.022927448
7	0x3d1757c8	0.03694895
8	0x3dd7732d	0.10520015
9	0xbd292816	-0.041297995
10	0xbd94e996	-0.072711155
11	0x3bdc79b7	0.0067283767
12	0xbdbfe798	-0.09370345
13	0x3d0c5cce	0.034268193
14	0x3cf24eab	0.029578527
15	0x3cf776a9	0.030207949
16	0xbd7cd1c7	-0.061723497
17	0x3d0f59aa	0.03499762
18	0xbd935b93	-0.07195201
19	0xbd9798a1	-0.074021585
20	0xbc3fd3f1	-0.011708246
21	0xbd510223	-0.05102743
22	0xbdf8221e	-0.12115882
23	0x3bdec061	0.0067978357
24	0xbc93554c	-0.017985009
25	0xbd742356	-0.05960401
26	0x3cd9d3a3	0.026590174
27	0xbc12568f	-0.00893177
28	0x3dbb9d79	0.09160895
29	0xbd956e5b	-0.07296439
30	0xbc812f33	-0.015769577
31	0xbbe23243	-0.0069029643

bn1.weight f4 [4]
0	0x3f9d51a6	1.2290542
1	0x3fb0880c	1.3791518
2	0x3f816278	1.0108175
3	0x3fbe38a5	1.4861037

bn1.bias f4 [4]
0	0x3eb4838b	0.3525661
1	0xbe32c15c	-0.17456573
2	0x3dc3dc12	0.095634595
3	0xbe67dd0c	-0.22642916

bn1.running_mean f4 [4]
0	0xbe4a1a57	-0.1973661
1	0x3e4d1fec	0.20031708
2	0x3e1c2a15	0.15250428
3	0xbe58ceff	-0.21172713

bn1.running_var f4 [4]
0	0x40221e4f	2.5331
1	0x40ab5368	5.3539314
2	0x3fe365cf	1.7765445
3	0x405bf44e	3.4367862

bn2.weight f4 [8]
0	0x3f867f9b	1.0507692
1	0x3f3b0c50	0.7306566
2	0x3f662b60	0.89909935
3	0x3f492572	0.7857276
4	0x3f4f5bf3	0.8099968
5	0x3f4302e0	0.7617626
6	0x3fd4df65	1.6630675
7	0x3fbc8ca4	1.473042

bn2.bias f4 [8]
0	0x3f1b1753	0.60582465
1	0x3f4a9caf	0.7914533
2	0xbf09f978	-0.53896284
3	0x3eaad128	0.333627
4	0xbee7050c	-0.45121038
5	0x3e70d70c	0.23519534
6	0x3e286ce8	0.16447794
7	0x3ea5f5ea	0.3241418

bn2.running_mean f4 [8]
0	0x3e0d595b	0.13803618
1	0xbf1c3ee4	-0.61033463
2	0xbfbdf4b7	-1.4840306
3	0xbf0a3ad9	-0.53996044
4	0xbff11f1d	-1.883762
5	0xbf5d833f	-0.8652839
6	0xc00e4a24	-2.2232752
7	0xbf95825b	-1.1680406

bn2.running_var f4 [8]
0	0x4188cfb4	17.101418
1	0x40c41fe2	6.128892
2	0x411fe97f	9.994506
3	0x40b5dd11	5.6832356
4	0x3fc7e087	1.5615395
5	0x405d2d91	3.4559062
6	0x4192b6ed	18.33932
7	0x40dea068	6.957081

bn3.weight f4 [8]
0	0x3f9f5382	1.244736
1	0x3f807976	1.0037067
2	0x3f9c0292	1.2188284
3	0x3f841057	1.0317487
4	0x3f8e67a0	1.1125374
5	0x3f9e8da0	1.238697
6	0x3fb46520	1.4093361
7	0x3f9002e6	1.1250885

bn3.bias f4 [8]
0	0xbec3e71a	-0.38262254
1	0xbe8aa1e1	-0.2707663
2	0xbf15f590	-0.58577824
3	0xbe185db1	-0.1487949
4	0xbd53f4c6	-0.051747106
5	0xbe900885	-0.281315
6	0xbeff5d9a	-0.498761
7	0xbe80d038	-0.25158858

bn3.running_mean f4 [8]
0	0xc00d2f49	-2.206011
1	0xc01c7e84	-2.445222
2	0xc063130b	-3.5480373
3	0x3d4f819c	0.050660715
4	0x3ef49ee7	0.47777483
5	0x3cb73552	0.022364292
6	0xbf725dfa	-0.94674647
7	0x401b0180	2.4219666

bn3.running_var f4 [8]
0	0x4093b8cf	4.6163096
1	0x4059a078	3.4004192
2	0x40c86f0f	6.263557
3	0x408e1625	4.440203
4	0x4102ff87	8.187385
5	0x40fcccff	7.900024
6	0x409a665b	4.8249946
7	0x404e8c32	3.2273068

bn4.weight f4 [16]
0	0x3f8dd50c	1.1080642
1	0x3fb6afc1	1.4272386
2	0x3f715312	0.9426738
3	0x3f9a87c0	1.2072678
4	0x3fb8c1be	1.4434125
5	0x3f9336ad	1.1501061
6	0x3f7a2ef9	0.97727925
7	0x3f93756b	1.1520208
8	0x3fc00c08	1.5003672
9	0x3fa214e7	1.2662629
10	0x3f8edac9	1.1160518
11	0x3f8bba63	1.0916256
12	0x3f7c1b55	0.98479205
13	0x3f8456a2	1.0338938
14	0x3f6f56c6	0.9349178
15	0x3f97ff89	1.1874858

bn4.bias f4 [16]
0	0xbe06c8d2	-0.13162544
1	0xbeee5e47	-0.46556303
2	0xbde0341b	-0.10947438
3	0xbe9988ae	-0.2998709
4	0xbdcba195	-0.09942929
5	0xbea86892	-0.3289228
6	0x3d3a3032	0.04545612
7	0xbd42efbc	-0.04759191
8	0xbf782e27	-0.9694542
9	0xbe81bb7a	-0.25338346
10	0xbf48c408	-0.7842412
11	0xbed21854	-0.41034186
12	0xbe0f5b18	-0.13999593
13	0x3de9f8fb	0.114244424
14	0x3ede2784	0.43389523
15	0x3b102146	0.0021992489

bn4.running_mean f4 [16]
0	0xbeaf2acb	-0.34212336
1	0xbf96babb	-1.1775736
2	0xbeef0abe	-0.46687883
3	0xbf0b6686	-0.54453313
4	0xbfb19456	-1.3873394
5	0xbdecaa54	-0.11555925
6	0x3e814aa0	0.25252247
7	0x3da7e59f	0.081980936
8	0xc0145c8a	-2.3181481
9	0xbf94c1bf	-1.1621627
10	0xbf8c14be	-1.094383
11	0xbf1822ec	-0.59428287
12	0x3cadfc4b	0.021238467
13	0xbf152783	-0.58263415
14	0x3fab9ac3	1.3406605
15	0xbf90a981	-1.1301728

bn4.running_var f4 [16]
0	0x409f68a2	4.9815226
1	0x41400462	12.00107
2	0x40859003	4.1738296
3	0x4159565b	13.583583
4	0x4182f103	16.367682
5	0x41117d88	9.093147
6	0x40e8ceed	7.2752595
7	0x40e9ed97	7.3102527
8	0x41620111	14.12526
9	0x4120ec76	10.05773
10	0x409f9835	4.98733
11	0x41256a8a	10.3385105
12	0x41075380	8.457886
13	0x410c4809	8.767587
14	0x410b14a6	8.692541
15	0x4126a2d7	10.414756

bn5.weight f4 [16]
0	0x3fbef172	1.4917433
1	0x3f83b85a	1.0290635
2	0x3f8ee2e0	1.1162987
3	0x3fa1badf	1.2635154
4	0x3f847f97	1.0351437
5	0x3fb9b45a	1.4508164
6	0x3f9067c2	1.1281664
7	0x3f7b3c36	0.9813875
8	0x3f9553a9	1.1666156
9	0x3f7a5e37	0.9780001
10	0x3fa68291	1.3008596
11	0x3f894bba	1.0726235
12	0x3f9fafe7	1.2475556
13	0x3facba82	1.3494418
14	0x3f963ab0	1.173666
15	0x3f8c9f03	1.0986027

bn5.bias f4 [16]
0	0xbf3f9f66	-0.748526
1	0xbef57d52	-0.47947174
2	0x3dbd402e	0.09240757
3	0xbde10781	-0.109877594
4	0xbde5a6c0	-0.11213446
5	0xbec9a94e	-0.39386982
6	0xbe27ec01	-0.16398622
7	0xbe380e8c	-0.17974299
8	0xbf40fd16	-0.7538618
9	0xbe666306	-0.22498712
10	0x3bdae71a	0.0066803815
11	0xbd9c5c62	-0.07634808
12	0xbeb32cee	-0.34995216
13	0xbe517e7e	-0.20458409
14	0xbe726505	-0.23671348
15	0xbedba6e7	-0.42900774

bn5.running_mean f4 [16]
0	0xbfb5947f	-1.4185942
1	0x3f363d62	0.7118741
2	0xc0775cb3	-3.865033
3	0xc0a1df39	-5.058499
4	0xbf16e5a9	-0.58944184
5	0xc08b8bb5	-4.360804
6	0xbde0fd02	-0.109857574
7	0x3f560b04	0.8361056
8	0xbfe01584	-1.7506566
9	0x3fee7877	1.8630513
10	0xbff720d4	-1.9306893
11	0x3f4beaaa	0.79654944
12	0xc00cfd8d	-2.2029755
13	0xc02cc102	-2.6992803
14	0xbf610cf8	-0.87910414
15	0x3f93bc7d	1.1541897

bn5.running_var f4 [16]
0	0x415c2d07	13.760993
1	0x40d1103f	6.533233
2	0x411adc55	9.678792
3	0x41853fca	16.656147
4	0x40e64846	7.1963224
5	0x412ce972	10.8069935
6	0x411ab7d3	9.669879
7	0x40d76b9d	6.7318864
8	0x40f4e23a	7.6526155
9	0x410d3ff6	8.828115
10	0x417622af	15.383468
11	0x40e12f52	7.0370264
12	0x410f12d5	8.942098
13	0x41980246	19.00111
14	0x41462431	12.383836
15	0x410abea4	8.671543

bn6.weight f4 [32]
0	0x3f9c7c65	1.2225462
1	0x3f4a6861	0.7906552
2	0x3fa1e205	1.2647101
3	0x3f9db5c2	1.2321093
4	0x3f8a1c3c	1.0789866
5	0x3fb2c273	1.3965591
6	0x3f881088	1.0630045
7	0x3f9df78a	1.2341168
8	0x3f94fc88	1.1639566
9	0x3fa5ef54	1.2963662
10	0x3f544d66	0.829306
11	0x3f89fbf5	1.0780016
12	0x3f9f59e8	1.2449312
13	0x3fbe9071	1.488783
14	0x3fb07710	1.3786335
15	0x3fa509df	1.2893637
16	0x3fa079b4	1.2537141
17	0x3fd33796	1.6501338
18	0x3fb7e47c	1.4366603
19	0x3fae73a3	1.362904
20	0x3f962d71	1.1732618
21	0x3f9f3ed8	1.2441053
22	0x3f8e71bb	1.1128458
23	0x3f8fe990	1.1243153
24	0x3f870677	1.0548848
25	0x3faff0a7	1.3745316
26	0x3f715f60	0.94286156
27	0x3f81a7a4	1.0129285
28	0x3f7db16e	0.9909886
29	0x3f8ccb9e	1.0999639
30	0x3fb52740	1.4152603
31	0x3f9eaa2b	1.2395681

bn6.bias f4 [32]
0	0xbf72d651	-0.9485827
1	0xbef7b582	-0.48380667
2	0xbf4689e8	-0.7755418
3	0xbf54b4d3	-0.83088416
4	0xbf0a560a	-0.54037535
5	0xbf470888	-0.7774739
6	0xbf19293c	-0.59828544
7	0xbf5843dd	-0.8447855
8	0xbf0e68e3	-0.55628794
9	0xbf84ca3f	-1.0374221
10	0xbf1f6d32	-0.62275994
11	0xbf4ca49f	-0.7993869
12	0xbf1c3ebb	-0.6103322
13	0xbf54baea	-0.8309771
14	0xbf4b80d4	-0.7949345
15	0xbf60f21f	-0.8786945
16	0xbf58a6ac	-0.8462932
17	0xbf5f7b42	-0.8729745
18	0xbf601145	-0.8752635
19	0xbf1d9250	-0.6155138
20	0xbf055064	-0.5207579
21	0xbf1e1515	-0.6175092
22	0xbf13b676	-0.5770029
23	0xbf39b9ac	-0.7254894
24	0xbf1670b7	-0.5876574
25	0xbf3cf971	-0.7381812
26	0xbf13bdb3	-0.57711333
27	0xbf08f23a	-0.5349461
28	0xbee747a4	-0.45171845
29	0xbf016d3d	-0.5055731
30	0xbf41b517	-0.75666946
31	0xbf278503	-0.65437335

bn6.running_mean f4 [32]
0	0xc00f746d	-2.241481
1	0xbfa0f941	-1.2576066
2	0xbf846f41	-1.0346452
3	0xc00e3648	-2.222063
4	0xc00d5489	-2.2082846
5	0xbee02da6	-0.43784827
6	0xbfd79d96	-1.6844966
7	0xc00db757	-2.2143152
8	0xc081aa9e	-4.0520773
9	0xc03412e4	-2.813653
10	0xbef1c752	-0.47222382
11	0x3ee9c2db	0.45656475
12	0xbfa6532d	-1.2994133
13	0xbfeb99e8	-1.8406343
14	0xc03e90e7	-2.9775941
15	0xc022dae7	-2.5446107
16	0xbfa1af3c	-1.2631602
17	0xbfe9c3ca	-1.8262875
18	0x3e49f086	0.19720659
19	0xc01cd8cd	-2.4507325
20	0xc018e4e3	-2.3889701
21	0xc05de5eb	-3.467158
22	0xbf919ed5	-1.1376597
23	0xbffbf1bd	-1.9683148
24	0x3f7de7c7	0.9918179
25	0xc057537f	-3.3644712
26	0xbf537bb8	-0.82610655
27	0xbe07273c	-0.1319856
28	0xbf953524	-1.1656842
29	0xbfd61b89	-1.6727153
30	0xc0519cc9	-3.2751944
31	0xc080df3c	-4.0272503

bn6.running_var f4 [32]
0	0x41102c06	9.010748
1	0x40d0d234	6.5256596
2	0x4120b85f	10.045012
3	0x40fd4621	7.9148107
4	0x412d8bab	10.846599
5	0x41316346	11.086737
6	0x40f2564a	7.5730333
7	0x410697e0	8.412079
8	0x410da69a	8.853174
9	0x410dfef4	8.874744
10	0x40d946c5	6.789889
11	0x40fe8bd6	7.95457
12	0x410b7393	8.715716
13	0x417f6830	15.962936
14	0x41180ce5	9.503148
15	0x4116c0d3	9.422076
16	0x40e29785	7.080996
17	0x4138e167	11.55503
18	0x411bed61	9.745454
19	0x4123627f	10.211547
20	0x41617f38	14.093559
21	0x413a6396	11.649313
22	0x4127ae0b	10.479991
23	0x4105baef	8.358138
24	0x40ec5ddb	7.386457
25	0x41731cfc	15.194576
26	0x411f4c16	9.956076
27	0x41049970	8.28746
28	0x4156623f	13.398986
29	0x411a0bca	9.627878
30	0x413ca0c4	11.789249
31	0x413e2d9e	11.886137

conv1d_1.weight f4 [4, 8, 1]
0	0xbe381c7c	-0.17979616
1	0x3f2b4900	0.66908264
2	0xbdc3d1fb	-0.09561535
3	0x3e7c6399	0.24647368
4	0x3f2edde0	0.68307304
5	0x3e423ef2	0.18969324
6	0xbe8aa71d	-0.27080622
7	0x3f373009	0.7155767
8	0xbf05c7b8	-0.5225787
9	0xbe6c9f59	-0.23107661
10	0xbdd67189	-0.10470874
11	0xbe5b7b5a	-0.21433774
12	0xbe71723f	-0.23578738
13	0xbf517044	-0.8181193
14	0xbf1a8b4f	-0.6036882
15	0x3f179b93	0.5922176
16	0x3d686781	0.056739334
17	0xbf91e40f	-1.1397723
18	0xbecf5b71	-0.40499452
19	0xbeb6195a	-0.35566217
20	0xbe59c1fc	-0.21265405
21	0x3e06fe1f	0.13182877
22	0x3f980424	1.1876264
23	0xbd5c7672	-0.053823896
24	0x3f6b8619	0.9200149
25	0x3d794061	0.060852412
26	0x3f0047a3	0.5010931
27	0x3ee8b11e	0.4544763
28	0xbc97c994	-0.018528737
29	0xbdc49c19	-0.09600086
30	0xbf43d367	-0.7649445
31	0xbf26eaa7	-0.652018

conv1d_1.bias f4 [4]
0	0xbe1faff8	-0.1559447
1	0x3ef4ab1b	0.47786793
2	0xbed5145c	-0.41617095
3	0x3dc0ae58	0.094082534

bn1d_1.weight f4 [4]
0	0x3f73682b	0.9508082
1	0x3fa1c748	1.2638941
2	0x3f906b65	1.1282774
3	0x3f98e6d6	1.1945446

bn1d_1.bias f4 [4]
0	0x3e91a46a	0.2844575
1	0x3f206b5f	0.62663835
2	0x3d218041	0.039428953
3	0x3f134949	0.575337

bn1d_1.running_mean f4 [4]
0	0x3faef5a6	1.3668716
1	0xbf714e4f	-0.94260114
2	0xbf45baa0	-0.7723789
3	0xbd9727aa	-0.07380612

bn1d_1.running_var f4 [4]
0	0x40421237	3.0323617
1	0x401c34a3	2.4407127
2	0x403f6a6a	2.99087
3	0x40435b02	3.0524297

conv1d_2.weight f4 [8, 16, 1]
0	0x3e0b361c	0.1359486
1	0xbe2033c7	-0.15644751
2	0x3e68d033	0.22735672
3	0xbe219ac8	-0.157817
4	0x3f92ba78	1.1463156
5	0x3e1bdd4a	0.15221134
6	0xbf00113e	-0.5002631
7	0xbe5a42a1	-0.2131448
8	0xbe0914d6	-0.13386855
9	0x3e1d0a4e	0.15335962
10	0x3f177097	0.59156173
11	0x3f154186	0.58303106
12	0x3eac2b6a	0.33626872
13	0x3e261e81	0.16222574
14	0xbe5a6590	-0.21327806
15	0x3f54e409	0.83160454
16	0x3da8892c	0.082292885
17	0xbda31342	-0.079626575
18	0xbe929fd4	-0.28637564
19	0x3f414953	0.7550251
20	0xbf179dc9	-0.59225136
21	0xbe9fee31	-0.31236413
22	0xbef086cf	-0.4697785
23	0xbe397775	-0.18111975
24	0xbcd6f432	-0.026239488
25	0x3eb7bcb9	0.3588617
26	0x3f57780a	0.8416754
27	0x3e48ba78	0.19602382
28	0xbe065c2f	-0.13121103
29	0x3e9f7593	0.3114439
30	0x3f4fc67a	0.81162226
31	0x3d5186fc	0.05115412
32	0x3f43deba	0.7651173
33	0x3eee23b3	0.4651161
34	0xbe8125c9	-0.2522414
35	0xbe9af523	-0.3026515
36	0x3cbbe0a1	0.02293426
37	0xbe858549	-0.2607825
38	0xbe78ab63	-0.24284129
39	0x3e16d272	0.14728716
40	0xbef9487e	-0.4868812
41	0xbeb9d5d0	-0.36295938
42	0x3f0bb471	0.54572207
43	0xbf456ce3	-0.7711927
44	0xbd564e27	-0.052320626
45	0x3ef16c4f	0.47152945
46	0xbed99d5c	-0.42502868
47	0x3ef82b22	0.48470408
48	0xbed43fe2	-0.4145499
49	0xbe144148	-0.14478028
50	0x3f2ad863	0.6673643
51	0x3f405c6b	0.7514102
52	0xbe44537e	-0.19172475
53	0x3f69ff47	0.9140515
54	0x3eea3a57	0.45747635
55	0x3eedb5f5	0.46427885
56	0xbf108aca	-0.56461775
57	0x3d1a7200	0.037706375
58	0x3ea980b3	0.33106002
59	0xbeec7b56	-0.46187848
60	0xbe1c80ff	-0.15283583
61	0x3eaa0021	0.33203223
62	0xbe3178e0	-0.17331266
63	0x3ea05f8d	0.313229
64	0xbddab863	-0.106797
65	0x3f8ed4c7	1.1158684
66	0x3e384b2a	0.17997423
67	0xbe3f900c	-0.18707293
68	0xbe9274c8	-0.28604722
69	0xbddf03ad	-0.10889373
70	0xbe2c7d25	-0.16844614
71	0x3edf2632	0.43583828
72	0x3f9f9331	1.2466794
73	0x3d13e752	0.036109276
74	0x3df35adf	0.11882567
75	0x3da81447	0.082069926
76	0xbd479155	-0.048722584
77	0xbe6597da	-0.22421208
78	0xbdd6a18b	-0.104800306
79	0x3ec55693	0.38542613
80	0xbf1015a4	-0.5628302
81	0xbf1c380f	-0.6102304
82	0x3eaa7d44	0.33298695
83	0x3e1d52c8	0.1536361
84	0x3ecb27d8	0.39678836
85	0xbf1da2a2	-0.6157628
86	0xbecaa09f	-0.3957567
87	0xbe91d5c2	-0.28483397
88	0xbee3f3e6	-0.44522017
89	0x3ee5bb29	0.44869354
90	0xbe832e22	-0.25621134
91	0xbe983a15	-0.29731813
92	0xbf1fb9c7	-0.6239285
93	0x3f30be46	0.69040334
94	0xbd78ec88	-0.06077245
95	0x3c45935e	0.012059061
96	0xbeeeae26	-0.4661724
97	0x3eac1f63	0.33617696
98	0xbf881067	-1.0630006
99	0xbdbd322f	-0.092380874
100	0xbef379c7	-0.47553846
101	0xbe7e5148	-0.24835694
102	0xbe2a01e2	-0.1660228
103	0xbf8f886b	-1.1213506
104	0x3d687d77	0.056760278
105	0xbf0b499a	-0.5440918
106	0x3dc42097	0.095765285
107	0xbe208e1f	-0.15679215
108	0xbf243945	-0.64149886
109	0xbe4223cb	-0.18958966
110	0x3e5714d8	0.21004045
111	0xbee9de11	-0.45677236
112	0x3f0c3b97	0.54778427
113	0xbe84fb3b	-0.25972924
114	0xbe2e853f	-0.17043017
115	0x3e839a7c	0.257038
116	0xbea9fd7d	-0.3320121
117	0xbeb55157	-0.3541362
118	0xbed6d37e	-0.4195823
119	0x3f206c11	0.62664896
120	0xbec2f749	-0.3807929
121	0x3f73a77d	0.9517744
122	0x3a16ccf2	0.0005752585
123	0xbeb77a4a	-0.35835487
124	0xbf19c576	-0.60066926
125	0xbee47957	-0.44623825
126	0xbec6b7ce	-0.38812107
127	0x3e5698d1	0.20956732

conv1d_2.bias f4 [8]
0	0x3bb31465	0.0054650777
1	0x3e20af77	0.15691935
2	0x3e09dacd	0.13462372
3	0xbca2f804	-0.019893654
4	0xbe92ff2a	-0.287103
5	0xbd0eaf23	-0.034834992
6	0xbd249336	-0.040179454
7	0xbe9b407c	-0.30322635

bn1d_2.weight f4 [8]
0	0x3f842c0f	1.0325946
1	0x3f9abd20	1.2088966
2	0x3f6e5bbf	0.93108743
3	0x3f9f4d4d	1.2445465
4	0x3f87bf9d	1.0605351
5	0x3fae99b9	1.3640662
6	0x3f8b5b65	1.0887266
7	0x3f7fa43d	0.9985998

bn1d_2.bias f4 [8]
0	0x3e9b9b1b	0.30391774
1	0x3f171e44	0.59030557
2	0x3e8dd2f4	0.27700007
3	0x3f0aca63	0.5421507
4	0x3e0c2f5a	0.13689938
5	0x3cd06b7e	0.025441881
6	0x3ea96dc2	0.3309155
7	0x3ea1fbc3	0.3163739

bn1d_2.running_mean f4 [8]
0	0x3fe9355b	1.8219408
1	0x3f573006	0.8405765
2	0x3e08a7bd	0.13345237
3	0x3fb9c53b	1.4513315
4	0x3f275558	0.653646
5	0xbf67baa7	-0.90519184
6	0xc0587f46	-3.3827682
7	0xbf618644	-0.880955

bn1d_2.running_var f4 [8]
0	0x408a6b85	4.325625
1	0x40899df5	4.300532
2	0x404e1122	3.2197957
3	0x40d55003	6.666017
4	0x40385ffe	2.880859
5	0x408c0e67	4.376758
6	0x40f93520	7.787735
7	0x4050382e	3.253429
