best_model.pth (torch, 53218 bytes, 50 tensors)

conv1.weight f4 [4, 1, 3, 3]
000000 07 a9 2f 3e 43 b5 26 3f 40 2e bc be 95 30 5c be
       0.17154323 0.65120333 -0.36754036 -0.21502908
000010 3d 02 f6 3e a6 76 4d 3f 44 48 db be 75 e3 9b be
       0.48048583 0.8025917 -0.42828572 -0.30446973
000020 34 f8 05 3e 82 3b c6 be 2c 36 1c bf a9 82 48 3d
       0.13082963 -0.38717276 -0.6102016 0.048952732
000030 70 12 3c be 29 5e d3 be d4 cc fc be 02 18 88 3e
       -0.18366408 -0.41282776 -0.4937502 0.26580817
000040 b6 0f 4c 3f 53 95 96 3e 28 4e 05 bd 76 04 46 bf
       0.79711473 0.294108 -0.03254524 -0.77350557
000050 30 05 b4 3d a1 8c a8 be b9 f6 5a 3e 07 41 7b 3f
       0.08790052 -0.3291979 0.2138318 0.981461
000060 3c 89 61 3e 48 ea 31 be e8 be 61 3e fe d9 ec 3e
       0.22025007 -0.17374527 0.22045481 0.46260065
000070 32 69 e4 3e e5 2a c6 3e 42 b5 71 be 9e 74 5e bf
       0.44611508 0.387046 -0.236043 -0.86896694
000080 88 39 dd 3d 95 b1 23 bf ff d7 0f bf bc 2d 4a 3f
       0.10801989 -0.63942844 -0.5618896 0.78976035

conv1.bias f4 [4]
000000 c5 ca 29 bd 64 d7 30 3d 99 13 8a 3e d4 55 85 be
       -0.04145314 0.043174163 0.26968077 -0.26042044

conv2.weight f4 [8, 4, 3, 3]
000000 3d 05 97 3c e7 59 7c 3b 71 88 f4 39 b8 0b ed bc
       0.018435115 0.0038505734 0.00046640963 -0.028936252
000010 f6 be 79 be b1 01 4c 3d 92 05 98 3e bc f2 99 3d
       -0.24389252 0.0498063 0.2969175 0.07517001
000020 70 0a 9d 3e e1 95 e1 3d c4 94 9a 3d e8 9d 15 bd
       0.30672026 0.11014915 0.07547906 -0.036527544
000030 8e 7c 03 bf 7d 80 72 bf d4 ec 76 bf 79 72 2b bf
       -0.5136193 -0.9472731 -0.9645512 -0.66971546
000040 6a 6d 65 bf dc c0 5d bf 3b a8 2f 3e ec 66 b7 be
       -0.8962008 -0.86622405 0.17154019 -0.3582071
000050 81 63 27 3f 34 cc be 3e d8 54 16 be 24 a3 9e 3e
       0.65386206 0.3726517 -0.14680803 0.3098384
000060 03 bf 96 3d f1 87 2f bf 78 92 c7 bb 80 78 5c be
       0.07360651 -0.68566805 -0.0060904585 -0.21530342
000070 1e 50 7f bf 55 6f 87 bd 0f 51 ae bd 25 85 49 bf
       -0.99731624 -0.06613032 -0.085115544 -0.7871879
000080 3a 00 b6 3d a7 72 b3 3e d0 3b a2 3d 10 7e 40 3e
       0.08886762 0.3504841 0.079215646 0.18798089
000090 89 df 2d be 91 4c 07 bf 3e e8 04 3e 1e 28 b9 3d
       -0.16979803 -0.52851206 0.12979218 0.09040855
0000a0 a4 be e0 be c0 2e 51 bf 0d d3 6c 3f 4f 1c 4c 3e
       -0.43895447 -0.8171196 0.9250954 0.19932674
0000b0 13 51 f2 be be 37 c9 bd 5e 3c bc bc c6 8b d1 be
       -0.4732748 -0.09825085 -0.022978004 -0.4092695
0000c0 dc e6 8f be 22 86 b3 bd 93 e6 85 3e b8 bd 79 be
       -0.2810582 -0.08765818 0.26152477 -0.24388778
0000d0 ec 41 ad 3e 8b 43 7e 3f 02 87 8b bd c7 0c 91 be
       0.33839357 0.9932181 -0.0681286 -0.2833006
0000e0 8a 79 d1 3e 6a 50 ef bd 61 5a fd bd 57 8e cc 3e
       0.4091304 -0.1168526 -0.12370754 0.39952347
0000f0 97 c1 e5 3d 90 cb 73 bd 74 a9 3a 3c 55 c3 40 bf
       0.11218565 -0.059520304 0.01139294 -0.75298053
000100 73 64 18 bf 70 8a d6 3e 8e e6 08 bf f3 b7 8c bf
       -0.59528273 0.41902494 -0.534768 -1.0993637
000110 6e e7 e4 bd fd c6 08 bd 16 7d c5 be 2f 2f ae be
       -0.11176954 -0.033392895 -0.38571995 -0.34020373
000120 60 3b a4 3e 25 3d 68 bd f4 bd 2b 3c a1 31 67 bd
       0.3207655 -0.056698937 0.0104823 -0.056443814
000130 80 10 b0 be fa 61 4d be 3e 1a 9e bd 53 04 b6 be
       -0.34387589 -0.20056906 -0.07719849 -0.35550174
000140 d0 50 84 3e fb 52 5d be 83 93 03 be 82 97 12 3d
       0.25842905 -0.21613686 -0.1284924 0.03578902
000150 8f ea 92 3e 8f 86 47 be 31 38 41 bf 0e 1e 1f be
       0.2869458 -0.19484924 -0.75476366 -0.15538809
000160 c1 60 06 bf c1 0a 34 bf b6 b1 a4 bd aa 11 03 3e
       -0.52491385 -0.7032891 -0.08041708 0.12799707
000170 74 8b 06 bc f3 fd 31 3d 42 f8 0a 3f 04 20 e2 3d
       -0.008211959 0.043455075 0.5428506 0.11041263
000180 f7 6c ef 3e b0 ec 08 bf c4 25 f3 be 41 17 8f 3e
       0.4676282 -0.53486156 -0.4748975 0.2794743
000190 ed 68 ec bc fe d8 60 bf c5 69 bc be 52 b5 99 bf
       -0.028858626 -0.87831104 -0.36799446 -1.200846
0001a0 cd 24 40 bf 25 6d 08 bf 8d 2f 28 bf 93 ab 7f 3f
       -0.75056154 -0.5329154 -0.65697557 0.99871176
0001b0 af 68 24 bf 43 95 34 bf dd cf 32 bf 60 3f cf bd
       -0.64222234 -0.70540255 -0.69848424 -0.1011951
0001c0 de 5f c5 3c 9f 70 4b bf dd 2b 8b 3e 35 20 7c 3f
       0.024093565 -0.7946872 0.27181903 0.98486644
0001d0 f2 e9 96 3e da c3 08 be 6a 3a 34 be 06 61 ad bd
       0.2947536 -0.13355961 -0.17600408 -0.084657714
0001e0 34 5a bb 3e 79 da 57 be c0 94 83 3e ae 8b c4 3e
       0.36592257 -0.21079434 0.25699425 0.38387817
0001f0 22 32 ee be 98 05 9a 3d b4 0e 0d be 59 ee 1c bf
       -0.46522623 0.07520598 -0.1377514 -0.6130119
000200 87 b2 09 bf 7d 1b 14 3e 60 57 a4 3e 16 4c 3b 3e
       -0.53788036 0.14463611 0.32097912 0.18290743
000210 5f 9c 3c be 57 30 97 3e 5a 00 ff 3c 16 b0 f4 be
       -0.18419026 0.29529068 0.031128097 -0.47790593
000220 fd 8e ef 3d 0c b4 5b 3e 02 8e 69 bf b9 21 fa be
       0.11697195 0.21455401 -0.9123231 -0.48853853
000230 e3 84 51 bf a0 cc 09 bf a2 22 67 3e ac 0c 9a be
       -0.81843394 -0.5382786 0.22571805 -0.30087793
000240 64 ed ac 3d 7c 11 65 3e bb 8c 9b 3e 82 b8 e7 bd
       0.08443716 0.22369951 0.30380806 -0.11314489
000250 d3 99 92 3e b9 d2 07 3f 43 af 00 bf 7f c8 ae bc
       0.28632984 0.5305591 -0.5026743 -0.021335838
000260 d5 a4 13 3e 41 84 7b 3e 18 04 c2 3d ff 29 11 3d
       0.14418347 0.2456217 0.09473437 0.03544044
000270 16 48 c1 3d c0 d6 c2 bd 64 d4 32 be 03 e7 f5 3e
       0.094375774 -0.095136166 -0.17463833 0.4802781
000280 83 e5 bc 3e 94 0b 37 3e 3d bf 87 3c c8 73 81 3e
       0.36893854 0.1787551 0.016570682 0.25283647
000290 bb e9 78 3e 3f 0c f4 3d da 43 03 3f 0a 1a 8f 3e
       0.24307911 0.11916398 0.5127541 0.27949554
0002a0 e8 9b f4 3d ed 6b fa 3e 56 70 a0 3e 4e f5 d9 3e
       0.11943799 0.48910466 0.31335706 0.42569965
0002b0 36 61 fd 3e fa 3f 33 3f 1b 4a d3 3e 54 0a 40 3e
       0.4948823 0.70019495 0.41267475 0.1875394
0002c0 06 1e b0 3e e4 b5 13 3f 7a c0 08 3e c4 c6 46 3d
       0.34397906 0.5769942 0.13354674 0.0485294
0002d0 e6 cd 3e 3e 7c 3d d0 be 81 7b 26 bf 73 df 74 3e
       0.18633232 -0.4067191 -0.650322 0.23913364
0002e0 8a 54 3e be 3a c6 4d be 3e 36 b9 3e 29 73 1a 3f
       -0.18586937 -0.20095149 0.36174196 0.6033197
0002f0 9e 2e 8c bd 91 bb 0e bf 05 c4 07 bf 2d c8 96 be
       -0.06844829 -0.55754954 -0.5303348 -0.29449597
000300 46 60 a0 be f6 50 a6 be e8 3b 06 3e 1d da f3 be
       -0.3132345 -0.32483643 0.1310879 -0.47627345
000310 15 4e 1a bf 67 e2 61 be 3f fa cc 3e fb 15 ef be
       -0.60275394 -0.22059022 0.40034673 -0.46696457
000320 cf bb 0d bf 5c 39 ea 3e e9 00 22 bf af 93 b9 3c
       -0.553647 0.45746887 -0.6328264 0.022653429
000330 73 d0 e2 3e b0 e8 88 3e c8 d5 b5 3e e9 a7 38 3e
       0.4429966 0.26740026 0.35514665 0.18032803
000340 c1 6f 84 bf c1 e1 ae be bd 51 b2 3e f1 48 00 bf
       -1.0346605 -0.34156612 0.34827986 -0.501113
000350 58 f2 4e be 0f 45 44 bd d6 f5 52 be fe 83 22 bf
       -0.20209634 -0.047917422 -0.20601591 -0.63482654
000360 a8 7f 41 3f 6a 2b fb bc 26 12 31 bf 14 86 43 3e
       0.7558541 -0.03066035 -0.6916832 0.19094115
000370 47 7f e1 be 57 22 54 bf c5 88 e9 3d 1a 39 2b be
       -0.44042417 -0.828649 0.1140304 -0.16721001
000380 19 12 27 bf 2e f0 17 be d9 23 97 3e be 51 7f 3e
       -0.6526199 -0.14837715 0.29519537 0.24933526
000390 49 d5 ef be d3 cd c1 bd 12 aa d1 be 8a 42 89 bd
       -0.4684241 -0.09463086 -0.40950066 -0.067021444
0003a0 2c b5 dd bd 84 7f 06 3e a3 ba 77 be ac d1 e5 be
       -0.108255714 0.13134581 -0.2419229 -0.4488653
0003b0 48 ee 9c be c9 82 34 bd da 1b cb be 3e 8a be be
       -0.30650544 -0.04407004 -0.39669687 -0.37214845
0003c0 fc f5 b8 be 9a c4 2a bf af 93 b8 be c6 ee a2 be
       -0.3612517 -0.6670624 -0.36050174 -0.31822795
0003d0 24 e6 5c be 85 42 85 be de 3c b2 be 41 b3 95 be
       -0.21572167 -0.26027313 -0.34812063 -0.29238322
0003e0 55 9f 1f bd b5 bb 1c bf f2 e8 f3 be d4 5f 60 3e
       -0.03897031 -0.6122392 -0.4763866 0.21911556
0003f0 7b 74 c9 bd 29 52 9e 3d 43 f1 9b 39 18 a1 d2 bd
       -0.0983667 0.077305146 0.00029743658 -0.102846324

conv2.bias f4 [8]
000000 9e 56 05 3e 29 f3 4f bd af 19 9a 3c 8d a8 1b 3d
       0.13021323 -0.050769005 0.018811075 0.03800254
000010 29 49 5a 3e 9c 19 12 3e 61 e5 5f 3e 72 14 37 be
       0.21316971 0.14267582 0.21864845 -0.17878893

conv3.weight f4 [8, 4, 3, 3]
000000 10 94 87 bf e2 b7 44 bf 29 42 df be 05 fb 7e 3c
       -1.059206 -0.7684308 -0.43605164 0.015562777
000010 42 e4 3f bf 41 e6 1d be 1d 98 15 be 09 20 57 be
       -0.7495767 -0.15419866 -0.14608808 -0.21008314
000020 b4 23 12 3f 6d 2a c3 be df 5a 40 be 77 ab 2e 3e
       0.5708573 -0.38118306 -0.18784665 0.17057596
000030 42 dd 7f be 16 d3 e9 be 19 97 29 be dc 8a ba be
       -0.24986747 -0.45668858 -0.16561545 -0.36434066
000040 64 3a 1e bf 8f 92 68 be c3 1c 1e 3f c4 8d 85 be
       -0.6180785 -0.22712158 0.61762637 -0.2608472
000050 16 63 d9 bd 2d 2d 30 3f 47 0c e6 3d 87 9a dd 3a
       -0.10614602 0.6881893 0.112328105 0.0016907015
000060 a3 dd dd be 10 39 6e bc 07 22 1b 3e de 07 44 be
       -0.43333158 -0.014539972 0.15149699 -0.19143626
000070 d9 04 54 be 2e 77 23 3f e0 4b ad 3c bd 36 83 3d
       -0.20704974 0.6385373 0.021154344 0.06406925
000080 a9 04 7c be 51 56 19 3f a1 d8 b9 3e 75 f7 9a 3d
       -0.24611153 0.59897333 0.36298087 0.0756673
000090 93 b6 43 3d 89 b3 88 bd 55 c9 da bd ba 2b 15 bf
       0.04778154 -0.066748686 -0.10682932 -0.58269846
0000a0 df 1f d2 be 5c de 98 be b9 b8 61 bd 73 03 e8 3e
       -0.4103994 -0.29857147 -0.055107806 0.45315132
0000b0 52 e8 04 3f aa 1e 7b 3e 42 13 24 3e 2f f2 28 3f
       0.5191699 0.24523416 0.16022971 0.6599454
0000c0 2d 54 a8 3e 63 5e fa 3e fc a8 66 3d 4e f2 ef be
       0.3287672 0.48900136 0.0563135 -0.4686455
0000d0 00 68 57 bf c1 5f 6f be 8d 06 4f be 0f ee 16 be
       -0.84143066 -0.23376371 -0.20217343 -0.1473925
0000e0 31 9d 07 be a8 f8 9b bd d5 13 1f 3e 5f 6b b6 be
       -0.13243558 -0.07615787 0.15534909 -0.35628793
0000f0 ad 09 fa 3e 45 d2 aa 3e be 56 82 3e 74 56 08 3f
       0.48835507 0.33363548 0.25456804 0.53256917
000100 da 02 03 3e 12 8a a4 bd 79 3c 21 3c 84 00 75 be
       0.12794057 -0.08034147 0.009841078 -0.23925978
000110 ff dd de be 4a 34 81 bf b8 0f 1c bf 70 39 a7 be
       -0.43528745 -1.0094082 -0.60961485 -0.3266101
000120 eb f9 c5 3c 95 76 3f 3e ae ff df bd ed e5 65 be
       0.024167022 0.18697579 -0.10937439 -0.22450991
000130 6e f6 b3 bd 94 8d fe 3e df 9b 07 3f 06 c5 ff 3e
       -0.08787237 0.4971739 0.52972215 0.49955004
000140 67 27 89 3e e6 12 3d be 56 90 0e 3f c3 ca ba 3e
       0.26787874 -0.1846424 0.5568899 0.3648282
000150 f0 76 b2 3e 1c dd 98 be 22 44 c8 be e9 07 d4 3e
       0.34856367 -0.29856193 -0.3911448 0.41412285
000160 5b d8 d8 3e 52 30 21 3f 69 94 23 3f 3c df cf 3e
       0.42352566 0.62964356 0.6389833 0.40600002
000170 b2 4a c7 bd dc 15 e1 3d 65 7c 45 3d 66 51 19 3e
       -0.09731044 0.109904975 0.048214335 0.14972457
000180 db cf 52 be 9b 49 f1 3d c3 f0 03 bd 97 ab 59 3d
       -0.20587103 0.11781617 -0.03221203 0.053142156
000190 cf d8 ff 3c 72 e9 7c 3e d1 00 d9 be 0f ab 8f bf
       0.031231312 0.24698427 -0.42383435 -1.1224078
0001a0 3d 89 ee be e5 0d 20 bf d3 80 db be 6f ea 18 be
       -0.4658908 -0.625212 -0.42871723 -0.1493318
0001b0 40 ee e2 3e f0 3d 89 be f0 d9 81 bd 5f ea b7 3d
       0.44322395 -0.26805067 -0.063403964 0.089802496
0001c0 8c e1 f9 bd 93 3e 2e 3f e5 0f 1b bf 96 56 1e bd
       -0.12201223 0.6806423 -0.6057113 -0.038656794
0001d0 e8 4b 02 3f 03 fc 06 3e 34 ad 02 be 8c 9f 2b bf
       0.50897074 0.13182072 -0.12761384 -0.67040324
0001e0 c9 af 08 3f d3 96 97 be 9b 69 d9 be a1 fd 28 3e
       0.53393227 -0.29607257 -0.42463383 0.16503002
0001f0 89 9b b5 be f1 0c 3a 3f 8b 35 c0 be dd 9b 3e bf
       -0.35470226 0.72675997 -0.3754085 -0.7445658
000200 d2 72 d5 be c9 db 15 bf 04 b1 ea be bc 75 3a 3d
       -0.41689163 -0.5853849 -0.45838177 0.045522436
000210 f0 ce ee be 6a d4 c5 bc e6 a6 1d be 11 68 10 3e
       -0.46642256 -0.024149138 -0.15395698 0.14102198
000220 8d 9c 47 3e f4 5e a9 be 41 53 5d be 3e 6b c4 be
       0.19493313 -0.33080256 -0.2161379 -0.3836307
000230 60 b9 17 bf 29 4d 31 bf 1d 09 35 bf a3 43 2a be
       -0.59267235 -0.6925836 -0.7071703 -0.16627364
000240 71 87 26 3e 45 ad ce be c0 d8 e4 be 9d 2d 9d bd
       0.16262604 -0.4036657 -0.44696617 -0.07674716
000250 64 a5 2a bf fb b5 4d bf d4 64 f6 3d 72 71 2e 3e
       -0.66658616 -0.80355805 0.1203095 0.17035463
000260 a7 e0 a8 bc ca f6 5b 3e 82 f2 84 3d 0f 8e 32 be
       -0.020614935 0.21480861 0.06491567 -0.17437004
000270 f3 47 15 3f 06 3d c0 3c 24 b7 4f be 85 a5 2e 3f
       0.5831291 0.023466598 -0.20284706 0.6822131
000280 c2 84 97 3e de ce 67 3e cd 9e cf 3e b4 c4 7e 3f
       0.29593474 0.22637507 0.40550843 0.99518895
000290 41 7d 16 3e 0c 87 11 3f 1d c3 2b 3f 3f cf a0 3e
       0.14696218 0.5684669 0.67094594 0.31408116
0002a0 05 4f b2 3e da bb 02 bd 2b b1 b9 3e 2e 5d a2 3c
       0.34825912 -0.03191743 0.3626798 0.019819822
0002b0 b4 69 ca 3d 4a f1 f3 be de ea 26 3e d0 ac 20 3e
       0.098834425 -0.47645026 0.16300532 0.15690923
0002c0 df c6 8a 3e 0a 72 3c 3e 5b 36 53 3c fc 6a 68 3e
       0.27104852 0.18402877 0.012891377 0.22697061
0002d0 cc b4 50 3d 37 45 9f 3e d2 0b fe 3e 3c d7 ee be
       0.05095367 0.31107494 0.49618393 -0.46648586
0002e0 14 0b 83 bd fe b3 ee bd 09 53 ab be bb 2e ac be
       -0.06398597 -0.116554245 -0.33461788 -0.33629403
0002f0 c9 9e 96 be ba 9a d5 3e 56 db c9 3e 4c 1a 05 3f
       -0.29418018 0.4171961 0.39425153 0.5199325
000300 f4 68 86 3e 54 d3 0c 3f 29 ee 2c 3f d9 fc 49 bf
       0.26251948 0.5500996 0.67550904 -0.7890144
000310 3e 95 d7 be 3d 47 fd bd b8 ee 0c 3f b7 37 ab 3e
       -0.4210605 -0.12367103 0.55051756 0.33440945
000320 0a a2 9d 3d 94 b7 d0 be ed 55 e0 bd 62 56 9c be
       0.07696922 -0.4076506 -0.10953889 -0.30534655
000330 ee 6e ca 3d d1 bb c2 3b 71 ad 1a bf 34 f6 80 3e
       0.098844394 0.0059427996 -0.604209 0.25187838
000340 9a 2b 99 3e b9 3d ed 3d 86 bc 4f be bf d3 8e be
       0.29916078 0.11584038 -0.2028676 -0.27895924
000350 95 3a 96 3d 0b 56 a0 3e 31 b9 7b 3e 9c cd 42 be
       0.073353924 0.31315646 0.24582364 -0.19023746
000360 9c 88 ac 3e ac 8c 95 bd ef c1 76 3d 55 a2 16 bf
       0.33697975 -0.07302222 0.060243543 -0.5884145
000370 31 42 48 bf 51 5c 83 bf 5d 3b 89 3d d7 c5 eb 3e
       -0.78226 -1.0262548 0.06700776 0.46049377
000380 25 65 0a bf fd 8e c9 3e 6c 7b 65 3d 24 61 a6 3e
       -0.54060584 0.39366904 0.056025907 0.32495987
000390 d1 73 93 3e 00 4f a4 be f0 27 2d bd 4b 72 3c 3f
       0.28799298 -0.32091522 -0.042274415 0.736119
0003a0 e7 2b f4 3d 15 a6 e4 bd b7 d3 b7 3c ea 55 92 be
       0.11922436 -0.1116449 0.02243982 -0.28581172
0003b0 8e cd ad 3d e2 37 61 bd c4 9a a6 3e f7 e7 87 3e
       0.08486472 -0.054984935 0.32539952 0.26544163
0003c0 2b e6 a9 3e d2 a5 ba 3e bc 20 67 3f 57 7a 88 3b
       0.33183417 0.36454636 0.90284324 0.0041649747
0003d0 9f af 9d 3e c8 de c4 3d 7b 35 de be a8 5f b9 bf
       0.3079805 0.09612805 -0.43400177 -1.4482317
0003e0 ab a7 80 bf 67 f4 ab be a5 e9 31 be b7 b7 0a 3e
       -1.0051168 -0.33584902 -0.17374285 0.13546644
0003f0 7c 41 4b 3e d4 de bf 3e d4 b1 40 3e d4 33 3d bd
       0.19849199 0.37474692 0.18817836 -0.046192005

conv3.bias f4 [8]
000000 c9 96 06 3d 41 b5 35 be 75 a4 d6 bc a9 8f 1a be
       0.032858644 -0.17744924 -0.026201466 -0.15093865
000010 d5 a2 d3 bd 9b 08 b0 3d 21 e5 80 be 35 30 11 3c
       -0.10333792 0.08595391 -0.2517481 0.008861591

conv4.weight f4 [16, 8, 3, 3]
000000 d3 86 ab bd 31 7a 8d be 1b 69 d9 bd 04 2c 0c bf
       -0.08375325 -0.27632287 -0.106157504 -0.5475466
000010 1f 84 22 be 97 ea 22 bd ea 2b a7 be 45 28 50 3e
       -0.15870713 -0.039774504 -0.3265069 0.20327862
000020 d4 94 24 3e 66 db 47 be c7 29 1f 3e a9 2f 4e be
       0.16072398 -0.19517288 0.1554328 -0.20135368
000030 4a 6e 90 be 07 ef 58 3e a7 74 2d 3e 60 11 f6 3e
       -0.28209144 0.21184932 0.1693903 0.4806013
000040 8a fc 0a 3e 5d f7 2f be 0d 07 63 bd 55 b9 a5 bd
       0.13572899 -0.17184205 -0.055426646 -0.0809199
000050 94 c0 22 be cf 06 1b be a5 17 19 be 94 c6 87 3e
       -0.15893775 -0.15139316 -0.14950426 0.2651869
000060 1d a3 30 3e be ba 10 3f d4 91 94 3f 8b 54 4c 3f
       0.17249723 0.56534946 1.1607003 0.798165
000070 8d b0 f8 3e 45 bd 43 3e 41 8b 8c 3e 71 38 2a 3f
       0.48572198 0.1911517 0.27449992 0.6649237
000080 3e 33 b6 3e 3d c0 7d 3f 52 22 18 3f 42 cf a5 3e
       0.3558597 0.9912146 0.5942737 0.32384688
000090 2f 55 a4 bd 6b 89 ce bd 93 b6 33 3e 60 35 c5 bd
       -0.0802406 -0.10084804 0.17550115 -0.09629321
0000a0 53 a0 70 be c0 a3 92 3e 29 a7 a8 be 3c b7 2c be
       -0.23498659 0.28640556 -0.32940033 -0.16866773
0000b0 b8 45 27 3e be 5f db bc 5b 89 c4 3d 0c d8 a5 3b
       0.1633519 -0.026779052 0.09596511 0.005061155
0000c0 76 65 2d 3e 82 57 9f be fc 63 09 bf ca 3b d5 3d
       0.16933236 -0.3112145 -0.5366819 0.104117945
0000d0 86 9d d4 be 97 82 f1 be c5 af de be 5d bc 3e 3d
       -0.4152643 -0.47169945 -0.43493477 0.046566356
0000e0 f8 f9 24 3e 2a 0d 06 3e 13 74 fc 3d 49 3d 5c 3e
       0.1611098 0.13090959 0.12326827 0.21507753
0000f0 91 d5 a7 3e 8f 8f 14 be f0 89 e1 bb 47 bf f6 be
       0.32780126 -0.14507888 -0.0068828985 -0.48192808
000100 e4 89 b1 be 84 a6 aa be 75 c0 21 be 71 5e 41 3e
       -0.34675515 -0.33330166 -0.15796073 0.18883683
000110 6b 82 07 be db 0e 96 be bc 2d 74 bd 64 2e d6 3e
       -0.13233344 -0.2930821 -0.05961393 0.41832268
000120 20 72 ff be e4 4d e9 be ba 3f ad be b4 ad 44 bf
       -0.49891758 -0.45567238 -0.33837682 -0.7682755
000130 98 ca 45 bf b9 b0 e5 be b0 24 1c bf 39 4e 0c be
       -0.7726226 -0.4486139 -0.6099348 -0.13701715
000140 a2 4e 62 3d 29 18 4e bf 63 37 c4 be bc 84 9f 3e
       0.05525077 -0.80505615 -0.38323507 0.31155956
000150 f6 18 05 3e 10 56 28 3e 25 e8 7a bd b1 14 05 be
       0.12997803 0.1643908 -0.061256547 -0.12996174
000160 f1 f4 86 3d ac 6f e3 be 60 98 64 3e 02 7d fe bd
       0.065896876 -0.44421136 0.22323751 -0.12426187
000170 12 27 dd bb 51 e8 e4 be 9c 5a 25 bf 17 6f eb be
       -0.0067490423 -0.44708493 -0.64591384 -0.45983192
000180 ba 04 4d be 6c f1 c7 bd f8 e9 86 be 92 9d e0 be
       -0.20021334 -0.097628444 -0.2635038 -0.43870217
000190 5d 15 cb 3d d6 55 f3 3c 5b 7f 0b 3e 59 e4 d0 3e
       0.09916184 0.029704016 0.13622801 0.40799215
0001a0 a3 a1 1a 3f d2 b6 10 3f b5 9f 43 3c 7e f9 24 3e
       0.6040289 0.5652896 0.011939933 0.16110799
0001b0 a3 a4 e6 3e aa 0d df bd 3a 90 6e be 68 20 c8 3e
       0.45047483 -0.10891278 -0.23297206 0.39087224
0001c0 e9 eb 95 be c9 61 d1 be ee d1 82 be d3 49 48 bf
       -0.29281548 -0.40894917 -0.2555079 -0.78237647
0001d0 b0 e7 15 bf 59 57 bb bd b7 9f ce bd 47 be bb be
       -0.5855665 -0.091475196 -0.10089057 -0.36668608
0001e0 7f 2d 6e 3e f7 ec 98 3d 44 c1 b3 be 6f 31 70 3f
       0.23259543 0.074670725 -0.35108387 0.9382543
0001f0 84 fa 91 3e f1 1e 2c 3e 9e 01 9d bd 43 ed 79 bc
       0.2851144 0.16808678 -0.07666324 -0.0152543215
000200 cb 1a 90 be 9c a3 2f be 28 7a a7 3e df 40 1c 3e
       -0.2814544 -0.17152256 0.32710385 0.15259121
000210 5e d5 19 3f c1 f2 ab 3d 37 72 3e 3e c6 3f 92 3d
       0.600912 0.08395911 0.18598257 0.0714107
000220 d1 74 e7 3c 44 4e ef be 79 e2 5f be 27 e2 ee bc
       0.028253945 -0.467394 -0.21863736 -0.029160572
000230 7a 9c 9a 3b bb 30 4f bf 17 f8 2b be d7 ca 0b bf
       0.0047183605 -0.8093373 -0.16793858 -0.54606384
000240 ad af f0 3d 42 8f 01 3f 30 87 20 3e c4 bc fc 3e
       0.117522575 0.5060922 0.1567657 0.49362767
000250 76 0f a1 bd 0e 90 c7 be f9 f3 c0 3c a0 05 c6 be
       -0.07864277 -0.38977093 0.023553835 -0.38676167
000260 63 3c 32 bf 02 a6 97 3e e8 fe c0 3d bc 5d 18 bf
       -0.6962339 0.2961884 0.094236195 -0.5951803
000270 87 77 3a 3e eb 22 60 bf ba e8 88 bf 18 66 34 be
       0.18209659 -0.8755328 -1.0696023 -0.1761707
000280 31 63 0c bf c4 38 f2 be 6a 5d 84 3e c6 9e 26 3f
       -0.54838854 -0.47308934 0.2585252 0.6508602
000290 88 be 63 3e ce 30 bb 3e f1 72 d2 3e 3f 7c 09 3d
       0.2224065 0.36560673 0.41103318 0.033565756
0002a0 77 74 5b 3e 9b 7b b3 bd f4 cd 69 3e 75 50 5e 3c
       0.21431147 -0.0876381 0.22832471 0.013568987
0002b0 f0 58 3b 3e f6 c1 32 be 29 b8 bf 3e 60 c1 8b 3d
       0.18295646 -0.17456803 0.3744519 0.06823993
0002c0 c6 75 ac bd 2c 71 d6 3e 4f 5e b8 3e 9c 2a 83 be
       -0.08420901 0.41883218 0.36009452 -0.25618446
0002d0 70 fd f3 be 64 53 9d 3b b4 82 3b 3e 78 c3 e8 be
       -0.47654295 0.0048012007 0.18311578 -0.4546163
0002e0 4f 59 fe bd 1f fb 26 be 49 d0 64 be 00 9c 18 bb
       -0.12419378 -0.16306733 -0.2234508 -0.0023286343
0002f0 12 de ed 3b aa 9e 7c 3e 77 ae ef 3e f7 d9 f2 3e
       0.007259139 0.246699 0.46812794 0.4743192
000300 78 1b 97 3e 8a 14 0f be 71 f9 ea 3d b7 45 6e bd
       0.29513144 -0.13972679 0.114733584 -0.058171954
000310 4c 1a 04 bd 39 28 6c be 72 f7 66 be a6 85 65 bf
       -0.03225164 -0.23062219 -0.2255533 -0.89657056
000320 74 ef 5b bf 6f 93 19 bf b2 e7 d9 bf 6b d9 cb bf
       -0.8591225 -0.5999059 -1.7023833 -1.5925726
000330 4f 93 3c bd 59 21 46 bf 44 bb d9 be 1b 2e 52 3e
       -0.046038922 -0.77394634 -0.42525685 0.205254
000340 42 16 4e be 92 55 ec bd bc 7b b4 bd 37 8c a8 be
       -0.20125678 -0.11539759 -0.08812663 -0.32919475
000350 ae 1f 20 be 86 b3 6a 3e 43 c1 32 3e 31 40 dd 3e
       -0.15637085 0.22920045 0.17456536 0.43213037
000360 6a 0d 2b be 33 e5 6e be 47 30 7c be c4 f8 00 bd
       -0.16704336 -0.2332962 -0.24627791 -0.03148724
000370 99 cd 01 3e 83 d4 a8 bd dc e2 6e 3e f4 62 d4 3d
       0.12676086 -0.082436584 0.23328727 0.10370436
000380 37 94 17 3d 33 ad 3e bf 60 c8 ce 3d 5c 9a 08 3e
       0.037006583 -0.7448303 0.10096812 0.13340133
000390 9d a4 c8 3e 55 47 55 3e 8e b3 80 3f 45 e9 10 3f
       0.3918809 0.20827992 1.0054796 0.5660594
0003a0 5e ab 66 3e c0 c8 4f be e5 33 5e be 32 09 d5 3d
       0.22526309 -0.20291424 -0.21699484 0.104021445
0003b0 97 4e 5d be f6 ce 27 bf 30 0a 0d bf ca c9 96 3e
       -0.21612011 -0.6555017 -0.5509367 0.29450828
0003c0 98 c4 1a 3e 90 b5 0c 3f aa 23 11 3f f1 2c 52 3d
       0.15114057 0.5496454 0.56695044 0.05131239
0003d0 b8 12 a7 3d 2a 34 09 bf 6d 75 cb bd 30 c8 46 bf
       0.08157867 -0.5359522 -0.099345066 -0.7764921
0003e0 dc 1c b7 be 7a 74 0f be e7 03 91 3d 6f d6 0b 3f
       -0.35764205 -0.14009276 0.070808224 0.54624075
0003f0 55 43 a4 3e 86 f7 9c 3c 59 87 c2 be 90 d5 87 3e
       0.3208262 0.019160997 -0.37993887 0.26530123

conv4.bias f4 [16]
000000 c4 a2 ce 3d 21 26 52 bc 4a ad f6 bd c1 6f 8f 3d
       0.10089639 -0.012826473 -0.12044771 0.07003737
000010 d8 bf a3 bd 2b 69 43 bd 5c b0 e7 3c 43 b5 12 3e
       -0.07995576 -0.047707718 0.028282337 0.14326958
000020 e7 80 11 be da 52 3b 3e f5 1b f0 3d 5c bc 3a bc
       -0.14209329 0.18293324 0.117240824 -0.011397447
000030 90 00 1a bd 71 f6 9c 3d e9 d5 ab bd 20 17 14 3e
       -0.037598193 0.076641925 -0.083904095 0.14461946

conv5.weight f4 [16, 8, 3, 3]
000000 b7 0b cd 3e d8 b2 d2 3d e9 81 a4 be 7a a3 80 bc
       0.40048 0.10288018 -0.32130364 -0.015702952
000010 4d e9 50 bf ae 04 99 be e1 9c a7 be 03 39 00 bd
       -0.8160599 -0.29886383 -0.32736877 -0.03130437
000020 6a 5d 50 3e 7e 8d c4 3d 23 e3 10 be 16 6b 2e be
       0.20348135 0.095973 -0.14149146 -0.17033038
000030 bf f9 66 bd 4d 22 5a bd 76 4a e2 bd 9f 5d 12 be
       -0.05639052 -0.053255368 -0.110493585 -0.14293526
000040 31 a5 ee bc 8c e0 9a bd 71 d3 02 be c5 cf f7 35
       -0.029131504 -0.0756236 -0.12775971 1.8463403e-06
000050 05 bd a1 3c 34 d3 e0 bd bb d1 dd be a0 46 02 bf
       0.019743452 -0.10977784 -0.43324074 -0.50889015
000060 03 fd d6 3e 7c 6e b7 3d 25 d3 a3 3e 2e d7 61 3e
       0.41989908 0.0895662 0.31997028 0.22054741
000070 ae 4d 34 3e 90 b9 4c bf 3b 72 6b 3e b8 66 b0 be
       0.17607757 -0.79970646 0.22992794 -0.34453368
000080 0f b2 ad 3e dd 2f bc be be 6a 4b 3e 58 2e 20 3e
       0.3392491 -0.36755267 0.19864938 0.15642679
000090 1c cb a2 bd 15 bd c3 3e e2 3b 0e 3f ca c0 36 be
       -0.07948896 0.38230196 0.55560124 -0.1784698
0000a0 40 d5 23 bf a4 b0 1c bf bc b1 20 bf 5b 70 95 be
       -0.6399727 -0.6120703 -0.627712 -0.29187283
0000b0 1a d3 ca bd 91 82 ce bd 05 2b 4d 3e 6d a6 c4 3e
       -0.09903546 -0.10083497 0.20035942 0.38408223
0000c0 71 7f 93 bd 3d 82 3d 3f 96 8b 4a 3e ac d4 45 3e
       -0.07202042 0.7402685 0.1977981 0.19319409
0000d0 0f 1d 9e bd 5f 36 93 be 9a 99 f2 3e 5e fe 4a 3d
       -0.07720386 -0.2875242 0.47382814 0.04955899
0000e0 70 d2 7a 3e f2 34 b8 3e 5b 71 6c bf 5c 77 aa be
       0.24494338 0.35977894 -0.92360467 -0.3329419
0000f0 7d cc 0e bf 80 5f 4f be 17 01 df 3d cc 2b fa bd
       -0.55780774 -0.20251274 0.1088888 -0.12215385
000100 1c b4 89 be 42 7d c4 3e db fd 64 bf 2c be f7 3c
       -0.26895225 0.38376814 -0.8944985 0.030242048
000110 9e 83 67 bb 4c 8f 26 bf 24 34 88 be db c3 06 bd
       -0.0035326253 -0.65062404 -0.2660228 -0.032901626
000120 f4 31 a5 be 7a 31 59 be 15 71 0f 3f f1 c4 e8 be
       -0.32264674 -0.2121028 0.56031924 -0.45462754
000130 ee a7 67 bd e3 8a 08 3f e8 6a c9 3e 04 d9 12 bd
       -0.056556635 0.53336924 0.39339375 -0.035851493
000140 cc 77 99 3d f7 ae 9f 3e 99 b8 f5 3e f3 a3 b7 3e
       0.074935526 0.31188175 0.479924 0.3586727
000150 23 60 33 bf 4b d9 0b be b8 5b 12 3d ed 8e 2a 3c
       -0.7006857 -0.1365711 0.035732 0.010410053
000160 a5 0e d9 3e fe ef 8a 3e 7f 0b d7 3e 14 80 13 3d
       0.42393985 0.27136225 0.42000958 0.036010817
000170 bf e8 e7 be 21 68 84 3f 5f 56 69 3e ca c3 6e bf
       -0.4529476 1.0344278 0.22786854 -0.932675
000180 00 4e fb bd 40 9b 39 3d b1 81 6d 3e 61 7c 04 3e
       -0.12270737 0.045314074 0.23194005 0.12938072
000190 36 a3 15 bf d9 89 69 bf 62 31 2e 3f 26 f8 a2 bd
       -0.58452165 -0.91225964 0.680441 -0.07957487
0001a0 2e 74 1c bf 82 2b 4d 3e d5 db d9 be ad 0d 92 bd
       -0.61114776 0.20036128 -0.4255053 -0.07131515
0001b0 b6 77 5f be 3b bf 9c 3e 7a 7e 35 be 48 0e 35 3f
       -0.2182301 0.30614647 -0.17724028 0.70724916
0001c0 3b c9 8f 3d e2 f3 f1 be b3 5c 21 3f ff 63 5f 3e
       0.070208035 -0.4725638 0.6303207 0.21815489
0001d0 08 6c 7f be 17 51 69 3e 11 ff c5 be fe 54 9b 3c
       -0.24943554 0.2278484 -0.38671163 0.018961426
0001e0 98 2c 00 3e 50 1e c4 bd a4 8a d3 bb 24 09 ec 3e
       0.12517011 -0.09576094 -0.0064557362 0.46100724
0001f0 0f 79 21 be de 38 36 bf 7f ec de 3e 87 5a 20 3f
       -0.15768836 -0.7118052 0.43539807 0.62638134
000200 e4 10 6d bd 8a 4b f3 3e 1b 23 ab 3d 83 82 c9 be
       -0.057877436 0.4751857 0.08356305 -0.39357385
000210 c9 38 51 be 28 c4 b6 bb d0 0e 3a 3f 68 1c 0e be
       -0.20431818 -0.005577583 0.7267885 -0.13878024
000220 1c d0 5f be 33 4a 00 bd 17 9d 4c bf 7e 6e fa be
       -0.21856731 -0.031320762 -0.799272 -0.48912424
000230 d6 9f c9 3d 88 95 83 be d9 b7 9c 3e ce 8e d9 3e
       0.098449394 -0.2570002 0.30609015 0.42491764
000240 82 9f b2 3e 8f 6c 96 be 54 85 41 be fd 04 f5 be
       0.3488732 -0.293797 -0.18898517 -0.47855368
000250 17 42 d5 3e e1 4f 16 3d 11 c2 c9 be 4c 99 a5 be
       0.41651985 0.036697272 -0.39405873 -0.3234352
000260 a6 9f f3 bd a2 96 f0 bd da 72 a2 3e e1 1d 6a 3d
       -0.11895685 -0.11747481 0.3172825 0.0571574
000270 8b 2a 9e 3e 39 58 5f bd ab 1b 2f 3f da 90 ee 3e
       0.30891833 -0.054527495 0.6840159 0.46594888
000280 20 17 fc 3e cf 0f 1d 3d 65 30 06 3f 07 13 60 3f
       0.49236393 0.038345154 0.52417594 0.87529033
000290 f4 9a 98 bd 81 66 87 3e bc 6b e5 3e 23 b9 31 bf
       -0.0745143 0.26445392 0.44808757 -0.6942312
0002a0 bc 4a cc be 33 9b 00 be 23 70 f1 bd 7d 26 02 3f
       -0.39900768 -0.12559204 -0.117889665 0.5083998
0002b0 9f ff b6 be b9 6e 42 bf 2a 39 02 bf cc f9 80 3e
       -0.35741898 -0.759502 -0.50868475 0.2519058
0002c0 bf 33 8d be d2 6b 59 3e 93 20 3d 3f 3d 1b e9 3e
       -0.27578542 0.21232536 0.7387783 0.45528594
0002d0 96 0d 25 3f 40 3b 8a be 08 c3 70 be f8 9f 96 3e
       0.64473855 -0.2699833 -0.23511899 0.2941892
0002e0 57 26 07 3f f4 a8 e5 3c a6 7f a0 be 24 ab 6a bd
       0.52792877 0.028034665 -0.31347388 -0.05729212
0002f0 58 43 fe bd 38 81 b7 3d f9 53 77 be da 24 3e 3b
       -0.124151886 0.089601934 -0.24153127 0.0029013664
000300 fb 2e 86 3e f5 0e 1f 3d 5b 18 81 3e a4 d1 59 be
       0.26207718 0.038832624 0.25213894 -0.21271378
000310 3f fb 32 3d 80 50 e8 3e b5 f9 ac 3d 42 53 97 bd
       0.04369664 0.45373917 0.08446065 -0.07388927
000320 c9 82 21 bf 05 92 0a be 00 37 d1 be 98 b0 3a bf
       -0.6309019 -0.13532265 -0.40862274 -0.7292571
000330 f5 b2 0c 3e c2 35 14 3e c2 70 02 3d ff 90 1d be
       0.13740142 0.14473632 0.031845815 -0.15387343
000340 2d 0b 39 3f 3c a8 2c 3f 6f 7f c7 bd fe 5f 40 bf
       0.7228268 0.67444205 -0.09741103 -0.7514647
000350 48 fa 72 be e9 5a dc 3e d8 93 49 bd b5 9c 76 be
       -0.23728287 0.4303811 -0.04921326 -0.24083216
000360 80 d2 82 3e a3 8d 47 3f fa 71 00 3f 88 ef d7 3e
       0.25551224 0.77950495 0.50173914 0.42174935
000370 89 12 c6 3e 1c 68 fe bc cf 94 85 3d cb 76 b0 3d
       0.38686016 -0.031055503 0.065225236 0.08616408
000380 26 7d a0 be f7 e2 47 be 74 9e 07 3f fc 4e 9d be
       -0.3134548 -0.19520174 0.52976155 -0.30724323
000390 34 66 ea be ce a3 c2 3e 0f c0 5b be 98 53 e5 bd
       -0.457811 0.38015598 -0.21459983 -0.11197585
0003a0 81 c8 35 bd d1 bf c4 3c 9a 22 37 be 1a f8 2a bf
       -0.04438067 0.024017246 -0.17884293 -0.6678482
0003b0 a0 95 96 3d 07 ef da 3d 26 a4 c9 be 37 42 c2 be
       0.073527575 0.10690122 -0.39383048 -0.37941143
0003c0 16 22 9c bd 74 c5 d4 bd 95 ce b7 3d 05 9c 91 be
       -0.07623689 -0.10389224 0.08974949 -0.28439346
0003d0 43 aa 4a 3e 91 00 29 3e c5 e9 1c 3e 27 3a 12 3e
       0.19791512 0.16504122 0.15323551 0.14279996
0003e0 e1 d6 b6 be c6 4d c7 3d 9a b9 3b bf 31 01 f3 be
       -0.35710815 0.09731631 -0.7333008 -0.47461846
0003f0 4c 27 1b bf 5c c8 8e 3d 1b c4 a6 3e 2f 4c ae be
       -0.6060684 0.06971809 0.32571492 -0.34042498

conv5.bias f4 [16]
000000 64 1c e8 3d 65 03 a7 bd 36 75 a6 3c 58 61 8a be
       0.1133354 -0.08154944 0.020319562 -0.27027392
000010 5d 0f e6 3c 5c 7f 8f bc b5 c0 d8 bc 40 28 6e 3d
       0.028083498 -0.017516784 -0.026459077 0.058143854
000020 fc df c5 bd 9a af 2c 3c e7 dd 60 3d e6 f8 43 be
       -0.09661862 0.010539914 0.054899123 -0.19137916
000030 0b ff 44 bd 96 bb 19 be 14 49 56 bd 3c ab 1f 3e
       -0.04809479 -0.15012965 -0.052315786 0.15592664

conv6.weight f4 [24, 16, 3, 3]
000000 af ae 3a bf 43 7f 9d 3c ac d2 d3 3d 73 74 d7 be
       -0.72922796 0.019225722 0.10342917 -0.4208103
000010 3c d1 10 3e 48 43 74 bc 96 b8 80 be 5e 94 87 3e
       0.14142317 -0.014908619 -0.25140828 0.26480383
000020 21 18 f0 bc d4 bc b1 3d b0 cc 89 3e 6a 20 9e 3e
       -0.02930838 0.08678594 0.26913977 0.30884105
000030 bf 08 18 bf 1e 5e 96 be 06 7a f9 be 19 5d 05 3f
       -0.59388345 -0.2936868 -0.4872591 0.5209518
000040 35 43 30 3f 44 ed 92 3e 22 74 2d 3e 98 7c 03 3f
       0.6885255 0.28696644 0.16938832 0.5136199
000050 21 1d a2 3e c0 39 9c be 6e e8 f7 be fc f2 29 bd
       0.3166285 -0.3051281 -0.48419517 -0.041491494
000060 64 ab 1f 3f 73 42 b3 3e 91 ef c6 be ba ee 78 be
       0.62370896 0.35011634 -0.3885465 -0.24309817
000070 cf a5 4c 3e 61 d5 24 be 13 93 d2 3e 2f 25 fa 3e
       0.19985126 -0.16097023 0.41127834 0.48856494
000080 d0 74 38 be c6 d9 f5 3d 64 e6 02 3f 1d a0 a4 3e
       -0.1801331 0.120044276 0.511328 0.32153407
000090 85 17 24 3e c3 7b 3c bf c3 7d 30 bf 94 a6 2c 3e
       0.16024597 -0.73626345 -0.689419 0.1686042
0000a0 2a 9c 61 3e ef ea 0d bd 88 d0 02 3f 75 a9 da 3e
       0.22032228 -0.03464788 0.51099443 0.4270741
0000b0 bf a7 47 bf bf fb 14 be 50 65 95 3b c9 20 b7 bd
       -0.77990335 -0.14549159 0.0045591965 -0.089418
0000c0 d7 62 ac be 78 7a fd be 60 1e a3 be 3d a6 c6 3e
       -0.3366916 -0.495075 -0.31859112 0.38798705
0000d0 a0 cf c6 3e 83 50 75 be 6c 66 cb 3e ce ee 9b 3c
       0.3883028 -0.23956494 0.3972658 0.01903477
0000e0 cb 6d 1c bf 20 2a 77 3e 4b 00 fd 3e 0d 84 15 be
       -0.6110503 0.24137163 0.49414286 -0.14601155
0000f0 bf 83 22 bf 87 60 98 be 5c 76 13 3e c7 18 86 be
       -0.6348228 -0.29761145 0.1440062 -0.2619078
000100 9b 84 eb be 5a 9c 91 3d 7c 5b e2 be 05 4c e6 3d
       -0.45999607 0.071099 -0.44210422 0.11244968
000110 1e ac 20 3f 51 39 14 bf ef 22 3d 3e 67 bb ae 3e
       0.6276263 -0.5789996 0.18470357 0.34127352
000120 ca db ed 3d 32 c8 cc be 5c d8 09 bc fb bb ca 3e
       0.11614187 -0.39996487 -0.0084134005 0.39596543
000130 c7 7f ba bc 3e 6a b1 3d 1e b9 e8 3e 7c 70 db 3e
       -0.022766007 0.08662842 0.45453733 0.42859256
000140 81 24 43 3e 3b 9b 29 bf 7b a3 e4 be c9 06 11 3c
       0.19056894 -0.6625249 -0.44655976 0.008851715
000150 a4 9c 46 3e 95 a5 96 3e cc 3e 93 be fe c0 99 bd
       0.19395691 0.29423204 -0.28758848 -0.075075135
000160 fa 11 33 be a6 81 8a 3c d3 6a a2 bd 65 1b 6f 3e
       -0.17487326 0.016907524 -0.07930531 0.23350294
000170 71 63 c1 3e db 56 18 bf 63 18 d0 be 04 5e 0e 3e
       0.3777118 -0.5950753 -0.40643606 0.13903052
000180 61 81 b0 be b5 30 b3 3e 7e 97 26 3e ac a7 70 bd
       -0.34473708 0.34998098 0.16268727 -0.058753654
000190 73 cd ff bd 77 a3 b4 bd 70 94 65 3e 28 fc 30 be
       -0.12490358 -0.08820241 0.22419906 -0.1728369
0001a0 77 9f 4c be 89 26 33 3f 94 af 1c 3f 80 05 23 3f
       -0.19982706 0.69980675 0.6120541 0.6368027
0001b0 19 cb e3 bd 31 2d 3c bd 3d eb 8d 3e 42 61 39 3e
       -0.11122722 -0.045941535 0.27718535 0.18103507
0001c0 6d 19 c0 3d e1 70 86 3e df 5e 25 bf 43 6f 0b bf
       0.093798496 0.26257995 -0.64597887 -0.54466647
0001d0 b0 b9 95 be 76 f5 99 3d 6f 7e 61 3e 9b 5d ba 3e
       -0.2924323 0.07517521 0.22020887 0.3639954
0001e0 7a 77 84 3c 41 d1 ca 3e c3 cc d6 3e ef 7e 21 bf
       0.016170252 0.39612773 0.41953096 -0.6308431
0001f0 11 6e e3 3c 52 ac 9c 3e 2c aa 4d 3e 66 2d e5 be
       0.027762445 0.3060022 0.20084447 -0.447612
000200 d2 c3 2b bf 75 35 48 3f e7 e4 70 3e 81 5e 5d be
       -0.67095673 0.7820657 0.2352482 -0.21618082
000210 cd 46 62 bd 66 9c e6 3e 8c fb be 3e 79 1e 51 3e
       -0.055243302 0.45041198 0.3730129 0.2042178
000220 b7 cd d1 3d 87 55 f8 3e 23 d5 0c 3e be bb 37 3f
       0.10244315 0.48502752 0.1375318 0.71770847
000230 30 a3 7a 3f 95 9f df be 19 45 04 3d ff d3 04 3f
       0.97905254 -0.4367644 0.03229246 0.5188598
000240 e8 f2 19 3f b8 fb ee 3e d9 d9 a3 3e 12 4c 45 be
       0.6013627 0.4667642 0.32002142 -0.192673
000250 7c 8c dc 3c 68 96 05 3e 3a df d4 bd 54 c6 93 be
       0.026922457 0.13045657 -0.103941396 -0.2886225
000260 0d ed ac 3e cc 0b 66 3d d6 f4 c5 3e 93 2c 02 be
       0.33774605 0.056163594 0.38663357 -0.12712316
000270 7a 09 4a be 1c 1e 8e 3e e7 9a 3b be d9 44 bc 3d
       -0.19730178 0.27757347 -0.1832081 0.09192819
000280 a0 06 be 3e 3a 53 ef 3e 62 46 7d be 7f 05 01 bf
       0.3711443 0.46743184 -0.2473388 -0.5039901
000290 47 ae 59 bd fd 86 1c 3e 8f 07 07 be 20 c1 32 3e
       -0.05314472 0.15285869 -0.13186477 0.17456484
0002a0 d7 d3 59 be b1 3c 67 be 84 3d 96 be a0 8f b5 3d
       -0.21272217 -0.22581746 -0.29343808 0.08865285
0002b0 4a ae 93 3e 20 cf 0d 3e 7d d0 05 be 7f 5a 29 bf
       0.2884391 0.13848543 -0.13067813 -0.6615371
0002c0 10 96 3f bf f0 84 8d be 0d 6d f0 be 1d 14 29 bf
       -0.7483835 -0.27640486 -0.469582 -0.66046315
0002d0 9f 07 53 3d e3 e8 49 bf 96 ca e1 be 7d 02 b3 be
       0.05152094 -0.7887098 -0.44099873 -0.34962836
0002e0 c8 a9 4f be 2f 93 12 3f 5d ed 20 bf 26 0a 57 3f
       -0.2027961 0.57255834 -0.6286219 0.8399986
0002f0 70 14 f5 3e be fa 96 bb 35 a1 79 3e 13 80 1c 3e
       0.47867155 -0.0046075275 0.24377902 0.15283231
000300 bd 55 ff bd 77 b8 0c 3f 2d 77 2a 3f ff 5e 65 3d
       -0.12467525 0.5496897 0.665881 0.0559988
000310 d5 54 f8 3e 3a 41 d4 be 79 80 1f bf 45 8f 83 be
       0.48502222 -0.41456014 -0.6230541 -0.25695243
000320 53 f6 e6 3d da 95 d4 be 81 e7 d7 3d bb 86 ec bd
       0.11277451 -0.41520578 0.10542203 -0.11549135
000330 06 e4 cc be 2c 66 13 bf d3 9e a7 be 3b 4d ef be
       -0.40017718 -0.57577777 -0.3273836 -0.4673861
000340 af 9e da be 79 6f c2 3e d2 1c d3 bc e3 fd b4 3e
       -0.4269919 0.37975672 -0.025770579 0.3534995
000350 8c f2 39 3f ff 45 2e bf 00 b7 67 3d 6d 7f d9 3e
       0.7263572 -0.68075556 0.056571007 0.4248003
000360 c4 33 95 3e 2f 06 f9 be 65 90 c9 be b7 f1 f9 be
       0.29141057 -0.4863753 -0.39367977 -0.48817226
000370 97 d4 01 bf 9c a0 70 3c 81 21 5c 3f 99 15 55 3f
       -0.5071501 0.01468673 0.8598862 0.8323608
000380 07 d3 ce 3e 77 76 9f 3c 97 0e b7 3e e3 56 17 3f
       0.40395376 0.019465668 0.3575332 0.59116954
000390 e4 ab f0 3d 22 59 90 3e b0 47 fe 3d 6e 22 86 3d
       0.117515355 0.28193003 0.12416017 0.06549536
0003a0 3e 9c a0 be 8e ea 20 bf 35 cd 1c 3e 01 fc ce 3e
       -0.31369203 -0.628579 0.15312655 0.4042664
0003b0 4e c0 10 3f bb f0 67 3f cf f2 4d 3f 0f 4b 2f 3e
       0.56543434 0.906017 0.8044862 0.17118476
0003c0 91 d6 49 bd cc e1 b3 bd 9e 23 44 be 13 19 ef be
       -0.049276892 -0.08783302 -0.19154212 -0.46698818
0003d0 73 fc 1c bf 71 c2 61 be c8 ad 53 be a8 d5 4a 3e
       -0.61322707 -0.2204683 -0.20671761 0.19808066
0003e0 da 62 29 bc 90 44 6b 3d f1 2f d3 3d e5 63 39 bd
       -0.010338509 0.057438433 0.103118785 -0.045261282
0003f0 aa b8 01 3f aa d8 14 3f 25 55 b4 3e 81 94 7f 3e
       0.506724 0.58143103 0.3522121 0.24958993

conv6.bias f4 [24]
000000 18 d8 dc 3c a9 25 8c 3c f6 92 65 bd d6 31 a5 3c
       0.02695851 0.017107802 -0.056048356 0.020165365
000010 5a 65 cb bc 44 4d af 3d 9d e5 49 3c d6 17 70 bd
       -0.024828602 0.08559659 0.0123228105 -0.05861648
000020 f3 c4 b9 bd 8a d5 a5 3d 36 cb b3 bb f6 ae 03 be
       -0.09070768 0.0809737 -0.005486871 -0.12859711
000030 c7 1a c9 bc f6 2a 10 bd 44 a2 b9 3a c7 e8 11 3e
       -0.024548901 -0.03519722 0.0014162739 0.14248954
000040 bf 28 6d 3d be e8 9b 3c 96 f1 51 3d b0 43 0f 3e
       0.057900187 0.019031879 0.051255785 0.13990664
000050 56 13 0a 3c ff 5c 84 3c da fb e0 3c 16 3a 23 3d
       0.008427462 0.016157625 0.027463842 0.039850317

bn1.weight f4 [4]
000000 1f 12 91 3f a0 cd 72 3f 52 a7 9a 3f b1 7e a1 3f
       1.1333655 0.9484501 1.2082312 1.2616788

bn1.bias f4 [4]
000000 db 91 1f bf ee 3d 44 3e 09 76 e0 3e f3 96 a9 3e
       -0.6233193 0.1916425 0.43840054 0.33122978

bn1.running_mean f4 [4]
000000 93 a6 73 bd 61 02 63 3d da 68 8b 3e 80 17 6e be
       -0.05948503 0.05542219 0.27228433 -0.23251152

bn1.running_var f4 [4]
000000 f7 e1 93 3f 3f b8 b4 3f a2 4b 74 3f e4 f2 a9 3f
       1.1553334 1.4118727 0.95427907 1.3277249

bn2.weight f4 [8]
000000 ae 83 86 3f 79 83 b6 3f 13 f7 8f 3f 88 27 87 3f
       1.0508935 1.4258872 1.1247276 1.0558939
000010 19 8c 3e 3f 4e 09 98 3f 14 be c8 3f 41 e5 6f 3f
       0.7443252 1.187784 1.5683007 0.9370919

bn2.bias f4 [8]
000000 17 52 d0 3e 12 05 22 bf dd 54 d7 be cf 2c 29 3f
       0.4068763 -0.63288987 -0.42056933 0.66084
000010 59 9f 54 bf 13 32 ff be 5e 61 cd 3e 4f 5d d8 3d
       -0.83055645 -0.4984289 0.40113348 0.10564672

bn2.running_mean f4 [8]
000000 3f f0 1a c0 26 a8 f3 bf 70 b8 33 c0 25 b8 0e c0
       -2.4209135 -1.903569 -2.8081322 -2.2299893
000010 0f 23 85 40 92 1c 1e c0 f2 61 67 c0 f5 74 88 3f
       4.1605296 -2.4704938 -3.615353 1.0660692

bn2.running_var f4 [8]
000000 f1 33 ea 40 39 d5 36 41 98 b5 ff 40 e9 a8 41 41
       7.3188405 11.427056 7.990917 12.103738
000010 fe 76 60 41 9a 54 02 41 2e 38 a3 41 a5 ea ba 40
       14.029051 8.145655 20.402431 5.841143

bn3.weight f4 [8]
000000 5e 62 d2 3f 47 8e 92 3f 16 b4 85 3f a3 db bf 3f
       1.6436269 1.144967 1.0445583 1.4988903
000010 e0 b4 82 3f 85 6c 7f 3f 0f 63 99 3f 80 1f 94 3f
       1.0211449 0.9977496 1.1983355 1.1572113

bn3.bias f4 [8]
000000 26 d8 0f 3d 64 8e 84 3e d7 9f e9 bd 0c c6 6c be
       0.035118245 0.25889885 -0.1140744 -0.23122424
000010 b2 8a b9 bc 24 50 d5 bc ef a2 d6 3e a8 81 6f be
       -0.022649143 -0.02603919 0.41921183 -0.23389304

bn3.running_mean f4 [8]
000000 6a 21 d7 bf a0 01 7b bf 85 f7 a7 3f f2 ad 6c c0
       -1.6807072 -0.98049355 1.3122412 -3.6981168
000010 37 a5 2a 40 f7 4d 24 3e b0 18 45 bf 64 49 6f 40
       2.666334 0.16045366 -0.76990795 3.7388544

bn3.running_var f4 [8]
000000 74 fa 6a 41 d8 e6 3f 41 fa 96 f1 40 7a aa 34 41
       14.686146 11.993858 7.5496798 11.29162
000010 66 d8 01 41 55 c0 28 41 8d c9 4b 41 86 f7 3e 41
       8.115332 10.546956 12.736707 11.935431

bn4.weight f4 [16]
000000 7a 34 81 3f 7f 99 93 3f ed 7b a6 3f 44 61 77 3f
       1.009414 1.1531218 1.3006569 0.9663279
000010 75 b6 65 3f e5 5f ae 3f ee 5f 5c 3f 47 5c 69 3f
       0.8973153 1.3623015 0.8608388 0.9115643
000020 a8 4c 80 3f 95 b2 7a 3f 8b f3 96 3f 30 3b e2 3f
       1.0023394 0.97928745 1.1793073 1.7674313
000030 66 af 8b 3f 4a d1 66 3f e4 94 c1 3f b2 a5 9e 3f
       1.0912902 0.901631 1.5123563 1.2394316

bn4.bias f4 [16]
000000 4c 93 ab 3d 2b ef 4f be c1 dd cc 3e 20 58 3c 3e
       0.08377704 -0.20306079 0.40012935 0.18392992
000010 ce 1b d1 be 87 34 29 3b e2 64 42 be b9 e9 70 3a
       -0.40841526 0.0025818662 -0.18983796 0.0009190101
000020 1c 19 0e 3f 00 c3 0f bf 28 ae 93 3d 80 df 6a 3d
       0.55507064 -0.5615692 0.07210952 0.057342052
000030 66 b3 d3 be 0d 3e e2 3d e6 ae 75 bf 25 51 a4 3d
       -0.41347808 0.110469915 -0.9597 0.080232896

bn4.running_mean f4 [16]
000000 76 16 90 3f 0d dc 5c c0 13 1f c2 c0 83 60 38 3f
       1.1256855 -3.4509308 -6.0662932 0.72022265
000010 af 48 37 3d 4e 79 b0 3f e7 05 ce bf 2d 10 cf 3f
       0.04474705 1.3787019 -1.6095551 1.6176811
000020 14 c7 8c bf 11 c7 31 c0 f8 fa af bf 67 fd c0 c0
       -1.0998254 -2.777775 -1.3748465 -6.030933
000030 ca 07 1f c0 3d d7 22 3f 16 c5 fa c0 b6 0f b5 bd
       -2.4848504 0.6360968 -7.8365583 -0.08840887

bn4.running_var f4 [16]
000000 58 c1 07 41 ab c7 4e 41 10 ce aa 41 de 79 1f 41
       8.484703 12.923747 21.350616 9.967253
000010 fb a0 89 40 0d 6a 5c 41 3a 0e de 40 dc 6b 9b 40
       4.300901 13.775891 6.9392366 4.8569164
000020 c5 76 03 41 76 51 c2 40 43 66 30 41 dd 86 fe 41
       8.216496 6.072444 11.024966 31.815851
000030 65 8e bf 40 1d 9b 14 41 2b ef 8f 41 e8 d7 ab 41
       5.986132 9.287869 17.991781 21.480423

bn5.weight f4 [16]
000000 fc 39 bd 3f 41 34 85 3f e7 c6 93 3f ea d9 90 3f
       1.478332 1.0406572 1.1545075 1.1316502
000010 68 a3 85 3f 97 34 9e 3f 59 dc 98 3f a0 d5 88 3f
       1.0440493 1.2359799 1.1942245 1.0690193
000020 e3 b7 b0 3f a0 28 8d 3f cf 80 68 3f 7e 7b b8 3f
       1.3806118 1.1028023 0.90821546 1.4412687
000030 a5 78 a4 3f 08 34 89 3f da fe 99 3f bd 6f 99 3f
       1.2849318 1.0719004 1.20309 1.1987225

bn5.bias f4 [16]
000000 9f f5 11 bf 2b 5f b7 be 54 09 7f be 16 1a 34 be
       -0.57015413 -0.35814795 -0.24905902 -0.17588076
000010 ca 21 f7 3d 72 3c bd be a3 68 79 be 39 37 9f be
       0.120669916 -0.3696018 -0.24356322 -0.3109682
000020 9a d5 70 be 7b 49 2b be b9 a4 32 bd 97 60 ac be
       -0.23518983 -0.1672725 -0.043614123 -0.33667442
000030 44 64 79 be e5 70 45 bf dc 69 e7 be bc 95 e3 be
       -0.24354655 -0.7712539 -0.45197952 -0.44450176

bn5.running_mean f4 [16]
000000 4d b9 39 c0 0b 19 f0 3e a6 ea 29 be 98 96 dd bf
       -2.9019349 0.46894106 -0.16593418 -1.7311583
000010 40 47 9a 3f ff a1 28 c0 a4 df d1 c0 3d 2a 6e c0
       1.2052994 -2.6348875 -6.55855 -3.721328
000020 d4 4a 5f c0 8c 93 d3 c0 f5 09 dd be 44 09 66 c0
       -3.4889421 -6.611761 -0.4317166 -3.5943155
000030 11 c7 63 c0 0e 45 a2 3f 52 85 0b bf 7f bf 01 3f
       -3.559025 1.2677324 -0.54500306 0.50682825

bn5.running_var f4 [16]
000000 27 e9 45 41 64 35 45 41 55 0f 33 41 74 af 83 41
       12.369422 12.325535 11.191243 16.46067
000010 79 ba 04 41 fa 4d 9a 41 7b 27 96 41 eb d0 92 41
       8.295526 19.288074 18.769278 18.35201
000020 46 e6 ac 41 5b 1d 61 41 f2 e9 19 41 a3 79 8a 41
       21.612438 14.069667 9.619616 17.309393
000030 53 2b 56 41 dc ac 49 41 03 3f 53 41 58 08 b6 41
       13.385577 12.604702 13.202884 22.754074

bn6.weight f4 [24]
000000 27 7e 99 3f 1b bb af 3f 26 ae a2 3f 1e 70 a3 3f
       1.1991624 1.3728975 1.2709396 1.276859
000010 aa 76 cc 3f 07 6c c8 3f 32 3d b0 3f 36 75 b6 3f
       1.5973713 1.5657967 1.3768675 1.425452
000020 b8 9e a6 3f d1 ba cd 3f 44 ad 9b 3f 4a 7d 9f 3f
       1.3017187 1.6072637 1.2162251 1.246011
000030 9d 6f 8d 3f a9 de 9b 3f 00 92 93 3f 2a 0e b6 3f
       1.1049687 1.2177325 1.1528931 1.4223073
000040 72 a1 ad 3f f0 36 a6 3f 6e ef ae 3f 4d 63 b5 3f
       1.3564894 1.2985516 1.3666818 1.4170929
000050 f5 58 bf 3f 87 ca af 3f 3a 5c a5 3f 7b df aa 3f
       1.4949023 1.3733681 1.291877 1.3349451

bn6.bias f4 [24]
000000 12 35 24 bf 80 a1 55 bf fc b8 25 bf b4 8d 50 bf
       -0.6414348 -0.83449554 -0.6473539 -0.8146622
000010 d5 49 6b bf 5f 1a 4d bf 04 e4 10 bf a2 16 37 bf
       -0.91909534 -0.80118364 -0.56597924 -0.7151891
000020 7c 23 7b bf ef 51 49 bf ef b6 1c bf 65 e2 40 bf
       -0.9810102 -0.78640646 -0.61216635 -0.7534545
000030 32 a6 fb be f6 38 31 bf 4b 78 16 bf 88 8f 11 bf
       -0.49150234 -0.6922754 -0.587773 -0.56859636
000040 52 eb 0d bf 8d 19 e4 be fc 28 66 bf a6 d6 13 bf
       -0.55437195 -0.44550744 -0.8990629 -0.577494
000050 94 5a 47 bf e1 38 15 bf 72 da 36 bf 79 51 e0 be
       -0.77872586 -0.58289915 -0.7142707 -0.4381216

bn6.running_mean f4 [24]
000000 d1 8a 95 3f 98 c4 a2 bf d2 d4 71 bf 84 aa c4 3f
       1.1682988 -1.2716246 -0.94465363 1.5364537
000010 fc bd 54 bf 7d 60 0b c0 17 08 20 c0 28 51 61 bf
       -0.83102393 -2.1777642 -2.5004938 -0.8801446
000020 04 da fe bf 5e 0b bf bf 03 92 14 be 23 18 32 c0
       -1.9910283 -1.4925344 -0.14508824 -2.7827232
000030 db 76 1e bf 01 3f 88 bf ac 33 6f be 04 a6 42 bf
       -0.6190011 -1.0644227 -0.23359555 -0.7603457
000040 9b 73 41 3e a6 8a 49 c0 ab 27 fe 3d 62 19 86 3f
       0.18891756 -3.1490874 0.1240991 1.0476496
000050 55 84 9e 3f 48 98 63 c0 59 56 40 c0 17 ea 80 bb
       1.2384135 -3.5561695 -3.0052702 -0.0039341557

bn6.running_var f4 [24]
000000 02 f7 24 41 70 96 1a 41 8a 18 22 41 04 4d 0d 41
       10.310305 9.661728 10.130991 8.831303
000010 25 b3 39 41 2c 9d 50 41 13 32 1b 41 a0 9d 3b 41
       11.606236 13.038372 9.699725 11.725983
000020 bb b7 2d 41 ab 4a 33 41 1d 21 1d 41 76 c7 11 41
       10.857356 11.2057295 9.820584 9.1111965
000030 e2 70 1a 41 23 1d 2c 41 cc e7 01 41 4b 0c 21 41
       9.652559 10.757113 8.119091 10.065501
000040 4d 6f 29 41 bd cb 63 41 22 8e 23 41 4d 2c 1b 41
       10.589673 14.237241 10.2222 9.698316
000050 f2 85 bb 40 0f 36 f3 40 d3 fe 51 41 8f 10 6d 41
       5.8601007 7.600349 13.124713 14.816543

conv1d_1.weight f4 [4, 8, 1]
000000 60 d5 d3 3d d0 80 e2 be cb 65 7c 3f b5 54 b9 bc
       0.103434324 -0.442389 0.98592824 -0.0226234
000010 31 3c bd bd e2 22 3c 3e 03 97 33 3d 4f 6f 7b 3f
       -0.09239996 0.18372682 0.043845188 0.9821672
000020 31 6f 52 3f 70 15 6a bd 99 8a 64 3e de 8b 55 3c
       0.82200915 -0.05714935 0.22318496 0.013033835
000030 53 e3 e3 be 56 91 28 be 18 6f 82 bf 99 c0 ab be
       -0.44509372 -0.16461691 -1.0190153 -0.33545378
000040 65 db 40 be 0f 7b 24 3f 43 f1 8a bd b1 48 a4 3f
       -0.18833692 0.6425027 -0.06784298 1.2834684
000050 16 65 07 bf 73 97 1e 3d 02 64 5c bf 04 b9 68 3e
       -0.5288862 0.038718652 -0.860901 0.22726828
000060 e7 f3 b2 3e 23 12 35 3f 3a e9 99 3c 5f 4a c7 3c
       0.34951708 0.707308 0.018787969 0.024327455
000070 80 9e d9 bd a3 27 5b 3f db a7 79 3e b1 6f ef bd
       -0.106259346 0.85607356 0.24380438 -0.11691225

conv1d_1.bias f4 [4]
000000 29 b0 9f 3e 4e 76 bb be cc 63 41 3d f7 a9 64 be
       0.31189087 -0.36613697 0.047214314 -0.22330461

bn1d_1.weight f4 [4]
000000 da 72 b1 3f 35 52 73 3f 39 66 48 3f 40 8c 96 3f
       1.3863175 0.9504731 0.7828098 1.1761551

bn1d_1.bias f4 [4]
000000 48 41 12 3f 40 90 9a 3e c8 57 5c 3f 7d 82 9f 3e
       0.5713086 0.3018818 0.86071444 0.31154242

bn1d_1.running_mean f4 [4]
000000 0a 7b 9e 3f 12 36 6d bf 85 18 0a 3f 15 7a 36 3f
       1.2381299 -0.9266063 0.53943664 0.7128003

bn1d_1.running_var f4 [4]
000000 d9 2a 22 40 ad 17 2b 3f ea 17 81 3f de 24 7f 3f
       2.5338652 0.66833 1.0085423 0.9966563
