best_model.pth (torch, 32354 bytes, 38 tensors)

conv1.weight f4 [4, 1, 3, 3]
0	0x3f25f40f	0.6482553
1	0xbb91cf60	-0.00444977
2	0xbe9890e9	-0.29798058
3	0x3f6637ad	0.89928705
4	0x3ec572f7	0.38564274
5	0x3e5d471d	0.21609159
6	0xbf3c685e	-0.7359675
7	0xbe9c1487	-0.3048441
8	0xbcd0d675	-0.025492886
9	0xbee6171d	-0.4493951
10	0x3d69673f	0.05698323
11	0xbf100024	-0.56250215
12	0x3f09f5b0	0.53890514
13	0x3f1d99b3	0.6156265
14	0xbe09a7c4	-0.13442904
15	0x3f1f8325	0.62309486
16	0x3f073cc0	0.5282707
17	0xbef2909c	-0.47375953
18	0x3df6ce5a	0.12051077
19	0x3e808003	0.25097665
20	0x3e734fd7	0.23760925
21	0xbf4d8702	-0.8028413
22	0xbf13bc78	-0.57709455
23	0xbe37f5d5	-0.17964871
24	0xbee3a67c	-0.44462955
25	0xbee5ff40	-0.44921303
26	0xbf4437df	-0.7664775
27	0xbe061c7f	-0.13096808
28	0xbedc54b7	-0.43033382
29	0xbf32ec00	-0.6989136
30	0x3ebb5cd4	0.3659426
31	0xbe42bab8	-0.1901654
32	0x3e8f9b6b	0.28048262
33	0x3e858b2b	0.2608274
34	0x3ea0c175	0.31397596
35	0x3ef5c6f0	0.4800334

conv1.bias f4 [4]
0	0x3ddf5a70	0.109059215
1	0x3ea32465	0.31863704
2	0x3e5ca1b4	0.2154606
3	0xbeecbcbc	-0.46237743

conv2.weight f4 [8, 4, 3, 3]
0	0x3dcf8d92	0.10134424
1	0xbd47f25d	-0.04881512
2	0xbe16dea1	-0.14733364
3	0x3ec61056	0.38684338
4	0x3ea70a19	0.3262489
5	0xbd859ec4	-0.06524423
6	0x3ede602a	0.43432742
7	0x3ec51f02	0.3850022
8	0x3ed73cf7	0.420387
9	0x3c0515b2	0.008122848
10	0x3d021043	0.03175379
11	0xbc144b18	-0.009051107
12	0x3dd169c2	0.1022525
13	0x3e9bcc2c	0.30429208
14	0x3e474573	0.19460087
15	0xbe9f24ed	-0.3108286
16	0xbecb72bc	-0.39735973
17	0x3e493bcb	0.19651715
18	0xbe1e8a10	-0.15482354
19	0x3dfb7c1b	0.122795306
20	0xbee94de0	-0.45567226
21	0xbf009ef9	-0.50242573
22	0x3cc195be	0.023630973
23	0xbf006ba7	-0.50164264
24	0x3f29fecb	0.6640441
25	0x3eff79f4	0.4989773
26	0x3df60e4e	0.12014447
27	0x3e06bf77	0.13158976
28	0x3e0f6b9e	0.14005896
29	0x3e4e191b	0.20126764
30	0x3e223990	0.15842271
31	0x3ee611fd	0.449356
32	0x3eaa10f0	0.33216047
33	0xbeae60e4	-0.34058297
34	0xbe8460d2	-0.25855118
35	0xbe98bc22	-0.29831034
36	0xbea10622	-0.3144999
37	0xbe68cab4	-0.22733575
38	0x3e2bc258	0.16773355
39	0xbe8aed07	-0.27133963
40	0xbd00476d	-0.031318117
41	0xbe3b0e27	-0.18267117
42	0xbe70f9dc	-0.23532814
43	0x3e1a4efb	0.15069191
44	0x3c93182b	0.01795586
45	0xbda09a80	-0.078419685
46	0x3e808548	0.25101686
47	0xbe9a39cb	-0.30122218
48	0xbd9132d5	-0.070897736
49	0xbc091c10	-0.008368507
50	0xbed97a17	-0.4247596
51	0xbe2ddded	-0.16979189
52	0x3c112c8f	0.008860721
53	0xbdbbecf1	-0.09176052
54	0xbeceae3b	-0.40367302
55	0x3c77a76c	0.0151156
56	0x3ea485af	0.32133242
57	0xbe8c2407	-0.27371237
58	0x3d49cd06	0.04926779
59	0xbdba3985	-0.09093002
60	0xbf19f27a	-0.60135615
61	0xbf39edb2	-0.7262832
62	0xbf2e52f1	-0.6809531
63	0xbe0b39ac	-0.13596219
64	0xbf0a1917	-0.53944534
65	0x3d9f1ed5	0.077695526
66	0xbf5866ce	-0.8453187
67	0xbea8d003	-0.329712
68	0x3a6f184d	0.00091207476
69	0xbea167eb	-0.31524596
70	0x3f318aef	0.6935262
71	0x3f54de31	0.8315154
72	0x3e8d8a73	0.2764469
73	0x3dd699fe	0.104785904
74	0x3ef4190f	0.47675368
75	0x3eb6b2c9	0.35683277
76	0x3dea2d71	0.114344485
77	0xbeb1bcc6	-0.34714335
78	0xbd273e83	-0.0408311
79	0xbf86ab37	-1.0521001
80	0xbf1db31a	-0.6160141
81	0xbdc861cc	-0.09784278
82	0xbefef379	-0.4979513
83	0xbedbd2f5	-0.42934385
84	0xbf5fd9db	-0.87441796
85	0xbf9851c8	-1.1899958
86	0xba43ad46	-0.00074644794
87	0xbf815533	-1.0104126
88	0xbe14cd60	-0.1453147
89	0x3eac9db1	0.3371406
90	0x3ee5afcb	0.44860682
91	0x3dca9799	0.09892196
92	0xbe974f13	-0.29552516
93	0x3e7a36fd	0.24435039
94	0xbe817eed	-0.2529215
95	0xbdd687bb	-0.10475107
96	0xbcaca7e6	-0.021076154
97	0xbe875adb	-0.26436505
98	0xbe8b7a4f	-0.27241752
99	0xbe1f9863	-0.15585475
100	0xbe3f96f1	-0.18709923
101	0xbe8d9945	-0.27655998
102	0xbe0b739f	-0.13618325
103	0x3e82f87e	0.2558021
104	0x3ecf37a1	0.4047213
105	0xbe9e6ff5	-0.3094479
106	0x3d1d18e8	0.03835383
107	0x3eb77810	0.35833788
108	0x3db3a302	0.08771326
109	0x3e0b7847	0.13620101
110	0x3e0f4eda	0.13994923
111	0xbd681a9f	-0.056666013
112	0xbed85c6f	-0.4225802
113	0xbf2ca3fc	-0.6743772
114	0x3e501ab3	0.20322685
115	0x3d260a21	0.040537003
116	0xbe8d8b5b	-0.27645382
117	0x3cf4e654	0.029894985
118	0xbeab9b55	-0.33516946
119	0xbf041bfb	-0.51605195
120	0x3ec8fe2e	0.39256424
121	0xbda7a930	-0.08186567
122	0xbe5cd250	-0.21564603
123	0x3d41ec31	0.04734439
124	0x3e55e9f3	0.20890026
125	0x3e3e8a24	0.18607384
126	0xbf0257e3	-0.50915354
127	0x3eba4a4a	0.36384803
128	0x3d5005a1	0.05078662
129	0x3d992d03	0.074792884
130	0x3dfb496e	0.12269865
131	0xbea1c74b	-0.3159736
132	0xbf47bcc0	-0.78022385
133	0xbf4a3420	-0.78985786
134	0xbeade4f0	-0.33963728
135	0xbea804ad	-0.32816067
136	0xbe91984c	-0.28436506
137	0xbf02cd03	-0.51094073
138	0x3e2d2ddc	0.16912025
139	0xbd87591f	-0.066087954
140	0xbe98931d	-0.2979974
141	0xbe3d7155	-0.18500264
142	0x3f51c104	0.81935143
143	0xbef22d44	-0.4730016
144	0x3e8cb4fc	0.2748183
145	0x3d3f5fa8	0.046722084
146	0x3dfc247d	0.12311647
147	0x3e8b73d5	0.2723681
148	0x3d9ae957	0.07564037
149	0x3d14c49f	0.036320325
150	0x3e1f7e59	0.15575542
151	0xbd7c9859	-0.061668728
152	0xbe0e1eac	-0.13878888
153	0x3eb21f7a	0.3478964
154	0x3d812d09	0.06307418
155	0xbd6887a4	-0.056769982
156	0x3df11a39	0.1177258
157	0xbdb3fa43	-0.08787968
158	0xbe934c41	-0.28769115
159	0xbdda6532	-0.10663833
160	0xbee18260	-0.4404478
161	0xbecedf3c	-0.4040469
162	0x3c783bdf	0.015150993
163	0x3e2884b6	0.16456875
164	0xbe50051c	-0.20314449
165	0xbe58ade1	-0.2116008
166	0x3e2019e1	0.15634872
167	0xbec8475b	-0.3911694
168	0xbe9eae2f	-0.30992267
169	0x3cf14299	0.029450702
170	0x3e3d17e2	0.18466142
171	0xbcb5472f	-0.02212867
172	0xbe5f2c8d	-0.21794339
173	0xbd41015e	-0.047120444
174	0xbd3b599c	-0.045739755
175	0xbeb75163	-0.3580428
176	0xbe1d3c2a	-0.15354982
177	0xbf0eee23	-0.5583212
178	0xbf1e317b	-0.6179425
179	0x3bcded13	0.006284365
180	0xbf138915	-0.57631046
181	0xbdc04a76	-0.09389202
182	0x3eb4d333	0.35317382
183	0xbeeca26d	-0.4621767
184	0xbbe32b2e	-0.0069326377
185	0x3e45e872	0.19326952
186	0x3cbf6ce3	0.02336735
187	0x3eb484cd	0.3525757
188	0x3e4e4e07	0.20146953
189	0xbed333a1	-0.41250327
190	0x3df6a45e	0.12043069
191	0x3f07a9ce	0.52993476
192	0x3e9857ab	0.29754385
193	0x3e9b0298	0.30275416
194	0x3de9b095	0.114106335
195	0x3e03a08d	0.12854214
196	0x3dd17d9f	0.102290384
197	0x3e170a34	0.14749986
198	0xbf4aeae9	-0.79264694
199	0xbfae9545	-1.3639303
200	0xbf84a107	-1.0361642
201	0xbf1e622c	-0.6186855
202	0xbf8bf341	-1.093361
203	0xbe68446a	-0.22682348
204	0xbee4a566	-0.4465744
205	0xbed8fe35	-0.42381445
206	0x3dd1d818	0.10246295
207	0xbe53645b	-0.20643751
208	0xbd7401b7	-0.059571948
209	0xbe7a48c8	-0.24441826
210	0xbd84b7d3	-0.06480374
211	0xbe8ebad8	-0.27876925
212	0xbf0b13c4	-0.54327035
213	0xbe899a11	-0.26875356
214	0xbe9e978d	-0.30975
215	0xbd17ae68	-0.03703156
216	0x3d3ce701	0.04611874
217	0xbeb7f45d	-0.35928622
218	0xbebe0a88	-0.3711741
219	0x3e840dc0	0.2579174
220	0xbca897d7	-0.020580215
221	0xbeb0d663	-0.34538564
222	0x3eb1b608	0.3470919
223	0x3e95ef7e	0.2928428
224	0x3db3200c	0.08746347
225	0x3d534c79	0.051586602
226	0xbe676cc1	-0.2260008
227	0xbeb39496	-0.350743
228	0x3e20c7f6	0.15701279
229	0xbbbfadd4	-0.0058495793
230	0xbb4cfc77	-0.003127841
231	0x3db7b30f	0.089696996
232	0x3d5e4669	0.054266367
233	0x3e471fe1	0.19445755
234	0xbe7e742d	-0.24849005
235	0x3f52d07d	0.8234938
236	0xbcf63e9d	-0.030059153
237	0xbeb78782	-0.35845572
238	0xbe049b9c	-0.12949985
239	0xbf02c173	-0.5107643
240	0xbf23d2d4	-0.63993573
241	0xbf6ed64e	-0.93295753
242	0xbf6ca9db	-0.9244668
243	0xbd0672c3	-0.03282429
244	0xbdd10de4	-0.102077276
245	0xbe27f67e	-0.16402623
246	0xbded5d79	-0.11590094
247	0x3f8290b8	1.0200415
248	0x3e9178e9	0.2841256
249	0xbda144c3	-0.078744434
250	0xbe07b9a3	-0.13254409
251	0x3db68506	0.08912091
252	0xbf95db33	-1.1707519
253	0xbf89c553	-1.0763344
254	0xbe828627	-0.25492975
255	0x3d9d97bf	0.07694959

conv2.bias f4 [8]
0	0xbe0c6012	-0.13708523
1	0x3cf36475	0.029710988
2	0x3ddaf80d	0.10691843
3	0x3e1d0554	0.15334064
4	0xbdb92c99	-0.090417095
5	0xbe5836c4	-0.21114641
6	0x3e7deca6	0.24797305
7	0xbe1f26f1	-0.15542199

conv3.weight f4 [8, 4, 3, 3]
0	0x3f1230e2	0.5710584
1	0x3ef63ee6	0.48094863
2	0x3eb559f5	0.35420194
3	0xbd9b448b	-0.07581433
4	0xbd36c1b3	-0.04461832
5	0xbe25b4d7	-0.16182266
6	0xbe9bc3aa	-0.30422717
7	0xbe28da9a	-0.1648964
8	0xbeb1359b	-0.3461121
9	0xbdcc3975	-0.099718966
10	0x3e4b5580	0.19856834
11	0x3dc4cf70	0.09609878
12	0xbd55b76a	-0.05217687
13	0x3ea8c976	0.32966202
14	0x3e57d7b4	0.21078378
15	0x3e2f7273	0.17133503
16	0x3e43fc1c	0.19139141
17	0xbb294c40	-0.0025832802
18	0xbf2e2d0e	-0.680375
19	0x3e8f397c	0.27973545
20	0x3e1582c9	0.14600672
21	0xbea80e30	-0.32823324
22	0xbea63b34	-0.32467043
23	0xbe59dd0c	-0.21275729
24	0xbe71a510	-0.23598123
25	0xbebc8641	-0.36821178
26	0xbf0554e8	-0.5208268
27	0x3ec181fd	0.37794486
28	0x3ecbf04d	0.39831772
29	0xbd3f326d	-0.04667895
30	0x3d7d52da	0.06184659
31	0xbf2fa9d9	-0.6861854
32	0xbf55fe3d	-0.8359106
33	0x3c321654	0.010869581
34	0xbe4ad66a	-0.19808355
35	0xbf065733	-0.52476805
36	0xbe3bdd43	-0.18346123
37	0xbf51329d	-0.81717855
38	0xbe9751dd	-0.29554644
39	0xbea61a3c	-0.3244189
40	0x3de8538f	0.113440625
41	0x3f38d6b5	0.72202617
42	0x3e69173b	0.22762768
43	0x3e00302d	0.12518378
44	0xbe38d522	-0.18050054
45	0xbe9d97f4	-0.30779994
46	0x3d4cff72	0.0500483
47	0x3e7c7d1f	0.24657105
48	0xbc562bbf	-0.013071953
49	0x3ec69061	0.38782027
50	0x3de9867e	0.114026055
51	0xbe69bf21	-0.22826816
52	0xbdbbe4b6	-0.091744825
53	0x3e3d696f	0.18497251
54	0xbf4e132f	-0.8049802
55	0x3eef32d2	0.4671846
56	0x3f65d8f0	0.89784145
57	0xbeef0c99	-0.466893
58	0x3eba7c5b	0.36423
59	0x3f1db631	0.6160613
60	0xbedc8c9e	-0.43076032
61	0xbece08b8	-0.40241027
62	0x3e052fea	0.13006559
63	0x3f00e443	0.503483
64	0xbe83cd54	-0.2574259
65	0xbe64920c	-0.22321337
66	0x3dffb19c	0.12485048
67	0xbdde4f06	-0.10854916
68	0x3e7adb6f	0.2449777
69	0xbe3ca994	-0.18424064
70	0x3db27af2	0.08714856
71	0x3db46394	0.088080555
72	0x3da7394d	0.08165226
73	0xbdaa0466	-0.0830162
74	0xbf4aeef1	-0.79270846
75	0xbdb8c79e	-0.09022449
76	0x3e386092	0.18005589
77	0xbd8f3ab1	-0.06993616
78	0x3edcf605	0.43156448
79	0x3c87592a	0.016522009
80	0x3d570de3	0.052503478
81	0xbe8c5683	-0.27409753
82	0xbf022fda	-0.50854266
83	0xbf1eb411	-0.6199351
84	0xbe52c1b4	-0.20581704
85	0xbef545cf	-0.47904822
86	0xbe25b5a5	-0.16182573
87	0x3f40cda9	0.7531381
88	0x3f09f634	0.538913
89	0x3f3be6e8	0.7339921
90	0x3b8ea43e	0.0043530753
91	0xbee0f3e8	-0.43936086
92	0xbed9c610	-0.42533922
93	0x3e9d9ced	0.30783787
94	0x3e51096a	0.20413747
95	0xbe1ce8d6	-0.15323195
96	0x3ecbbe74	0.39793742
97	0x3e78714e	0.24261972
98	0x3d3cf6e8	0.046133906
99	0x3e8693d8	0.2628467
100	0x3e421b71	0.1895578
101	0xbda76473	-0.08173456
102	0x3da37c34	0.07982674
103	0x3e0e18e8	0.13876688
104	0xbe7eebf6	-0.248947
105	0xbe0dc4e8	-0.13844645
106	0xbe1c108b	-0.15240686
107	0xbd902dae	-0.07039963
108	0xbd66ad0b	-0.05631737
109	0xbc9cb8a4	-0.019131012
110	0x3dd2a85a	0.10286017
111	0x3e9b129e	0.3028764
112	0x3efbfa09	0.492142
113	0x3e8e87a0	0.2783785
114	0xbea7be73	-0.3276249
115	0xbebf1417	-0.37320015
116	0xbdc555c3	-0.096354984
117	0x3f46bd19	0.7763229
118	0x3f9139af	1.1345729
119	0x3ecd6375	0.40114942
120	0x3d97dbef	0.07414996
121	0x3ed3ad3d	0.41343108
122	0xbe7e5ffa	-0.248413
123	0xbf27e3ef	-0.65582174
124	0xbeac340a	-0.33633453
125	0xbf0073f3	-0.50176924
126	0x3be7abdf	0.007070049
127	0xbe8c2d37	-0.27378246
128	0xbe578980	-0.21048546
129	0x3e290f19	0.16509666
130	0x3e0f757f	0.14009665
131	0xbe96394f	-0.29340598
132	0x3f11907d	0.56861097
133	0x3e4f5bdb	0.20249884
134	0xbe99aadb	-0.30013165
135	0x3da3846b	0.07984241
136	0x3e8fe9ab	0.28107962
137	0x3e538fe4	0.20660359
138	0xbe1a5e8b	-0.15075128
139	0xbe3b45a0	-0.18288279
140	0xbea5a8ed	-0.32355443
141	0xbf09c1c2	-0.53811276
142	0xbe6608d3	-0.22464304
143	0xbc4cfd2b	-0.012511532
144	0x3d91b6ed	0.071149684
145	0xbf40c2e1	-0.7529736
146	0xbe8d74b3	-0.27628097
147	0x3e9ad7ef	0.3024287
148	0xbed81ac9	-0.42207935
149	0xbe4fc5ef	-0.2029035
150	0x3ea919ff	0.33027646
151	0x3ca9420a	0.020661373
152	0x3ceb79ea	0.028744657
153	0x3f2f9799	0.68590695
154	0xbe00c315	-0.12574418
155	0xbf2480fc	-0.64259315
156	0xbd51956e	-0.051167898
157	0x3eefe707	0.46855947
158	0xbe4d1a3a	-0.20029536
159	0x3c638c40	0.013888419
160	0x3e4fe7a4	0.20303208
161	0x3eb0efe1	0.34558013
162	0xbeaaa06c	-0.33325517
163	0xbe95b3cc	-0.29238737
164	0x3d9e16c4	0.07719186
165	0xbe9e0a5d	-0.30867282
166	0xbad4c754	-0.0016233721
167	0xbd06f6de	-0.032950275
168	0xbe716dfe	-0.23577115
169	0xbdb9f97c	-0.090807885
170	0x3e51f79d	0.20504613
171	0xbe571ed8	-0.2100786
172	0xbe871e92	-0.2639051
173	0x3ebf5340	0.37368202
174	0x3e9ae790	0.30254793
175	0xbf29e24c	-0.66360927
176	0x3ee75cef	0.4518809
177	0x3f359cc6	0.7094234
178	0x3e03a594	0.12856132
179	0x3d102cae	0.03519886
180	0xbde4ba2e	-0.111683235
181	0xbda931c4	-0.08261445
182	0x3d00826e	0.031374387
183	0xbe004cf0	-0.1252935
184	0xbe206cf4	-0.15666562
185	0x3e1fc2aa	0.15601602
186	0xbecf886f	-0.40533778
187	0x3db1e9ae	0.08687149
188	0x3eef9f02	0.46801
189	0x3d931a5e	0.071827635
190	0x3dcd1b48	0.10014969
191	0x3e85c555	0.26127115
192	0xbe14c8eb	-0.14529769
193	0x3ef1168e	0.4708752
194	0x3f0bf1ea	0.54666007
195	0xbf4d514e	-0.80202186
196	0xbdd317a8	-0.103072464
197	0x3f030b32	0.5118896
198	0xbe54d8e5	-0.20785864
199	0xbe2d363e	-0.16915223
200	0xbe16d72e	-0.14730522
201	0xbf1f7454	-0.6228688
202	0xbf144a04	-0.5792544
203	0x3e163817	0.14669834
204	0xbec4d01c	-0.38440025
205	0xbf70ab3b	-0.94011277
206	0xbf13149b	-0.57453316
207	0xbe0dfbb7	-0.13865553
208	0x3ec1bc9d	0.37839213
209	0x3ecb21e6	0.396743
210	0xbe3d8ac4	-0.18509966
211	0xbd14944e	-0.036274247
212	0x3ed3cb54	0.41366065
213	0xbf00e320	-0.50346565
214	0xbdf67531	-0.12034071
215	0xbd2f4bc3	-0.04279686
216	0xbf10fac4	-0.5663264
217	0x3e7e217b	0.2481746
218	0x3d88470a	0.066541746
219	0xbe93b320	-0.288476
220	0x3ec9c6d1	0.39409497
221	0x3edebacc	0.4350189
222	0x3cc722e1	0.024308624
223	0x3e85c93a	0.26130086
224	0x3e178863	0.14798121
225	0x3eb86952	0.36017853
226	0x3c25a6c6	0.010110563
227	0xbe831b9b	-0.25607
228	0x3e2479e5	0.16062124
229	0xbe15eabc	-0.14640325
230	0xbf086ae7	-0.5328812
231	0xbe8c5a3e	-0.274126
232	0xbf0a23f4	-0.5396111
233	0xbeb41026	-0.3516857
234	0xbe0bb998	-0.13645017
235	0xbd938db1	-0.0720476
236	0xbeb98cbe	-0.3624019
237	0x3ef8c909	0.48590878
238	0x3f159163	0.5842497
239	0xbf45eab4	-0.77311254
240	0x3c219520	0.009862214
241	0xbebb04e2	-0.36527163
242	0x3e52fb46	0.20603666
243	0xbebf64f9	-0.37381724
244	0x3e80814c	0.25098646
245	0xbe2b8f29	-0.1675383
246	0xbe9d9fb0	-0.30785894
247	0x3e806a1c	0.25080955
248	0x3ef45b33	0.4772583
249	0xbdbf0a60	-0.09328151
250	0x3dc1372b	0.094343506
251	0x3eac2eae	0.33629364
252	0xbe276ff7	-0.16351305
253	0x3caf83f1	0.02142522
254	0x3ecc4c14	0.39901793
255	0xbea1db0d	-0.31612435

conv3.bias f4 [8]
0	0x3cbc379f	0.022975741
1	0xbe29c288	-0.16578114
2	0x3cf05011	0.029335054
3	0x3d3edffe	0.046600334
4	0xbdf10a80	-0.11769581
5	0xbde0fb13	-0.109853886
6	0xbe1c8203	-0.1528397
7	0xbe323d0a	-0.17406097

conv4.weight f4 [12, 8, 3, 3]
0	0xbcb46978	-0.022022948
1	0xbd10ae70	-0.035322607
2	0xbefff391	-0.49990514
3	0xbf14708b	-0.57984227
4	0xbf903553	-1.1266273
5	0xbf38bf0c	-0.72166514
6	0xbf47e887	-0.78089184
7	0x3e42fde7	0.19042169
8	0x3f768117	0.96290725
9	0xbea96657	-0.33085892
10	0xbf35fdf5	-0.7109063
11	0xbf98fd44	-1.195229
12	0xbd5ae563	-0.053441416
13	0xbe31f7d1	-0.1737969
14	0xbf32b275	-0.69803554
15	0x3ec399bc	0.38203228
16	0x3e6ade26	0.22936305
17	0xbdbf3a30	-0.0933727
18	0x3de24a1f	0.11049294
19	0xbe2501bc	-0.16113943
20	0xbf00b3ec	-0.5027454
21	0x3ddc392c	0.10753092
22	0x3d2ebebf	0.04266238
23	0x3bf54ebe	0.0074861934
24	0x3cb416a2	0.021983448
25	0x3e3e5025	0.1858526
26	0x3e91788f	0.2841229
27	0x3eebe936	0.46076363
28	0x3e8b7952	0.27240998
29	0x3ecbb648	0.39787507
30	0x3e8cbadf	0.2748632
31	0x3de213df	0.11038946
32	0xbe5c155e	-0.21492526
33	0xbdc81b23	-0.09770801
34	0x3d8d161c	0.06888983
35	0x3e3fcca8	0.18730414
36	0x3de45d6e	0.11150633
37	0xbde26aa2	-0.11055495
38	0x3e5e170f	0.21688484
39	0x3dc30d96	0.09524076
40	0x3e79a80c	0.24380511
41	0x3e259bad	0.16172667
42	0x3d3ffaef	0.04687017
43	0x3e22d88a	0.15902916
44	0x3dc7b7dc	0.09751865
45	0xbe828d44	-0.25498402
46	0xbe9a93df	-0.30190942
47	0xbca2508e	-0.019813802
48	0xbd21e3ee	-0.03952401
49	0xbe519296	-0.20466074
50	0xbe40f5a3	-0.18843703
51	0x3de89fdc	0.11358616
52	0x3d33c9f0	0.043893754
53	0x3e9306e7	0.28716204
54	0xbf27da6a	-0.6556765
55	0xbe4f2bf1	-0.20231606
56	0xbd6a2eed	-0.05717366
57	0xbd6c2236	-0.057649814
58	0xbd50e044	-0.050995126
59	0x3f05cd8c	0.52266765
60	0x3e8b5174	0.2721058
61	0xbda694d2	-0.08133854
62	0x3e9163d5	0.28396478
63	0x3e866196	0.26246327
64	0x3ebcace8	0.36850667
65	0xbc8d290d	-0.017231489
66	0xbecad259	-0.39613608
67	0xbee651ec	-0.44984376
68	0x3b95032f	0.0045474987
69	0xbe162a4e	-0.14664575
70	0x3e07bccb	0.13255613
71	0x3ed648b7	0.41852352
72	0xbe9023f7	-0.2815244
73	0xbefb7204	-0.49110425
74	0xbee5c626	-0.44877738
75	0xbe7733cb	-0.24140851
76	0xbef81140	-0.4845066
77	0xbee8a30f	-0.45436904
78	0x3d1addcb	0.037809175
79	0x3e1d2a6f	0.15348218
80	0x3e988cd0	0.2979493
81	0xbf0d7db3	-0.55269927
82	0x3e7520e6	0.23938331
83	0x3e1d58e6	0.15365943
84	0xbdd265a1	-0.102732904
85	0x3de6183d	0.11235092
86	0xbe1355dc	-0.14388222
87	0x3e07b08e	0.13250944
88	0xbbfb4a56	-0.0076687736
89	0xbea4f488	-0.32217813
90	0x3e563adc	0.2092089
91	0xbcde1b71	-0.027112694
92	0xbd2808ec	-0.041024134
93	0x3ed0ebdf	0.40804955
94	0x3dac3f2e	0.08410488
95	0xbf0b8d5b	-0.54512566
96	0xbea18775	-0.31548658
97	0xbf17f583	-0.59358996
98	0xbe4259ec	-0.18979615
99	0xbf00acef	-0.50263876
100	0xbeadb9ed	-0.33930913
101	0x3e5e7113	0.21722822
102	0x3db40dd9	0.08791704
103	0x3e524471	0.20533921
104	0x3ed9e554	0.42557776
105	0x3ee8d119	0.4547203
106	0x3ebd3b83	0.36959466
107	0xbd41ecdc	-0.047345027
108	0x3f372b25	0.7155021
109	0x3e91db2b	0.28487524
110	0xbed8e11a	-0.4235924
111	0x3f5966e7	0.8492264
112	0x3d93db9a	0.0721962
113	0xbf19d970	-0.6009741
114	0x3e8bfb94	0.27340376
115	0xbf0e295e	-0.5553187
116	0xbe7798cc	-0.24179381
117	0x3f304551	0.6885577
118	0x3f0656db	0.5247628
119	0x3e4fc86d	0.202913
120	0x3f0af62e	0.5428189
121	0xbc667ac5	-0.0140673565
122	0xbd80c7af	-0.062880866
123	0x3dab8dc0	0.08376646
124	0xbd582ee9	-0.052779112
125	0x3d9ee198	0.07757872
126	0xbe8e29bc	-0.27766216
127	0xbd451aa0	-0.048121095
128	0xbb7c81db	-0.0038529548
129	0xbeb4bc0e	-0.35299724
130	0xbca6ac7b	-0.020345917
131	0x3f0cfd64	0.55074143
132	0xbf02e1ea	-0.5112597
133	0x3e9f14b2	0.31070477
134	0x3eeead6c	0.46616685
135	0xbe0790a5	-0.13238771
136	0x3d5c345b	0.053760868
137	0xbedddce4	-0.4333259
138	0x3e3cea9c	0.18448871
139	0x3e2df181	0.16986658
140	0xbe671182	-0.22565272
141	0x3d076f2e	0.033065014
142	0x3d9154dc	0.07096264
143	0x3d633ccf	0.055477913
144	0x3e458816	0.19290194
145	0x3f0f02c6	0.55863607
146	0xbc413169	-0.011791565
147	0xbe9d5405	-0.30728164
148	0x3df9ab91	0.12190927
149	0x3ef68fc7	0.48156568
150	0xbeff57b9	-0.49871615
151	0x3d2a1ebe	0.041533224
152	0xbd7e5465	-0.062092204
153	0xbe9880a4	-0.29785645
154	0x3d36db90	0.044642985
155	0x3e09623e	0.13416383
156	0xbe4f25ad	-0.20229216
157	0xbdf82476	-0.12116329
158	0x3edf64a7	0.4363148
159	0xbf124591	-0.571374
160	0x3dc2ec77	0.09517758
161	0x3f48c227	0.7842125
162	0xbe9fa31f	-0.3117914
163	0xbeaeb3d2	-0.34121567
164	0xbe46ab32	-0.19401243
165	0x3e015e14	0.12633544
166	0xbe35a5bf	-0.17739008
167	0x3e8399a1	0.25703147
168	0x3f07c623	0.5303671
169	0x3e7bf0cc	0.24603575
170	0xbbdfc7c6	-0.006829235
171	0x3f44e201	0.76907355
172	0x3d78d80c	0.060752913
173	0x3e6c57ff	0.23080443
174	0xbf05ae10	-0.52218723
175	0xbeb0f9b9	-0.34565523
176	0xbeaa7567	-0.33292696
177	0xbf671e2d	-0.9028042
178	0xbe38b553	-0.1803792
179	0x3e7d8fe4	0.24761921
180	0xbea2bf81	-0.3178673
181	0x3ee7f317	0.4530265
182	0x3d70ac29	0.058757935
183	0xbec8182e	-0.39080948
184	0x3ebb4149	0.36573246
185	0x3ead7bd0	0.33883524
186	0xbe3cc0fa	-0.1843299
187	0x3db24469	0.087044545
188	0x3d5bcde2	0.053663142
189	0x3ebc2754	0.36748755
190	0x3f15cd67	0.58516544
191	0xbe445638	-0.19173515
192	0xbd9eebe3	-0.077598356
193	0xbe31ceee	-0.17364094
194	0xbda1bdbe	-0.078975186
195	0x3f32cd72	0.69844735
196	0x3dfca918	0.123369396
197	0x3eb59532	0.3546539
198	0x3e838820	0.25689793
199	0x3f060401	0.5234986
200	0x3e66547d	0.22493167
201	0x3d8fdc90	0.07024491
202	0xbd8dc557	-0.06922405
203	0xbebcb272	-0.36854893
204	0xbe6f0b43	-0.2334414
205	0xbee19157	-0.44056198
206	0xbf1fed37	-0.62471336
207	0xbf0fe553	-0.56209296
208	0xbf7f6221	-0.9975911
209	0xbeff3fc3	-0.49853334
210	0xbf0df06d	-0.55444986
211	0xbf490522	-0.7852346
212	0xbe06b3c4	-0.13154513
213	0xbb47cfdf	-0.003048889
214	0x3e0c96b2	0.1372936
215	0x3ca85206	0.020546924
216	0xbf04212b	-0.5161311
217	0xbd16102f	-0.036636528
218	0x3e70b61f	0.23506974
219	0xbd2bb1ea	-0.04191772
220	0xbdfc8837	-0.123306684
221	0xbe86b142	-0.26307112
222	0x3e9fd493	0.3121687
223	0x3e6952fd	0.22785564
224	0xbd1e84bc	-0.038700804
225	0xbe3e467b	-0.18581574
226	0x3f037cb7	0.51362175
227	0x3e4cfcc9	0.20018305
228	0xbd3b2fae	-0.045699768
229	0x3dfa43ce	0.12219964
230	0x3e383d17	0.17992054
231	0xbe8e2a6f	-0.2776675
232	0xbeb3c51c	-0.3511132
233	0x3e848495	0.25882402
234	0x3ede0c83	0.4336892
235	0x3ef0e9ae	0.47053283
236	0x3f497ec1	0.78709036
237	0xbea88a2b	-0.32917914
238	0xbe0c5487	-0.1370412
239	0x3e77c9ce	0.24198076
240	0xbf8ad2b2	-1.0845549
241	0xbf0f6f7f	-0.56029505
242	0xbe99a3bb	-0.3000773
243	0xbe4a3347	-0.19746123
244	0x3e95a823	0.2922984
245	0x3e0496bd	0.12948127
246	0x3eb7ca73	0.35896644
247	0x3eb93c80	0.3617897
248	0x3f3e3d04	0.7431185
249	0xbd58bc08	-0.052913696
250	0xbb101432	-0.0021984694
251	0x3e83f539	0.25773028
252	0xbd1d31c0	-0.038377523
253	0xbe0b2a86	-0.1359044
254	0xbd19399a	-0.03740845
255	0xbe6093eb	-0.21931426

conv4.bias f4 [12]
0	0xbda62e0e	-0.08114253
1	0x3d4ad6be	0.0495212
2	0xbcf9b344	-0.030480988
3	0x3dfb54cf	0.12272035
4	0xbd5fd2c0	-0.054644346
5	0x3c684fa0	0.01417914
6	0x3cafd4bc	0.021463744
7	0xbddbd0ae	-0.10733162
8	0x3dd6b86d	0.10484395
9	0xbdbfab47	-0.093588404
10	0x3ca30690	0.01990059
11	0x3dad823c	0.08472106

conv5.weight f4 [16, 12, 3, 3]
0	0x3e997a4c	0.29976118
1	0x3ee6c288	0.4507029
2	0x3e421bc3	0.18955903
3	0x3dbdb971	0.09263886
4	0x3d4dd29a	0.050249673
5	0xbed10918	-0.4082725
6	0x3ef2cebb	0.47423348
7	0x3ec99416	0.39370793
8	0xbe1271f7	-0.14301287
9	0x3ef2f9b6	0.4745614
10	0x3e9c34c0	0.30508995
11	0x3dc8e75d	0.09809754
12	0x3dfce664	0.12348631
13	0xbd0b4008	-0.03399661
14	0x3d22f82b	0.039787453
15	0x3e45014a	0.19238773
16	0x3e4720d4	0.19446117
17	0x3eaca073	0.33716163
18	0xbe9ade3e	-0.30247682
19	0x3dbbc47b	0.09168335
20	0xbdc46c48	-0.095909655
21	0x3d87e5b9	0.06635613
22	0x3e5529ca	0.20816723
23	0x3e2a1770	0.16610503
24	0x3ebd97a0	0.37029743
25	0x3cc62834	0.024189092
26	0xbe5a7ce6	-0.21336707
27	0xbee1448e	-0.43997616
28	0xbef8f718	-0.48626018
29	0xbec909d9	-0.39265326
30	0x3e2b7865	0.16745146
31	0xbec8e966	-0.3924057
32	0xbed621f0	-0.41822767
33	0x3e728103	0.23682027
34	0xbe4cec2a	-0.20011964
35	0xbe93bcad	-0.28854886
36	0xbf248781	-0.6426926
37	0xbf3d8b22	-0.74040425
38	0x3d78023a	0.060549
39	0xbf0f8294	-0.5605862
40	0xbf0bbda0	-0.5458622
41	0x3e30a05f	0.17248677
42	0xbf371742	-0.71519864
43	0xbf32335a	-0.69609606
44	0xbea5b737	-0.32366344
45	0x3f428a3c	0.7599218
46	0x3ed87cae	0.42282623
47	0x3edee791	0.43536046
48	0x3ec062be	0.37575334
49	0x3ebab7f3	0.36468467
50	0x3e15459b	0.14577334
51	0xbedc5f1a	-0.43041307
52	0xbe5f93fa	-0.21833792
53	0xbea2e558	-0.318156
54	0xbe6d765e	-0.23189685
55	0xbebc9030	-0.36828756
56	0xbe8db84c	-0.2767967
57	0xbebe2bfa	-0.37142926
58	0xbdd28bf4	-0.102806
59	0x3ebb141d	0.36538783
60	0xbf05c051	-0.52246577
61	0xbe76b3aa	-0.24091974
62	0x3e0765c0	0.13222408
63	0x3e505657	0.20345436
64	0xbdd8367d	-0.10557268
65	0x3e9b87db	0.30377087
66	0x3e94baaf	0.29048678
67	0xbd3c70c2	-0.04600597
68	0x3e600772	0.2187784
69	0x3e670a86	0.22562608
70	0xbc13f422	-0.009030374
71	0xbdd17131	-0.10226668
72	0xbeb7a0be	-0.35864824
73	0xbe29f3fd	-0.1659698
74	0xbdfde7d3	-0.123977326
75	0xbed3880b	-0.4131473
76	0x3df15c31	0.11785162
77	0x3e8b287e	0.2717933
78	0xbec60474	-0.38675272
79	0xbddb7686	-0.10715966
80	0x3d239314	0.039935187
81	0xbdd92afe	-0.10603903
82	0xbe02376e	-0.12716457
83	0x3eb32a13	0.34993038
84	0xbe1fba22	-0.15598348
85	0xbb3b3b87	-0.0028569417
86	0x3e5b5449	0.21418871
87	0xbf2c7db2	-0.67379296
88	0xbf1d1104	-0.6135409
89	0xbf348222	-0.70511067
90	0xbee9fb92	-0.45699745
91	0xbe444a9f	-0.1916909
92	0xbf0a1794	-0.5394223
93	0xbef7e120	-0.48413944
94	0xbe84c53e	-0.25931734
95	0x3e310c84	0.1728993
96	0xbf040dcb	-0.51583546
97	0xbe876426	-0.26443595
98	0x3e63507e	0.22198674
99	0xbe814296	-0.25246114
100	0x3da36cee	0.07979761
101	0xbe8a07bf	-0.26959035
102	0xbe7fa83a	-0.24966517
103	0x3af6052d	0.0018769853
104	0xbee4c82c	-0.4468397
105	0x3dcb39d3	0.099231385
106	0x3ec70b64	0.38875878
107	0x3f054b33	0.5206787
108	0xbe91e1d1	-0.28492597
109	0xbf2143fe	-0.6299437
110	0xbee848ed	-0.45368138
111	0x3d8c163d	0.06840179
112	0x3e2d7f48	0.16943085
113	0xbdd7f14f	-0.10544073
114	0x3d76fea6	0.060301445
115	0x3dacaf94	0.08431926
116	0xbec465c6	-0.38358897
117	0x3f54b0a6	0.83082044
118	0x3f38e765	0.7222808
119	0xbdde961b	-0.10868474
120	0x3e8f260c	0.27958715
121	0x3e10c313	0.14136915
122	0x3e84c079	0.25928095
123	0x3e3a9d3c	0.18224043
124	0x3e780931	0.24222256
125	0x3f511b0e	0.8168191
126	0x3e67c5f1	0.22634102
127	0xbe5d5c64	-0.21617275
128	0xbe340e74	-0.17583638
129	0xbbe6ebda	-0.0070471587
130	0xbb89fbc0	-0.004210919
131	0x3ef3a245	0.4758474
132	0xbde3b61a	-0.111187175
133	0x3e9d6cd1	0.30747083
134	0x3ea4801c	0.3212899
135	0x3c712c7b	0.014720078
136	0xbe0bf05d	-0.1366591
137	0xbcb0000e	-0.021484401
138	0x3d058dd7	0.032605972
139	0xbeb4a73f	-0.3528385
140	0xbdc54c9a	-0.09633751
141	0x3f072524	0.5279105
142	0x3e73ee93	0.23821478
143	0xbdea1dc4	-0.114314586
144	0xbf0fb1b5	-0.56130534
145	0xbedde809	-0.4334109
146	0xbe1d7ecf	-0.15380405
147	0xbe874078	-0.26416373
148	0xbdc8428e	-0.09778319
149	0x3ddecec0	0.10879278
150	0xbec56584	-0.38554013
151	0x3dd652cd	0.10465012
152	0x3f0a8645	0.5411113
153	0x3e8f88f8	0.28034186
154	0x3f4ba305	0.79545623
155	0x3e4d4226	0.20044765
156	0xbf0d3480	-0.55158234
157	0xbd140e8d	-0.03614669
158	0xbed92d5d	-0.42417422
159	0xbefa6c03	-0.4891053
160	0xbe9239da	-0.28559762
161	0xbe8ff050	-0.2811303
162	0x3d473e9d	0.048643697
163	0xbeb23c2b	-0.3481153
164	0xbf48f3b9	-0.7849689
165	0x3e9faafb	0.31185135
166	0xbeadb79e	-0.3392915
167	0xbf27e764	-0.6558745
168	0x3e126c3a	0.14299098
169	0xbe931771	-0.28728822
170	0xbdd6cd26	-0.10488348
171	0x3db578dc	0.08860943
172	0x3e4ad527	0.19807874
173	0x3e210541	0.1572466
174	0x3e555f90	0.20837235
175	0x3e263311	0.16230418
176	0xbe37d515	-0.17952378
177	0x3ed20672	0.41020542
178	0x3dbadb4f	0.09123861
179	0xbeeed9c3	-0.46650514
180	0x3e6a74f6	0.2289618
181	0x3dd86d62	0.10567738
182	0xbef8c575	-0.48588148
183	0xbd281a8a	-0.041040935
184	0xbd986b6c	-0.07442364
185	0xbd8a9cda	-0.06768198
186	0xbea07453	-0.31338748
187	0xbcdbae64	-0.026816554
188	0x3eec6963	0.46174154
189	0xbdb7221b	-0.08942052
190	0x3ec0172f	0.37517688
191	0x3f2c2ee2	0.6725904
192	0xbef657ec	-0.48113954
193	0x3e5856e3	0.21126895
194	0x3ef2a3b3	0.47390518
195	0xbd62a80e	-0.05533605
196	0x3e48eb73	0.19621067
197	0x3ec8eb40	0.39241982
198	0xbf4fb22c	-0.81131244
199	0xbf2103c4	-0.6289637
200	0xbee52d42	-0.4476109
201	0xbe8bf2f2	-0.2733379
202	0x3df099c3	0.11748078
203	0x3e9b33a2	0.3031283
204	0x3dbf85e2	0.09351708
205	0x3ddb4470	0.10706413
206	0x3eaa5580	0.33268356
207	0xbebe1ea4	-0.37132752
208	0xbe3919e6	-0.18076286
209	0xbe9d582f	-0.3073134
210	0xbe0775ec	-0.13228577
211	0xbe8bdfaa	-0.2731908
212	0xbf0c44e1	-0.547926
213	0xbc97d463	-0.018533891
214	0xbe7b6720	-0.24551058
215	0xbf288c37	-0.6583895
216	0x3e0f6b54	0.14005786
217	0x3d818330	0.0632385
218	0xbb895d60	-0.0041920394
219	0x3ee87e52	0.45408875
220	0x3e496a75	0.19669516
221	0xbec07593	-0.37589702
222	0xbd5784e8	-0.052616984
223	0xbcf42251	-0.02980152
224	0xbe9cef5b	-0.30651364
225	0x3d97ec88	0.07418162
226	0x3dcb55fb	0.09928509
227	0x3da90fcc	0.08254966
228	0xbdb4462b	-0.08802446
229	0x3e43af8e	0.19109938
230	0x3e943f6b	0.28954634
231	0xbe5c7d2a	-0.21532121
232	0x3e0c74c6	0.1371642
233	0x3d460e52	0.0483535
234	0xbf8b8d32	-1.0902464
235	0xbf40f584	-0.7537463
236	0xbf091658	-0.5354972
237	0xbee8ec77	-0.45492908
238	0xbcf97779	-0.030452477
239	0x3e42fa8c	0.19040889
240	0x3edaa136	0.4270112
241	0x3e01f177	0.12689768
242	0xbd0a89a0	-0.033822656
243	0x3f2f65f1	0.68514925
244	0x3f2ba490	0.6704798
245	0x3f3c3655	0.73520404
246	0x3d85f9b4	0.06541768
247	0x3dd8ebe1	0.10591865
248	0x3eebc454	0.46048224
249	0x3c8d4873	0.01724646
250	0x3c6aa78b	0.014322172
251	0x3ebad076	0.36487168
252	0xbee89849	-0.45428684
253	0xbf28136e	-0.6565465
254	0xbfac98c9	-1.3484126
255	0x3f094977	0.53627723

conv5.bias f4 [16]
0	0xbc7588e1	-0.014986248
1	0x3d85c54d	0.06531773
2	0xbd71447f	-0.058903214
3	0xbd39949c	-0.04530774
4	0xbcd4fcca	-0.025999445
5	0x3cd7308d	0.026268268
6	0x3c753cb7	0.014968089
7	0xbd67332b	-0.056445282
8	0x3d94a15e	0.07257341
9	0x3db7a354	0.08966699
10	0xbdc2a393	-0.095038556
11	0xbd10caa6	-0.03534951
12	0x3c36ef88	0.011165507
13	0x3c6c6555	0.014428456
14	0x3d49d563	0.049275767
15	0xbde9ff0f	-0.11425602

conv6.weight f4 [10, 16, 3, 3]
0	0xbe9c3250	-0.30507135
1	0xbebcc40a	-0.36868316
2	0xbdaea144	-0.08526853
3	0x3d594629	0.053045426
4	0xbdde72e4	-0.108617574
5	0xbd7f190f	-0.062279757
6	0x3e9be5f3	0.30448875
7	0x3f1fbe85	0.62400085
8	0x3eecbf84	0.46239865
9	0xbe81dc76	-0.2536351
10	0xbe5eb42e	-0.2174842
11	0xbeb4a12f	-0.35279223
12	0x3dc287bd	0.09498546
13	0xbe8b65fc	-0.27226245
14	0x3f249701	0.64292914
15	0xbe65962d	-0.22420569
16	0xbeae26f8	-0.34014106
17	0x3e97ff15	0.296868
18	0x3e9d601d	0.3073739
19	0x3e3b3d02	0.18284991
20	0x3e3ef825	0.18649347
21	0xbf0ae08f	-0.542489
22	0xbf1233c2	-0.57110226
23	0xbefcb945	-0.493601
24	0xbe9c5d2d	-0.30539837
25	0xbe70643b	-0.23475735
26	0xbf2608fb	-0.64857453
27	0xbf0e253a	-0.55525553
28	0xbed2a9c8	-0.41145158
29	0x3dc3966e	0.095501766
30	0xbf0e3e52	-0.55563843
31	0xbeb5818c	-0.354504
32	0x3da5274b	0.08064135
33	0xbf26a047	-0.65088314
34	0xbf4ebe2f	-0.8075895
35	0xbea8fb51	-0.3300424
36	0xbd8be79d	-0.06831286
37	0xba8f5cae	-0.0010937655
38	0x3de022ca	0.109441355
39	0x3db8b12c	0.09018168
40	0xbe946a01	-0.28987125
41	0x3e7797e6	0.24179038
42	0xbd84ceb6	-0.064847395
43	0x3e5214be	0.20515725
44	0x3d703411	0.058643404
45	0xbdc54619	-0.09632511
46	0x3ebbbf34	0.36669314
47	0xbf307b55	-0.6893819
48	0xbeac0699	-0.33598784
49	0x3ebcc710	0.36870623
50	0xbf817e44	-1.0116658
51	0xbe939130	-0.28821707
52	0x3ee9c6c0	0.45659447
53	0x3e9222ab	0.28542075
54	0x3e8468c8	0.25861192
55	0x3e65bcc0	0.22435284
56	0x3e866482	0.26248556
57	0x3f079f9e	0.5297793
58	0x3ed19f4a	0.4094184
59	0xbefb85c1	-0.49125484
60	0x3ea6dbd7	0.325896
61	0xbf1718a2	-0.5902196
62	0xbe42fc62	-0.19041589
63	0xbe2ad810	-0.16683984
64	0xbda79845	-0.0818334
65	0xbdca6c6f	-0.09883963
66	0xbe728f82	-0.23687556
67	0xbe9c3a95	-0.30513445
68	0x3dd8db39	0.105886884
69	0xbe945a7a	-0.28975278
70	0x3df58504	0.11988261
71	0xbe2d34ff	-0.16914748
72	0xbe73e306	-0.23817071
73	0xbe5af6ae	-0.21383163
74	0xbe7cb637	-0.24678884
75	0xbeaee56e	-0.34159416
76	0x3db6af0b	0.089201055
77	0xbe23e7df	-0.1600642
78	0x3e9a577b	0.30144867
79	0x3efef436	0.49795693
80	0xbee895c7	-0.4542677
81	0xbe957584	-0.2919122
82	0x3ea2ba87	0.31782934
83	0xbeeb1ee4	-0.45922005
84	0xbf7be23b	-0.98392075
85	0x3eb57690	0.35442019
86	0xbe8745e7	-0.2642052
87	0xbf33b25f	-0.7019405
88	0x3f3012b1	0.6877852
89	0x3e948ed5	0.29015222
90	0xbedc9c06	-0.43087786
91	0xbd0760fd	-0.03305148
92	0xbf1701cb	-0.5898711
93	0xbf9d6693	-1.2296928
94	0xbe92143e	-0.2853107
95	0x3d5c0860	0.053718925
96	0xbdfc587a	-0.12321563
97	0x3dea6a04	0.11446002
98	0x3f5ef836	0.8709749
99	0xbe52614d	-0.2054493
100	0xbe86326e	-0.2621035
101	0xbeedc098	-0.46436
102	0x3e47cf8b	0.19512765
103	0xbe2fca53	-0.17167024
104	0xbfaf5f56	-1.3700969
105	0x3e88a1b7	0.2668588
106	0x3eac9f2c	0.33715189
107	0xbf73aa8b	-0.951821
108	0xbe3a6942	-0.18204215
109	0xbddddca1	-0.10833097
110	0xbf4e0b66	-0.8048614
111	0x3e99e7c3	0.30059633
112	0xbe87b34e	-0.26503986
113	0xbf51ce7d	-0.819557
114	0x3ed2241d	0.41043177
115	0xbe9a5f43	-0.30150804
116	0x3ed702bf	0.41994283
117	0x3ee2c514	0.44290984
118	0x3f0583f3	0.52154464
119	0xbf5d9054	-0.8654835
120	0xbe4f95b4	-0.20271951
121	0x3e1fe81a	0.15615883
122	0x3ed27d4d	0.41111222
123	0xbf843517	-1.0328702
124	0x3de143d0	0.10999262
125	0x3f188b1e	0.59587276
126	0xbe653b9f	-0.22386025
127	0xbbc99f5e	-0.0061530313
128	0x3f769c27	0.9633202
129	0xbe9e740b	-0.3094791
130	0xbdf925b8	-0.121653974
131	0x3f411c10	0.75433445
132	0xbdc962b2	-0.09833278
133	0xbef9bf27	-0.4877865
134	0xbf1a0230	-0.6015959
135	0xbe83f95d	-0.25776187
136	0xbe98aa5b	-0.2981747
137	0x3d96b51a	0.07358761
138	0xbd461c99	-0.048367117
139	0xbd0a3609	-0.03374294
140	0x3d82b9fc	0.0638313
141	0x3eb5791d	0.35443965
142	0x3d9f2a1b	0.07771703
143	0x3f14fcd2	0.58198273
144	0xbe998c9f	-0.29990098
145	0xbe404a70	-0.18778396
146	0xbe23bbc1	-0.15989591
147	0xbe401867	-0.18759309
148	0xbf31e3f5	-0.6948846
149	0x3e6e1ad5	0.23252423
150	0xbea3d7f0	-0.32000685
151	0xbd5d3e3a	-0.054014422
152	0x3cee17ae	0.029064026
153	0x3e83bdcd	0.25730744
154	0x3e9f744a	0.3114341
155	0x3edb15f4	0.42790186
156	0x3e2a8542	0.16652396
157	0xbebe4c63	-0.37167653
158	0xbf2b372a	-0.6688105
159	0x3e5131d2	0.20429161
160	0xbe849e9f	-0.25902268
161	0x3ecc023f	0.39845464
162	0xbf9afe48	-1.210885
163	0xbf88080e	-1.0627458
164	0xbf3bbd58	-0.7333579
165	0xbe8185ce	-0.25297397
166	0xbf82b41e	-1.0211217
167	0xbf77334f	-0.96562666
168	0x3ddfe86a	0.10933001
169	0xbe75b9bf	-0.23996638
170	0xbf267b1d	-0.65031606
171	0xbe24be9f	-0.16088341
172	0xbe114dba	-0.14189807
173	0xbe79e9df	-0.24405621
174	0x3d12824b	0.03576879
175	0x3d58d52d	0.052937675
176	0xbdb0704a	-0.086151674
177	0xbc14767c	-0.009061452
178	0xbf009e32	-0.50241387
179	0x3d095b38	0.03353426
180	0x3e635204	0.22199255
181	0xbdab3f6a	-0.08361705
182	0xbcf058e3	-0.02933926
183	0xbd4d2e65	-0.050093073
184	0x3e9d999e	0.30781263
185	0xbe3408f6	-0.17581543
186	0xbe1803be	-0.14845178
187	0x3d668200	0.05627632
188	0xbf8ed6e6	-1.1159332
189	0x3e092d66	0.13396224
190	0xbe91efb6	-0.28503197
191	0xbf10fe37	-0.566379
192	0x3efcfe22	0.49412638
193	0x3dbbfb58	0.091787994
194	0x3d503f86	0.05084183
195	0x3f1c41aa	0.61037695
196	0x3f03a54e	0.5142411
197	0x3f050432	0.51959527
198	0x3e3dea9f	0.18546532
199	0x3f0e192e	0.5550717
200	0x3ed01f9c	0.40649116
201	0x3e5203d7	0.20509277
202	0x3e9a0ed1	0.3008943
203	0x3e832d57	0.2562053
204	0x3f0b697f	0.5445785
205	0x3f0ecfbb	0.5578572
206	0x3d8683bc	0.06568095
207	0x3c945659	0.01810758
208	0xbe79e322	-0.2440305
209	0xbe9612cd	-0.2931122
210	0xbba5e765	-0.005062985
211	0xbf469dba	-0.7758442
212	0xbea0ba3a	-0.3139208
213	0xbdbf4019	-0.093383975
214	0xbf1e33b3	-0.61797637
215	0xbf0ae208	-0.54251146
216	0x3dff527d	0.12466905
217	0x3ed99a2f	0.42500445
218	0x3ed59c49	0.417208
219	0x3ebab1d8	0.3646381
220	0xbdf04a8a	-0.11732967
221	0x3ea11d03	0.31467447
222	0xbbc41519	-0.0059839603
223	0x3d475a97	0.048670378
224	0x3bcc68df	0.0062380875
225	0x3e63c820	0.2224431
226	0x3de779a3	0.11302497
227	0x3e434dc5	0.19072635
228	0x3e9fd8d9	0.3122013
229	0xbe430d37	-0.1904801
230	0x3d9a8265	0.07544402
231	0x3f161326	0.5862297
232	0xbd7ec317	-0.06219777
233	0x3d83d74c	0.06437549
234	0xbce7713d	-0.028252238
235	0xbeab4d0b	-0.33457217
236	0xbf1cb692	-0.6121608
237	0xbd61d5fb	-0.05513571
238	0xbf7ba548	-0.98299074
239	0xbf1911f4	-0.5979302
240	0xbd81ee99	-0.06344337
241	0xbe8078b4	-0.2509209
242	0xbea8f0d0	-0.32996225
243	0xbf37e5cf	-0.71835035
244	0xbf042a94	-0.5162747
245	0xbe71d227	-0.23615323
246	0xbf8e2192	-1.1103995
247	0xbee73b88	-0.45162606
248	0x3c948209	0.018128412
249	0xbef35275	-0.47523847
250	0xbefb1092	-0.4903608
251	0xbe6e365c	-0.23262924
252	0xbe61d201	-0.22052766
253	0x3e9195da	0.2843464
254	0x3e891c71	0.26779512
255	0xbf14a486	-0.5806354

conv6.bias f4 [10]
0	0xbe170cf9	-0.14751042
1	0x3e779861	0.24179222
2	0xbe85eec9	-0.2615874
3	0xbcd9b90e	-0.026577499
4	0x3e7d08c7	0.2471038
5	0xbd63acbc	-0.055584654
6	0xbe1625fb	-0.14662926
7	0x3e296d49	0.16545595
8	0x3e180e21	0.1484914
9	0xbd1725a6	-0.03690114

bn1.weight f4 [4]
0	0x3f823aba	1.0174172
1	0x3f5c5ead	0.86081964
2	0x3fe5c0dc	1.7949481
3	0x3f8eb702	1.11496

bn1.bias f4 [4]
0	0xbdfa30cd	-0.12216339
1	0x3e5ed422	0.2176061
2	0x3e5d9d61	0.21642067
3	0x3dbd9ae6	0.0925806

bn1.running_mean f4 [4]
0	0x3e20bbcb	0.15696637
1	0x3ebb3c58	0.36569476
2	0x3d59ee01	0.053205494
3	0xbee43816	-0.4457404

bn1.running_var f4 [4]
0	0x3fc02c6b	1.5013555
1	0x3fff3c19	1.9940215
2	0x40c6468c	6.1961117
3	0x3f9051ca	1.127496

bn2.weight f4 [8]
0	0x3f66fb79	0.90227467
1	0x3f7aa5a5	0.97909003
2	0x3fcfc073	1.6230606
3	0x3f84a57f	1.0363005
4	0x3f8cddb5	1.100516
5	0x3f8968f5	1.0735155
6	0x3f7db5fa	0.991058
7	0x3fb4cbd9	1.4124709

bn2.bias f4 [8]
0	0xbe3ea1d7	-0.18616425
1	0xbdaac257	-0.08337849
2	0x3e8e2bb7	0.27767727
3	0xbeb07f5c	-0.34472167
4	0xbca2c749	-0.019870417
5	0x3f099ce2	0.5375501
6	0x3ba48a4b	0.0050213686
7	0x3df301b4	0.11865559

bn2.running_mean f4 [8]
0	0x3f1c7f93	0.6113216
1	0xc030f070	-2.7646751
2	0xbffe0d27	-1.9847764
3	0xc01891f7	-2.383909
4	0xbfa9aa41	-1.3255082
5	0xc0a529fe	-5.161376
6	0xbfeee29d	-1.8662907
7	0xbedf39da	-0.43598825

bn2.running_var f4 [8]
0	0x40c4581b	6.135755
1	0x406d65b2	3.709332
2	0x41730cf2	15.19066
3	0x409a2a4b	4.8176627
4	0x408beea7	4.3728824
5	0x412b2d37	10.698539
6	0x40e03f22	7.0077066
7	0x41a8d719	21.105028

bn3.weight f4 [8]
0	0x3f9dedc1	1.2338182
1	0x3f754138	0.9580264
2	0x3f96e683	1.1789097
3	0x3f8c036f	1.0938548
4	0x3f9ea3a7	1.2393693
5	0x3f807619	1.003604
6	0x3f8b493e	1.0881727
7	0x3fc56d34	1.5423951

bn3.bias f4 [8]
0	0xbeceac04	-0.40365613
1	0xbcc512b9	-0.02405678
2	0xbe8c0e37	-0.27354595
3	0xbc8aafdd	-0.016929561
4	0xbedcc2a3	-0.43117246
5	0xbddca7f2	-0.107742205
6	0xbe51b36f	-0.20478605
7	0xbe2ad955	-0.16684468

bn3.running_mean f4 [8]
0	0xbf1da618	-0.61581564
1	0x3e16aa3a	0.14713374
2	0xbf08d332	-0.5344726
3	0x3f4aa80d	0.79162675
4	0xbcc02064	-0.023452945
5	0xbec5d6de	-0.38640493
6	0xbf374d96	-0.7160276
7	0xc0046e51	-2.0692332

bn3.running_var f4 [8]
0	0x40d028c5	6.5049767
1	0x409730b4	4.724695
2	0x40e2c63a	7.0866976
3	0x41220fbf	10.128844
4	0x409bf552	4.8736963
5	0x40ad1188	5.40839
6	0x409e1f50	4.9413223
7	0x40d3ccf0	6.618767

bn4.weight f4 [12]
0	0x3f88a89d	1.0676457
1	0x3f78d04f	0.97192854
2	0x3f9f41f2	1.2442
3	0x3f826abc	1.0188823
4	0x3fa24470	1.2677135
5	0x3fbe0cc7	1.4847649
6	0x3f7bfb35	0.98430187
7	0x3f9b8359	1.2149459
8	0x3f75c444	0.960026
9	0x3f9b91f4	1.2153916
10	0x3f803121	1.0014993
11	0x3f996238	1.1983099

bn4.bias f4 [12]
0	0xbebd4213	-0.36964473
1	0xbeabcdca	-0.33555442
2	0xbf04b8a4	-0.5184424
3	0xbe13348f	-0.14375518
4	0xbed13197	-0.40858147
5	0xbf30ad79	-0.690147
6	0xbddde2a7	-0.10834246
7	0xbebdbdf8	-0.37058997
8	0xbde38ecf	-0.11111223
9	0xbf1707a4	-0.58996034
10	0xbe9a28ed	-0.3010935
11	0xbf5c92d3	-0.86161536

bn4.running_mean f4 [12]
0	0xbf819502	-1.0123599
1	0x3e307249	0.17231096
2	0xbfad88b2	-1.3557341
3	0xbf033f98	-0.5126891
4	0xc02c0b9a	-2.688208
5	0xc00bdecf	-2.1854742
6	0x3e2c6882	0.16836742
7	0xc02b7df6	-2.679563
8	0x3f7dffbd	0.9921835
9	0xc0357b98	-2.8356686
10	0xbf81af39	-1.0131599
11	0xbf2df674	-0.6795418

bn4.running_var f4 [12]
0	0x40cf9cf0	6.4879074
1	0x4105b451	8.356523
2	0x4134b423	11.293979
3	0x4112158d	9.130261
4	0x411bf54d	9.747388
5	0x4135b9e9	11.357888
6	0x4183cd02	16.475101
7	0x417427a6	15.25968
8	0x41018405	8.094731
9	0x40fb702e	7.857444
10	0x410b9cd4	8.725788
11	0x40b77cce	5.733985

bn5.weight f4 [16]
0	0x3fc0a46b	1.5050176
1	0x3fbec43d	1.4903637
2	0x3fcc0901	1.5940248
3	0x3fcfdc10	1.6239033
4	0x3fcab43c	1.5836253
5	0x3fb6603b	1.4248117
6	0x3fb7be5d	1.4354969
7	0x3fe20acb	1.7659544
8	0x3fb0a951	1.3801671
9	0x3fc0a8c7	1.5051507
10	0x3fd209f7	1.6409291
11	0x3fdf2549	1.7433254
12	0x3faf2d87	1.3685769
13	0x3fc058e8	1.5027132
14	0x3fbfc2ba	1.4981301
15	0x3fa57939	1.2927619

bn5.bias f4 [16]
0	0xbe9ca99a	-0.30598146
1	0xbe7a0599	-0.24416198
2	0xbf0615e2	-0.5237714
3	0xbe8b1ed4	-0.27171957
4	0xbe915070	-0.2838168
5	0xbe546639	-0.2074212
6	0xbe141a87	-0.14463244
7	0xbedf6da8	-0.4363835
8	0xbe21113d	-0.15729232
9	0xbead576d	-0.33855763
10	0xbe9fb47e	-0.31192392
11	0xbc702762	-0.014657827
12	0x3c6ee502	0.014580967
13	0xbf07b513	-0.5301067
14	0xbefd3d13	-0.49460658
15	0xbd9df065	-0.07711867

bn5.running_mean f4 [16]
0	0xc01a824c	-2.4142027
1	0xbf6e675f	-0.9312648
2	0xbfe35c32	-1.7762511
3	0xbf6906c5	-0.91025954
4	0xc08398af	-4.112388
5	0x4007c6c3	2.1215065
6	0xc071fed9	-3.7811797
7	0xc041698e	-3.0220675
8	0xbf80508d	-1.0024582
9	0xbf14c474	-0.58112264
10	0xbfc73756	-1.5563762
11	0xbe826422	-0.2546702
12	0xbf118676	-0.56845796
13	0xc064a1b8	-3.5723705
14	0xc0237814	-2.554204
15	0xbf911b64	-1.1336484

bn5.running_var f4 [16]
0	0x4110d744	9.052555
1	0x40ebd694	7.3699436
2	0x41230c78	10.190544
3	0x4127efb8	10.496025
4	0x40fe6e94	7.9509983
5	0x40c9d241	6.3069158
6	0x411e3a5e	9.88925
7	0x4111a3d1	9.102494
8	0x4132e041	11.1797495
9	0x40f709e7	7.719959
10	0x410c9bee	8.788069
11	0x4137af90	11.480362
12	0x40fbf700	7.8739014
13	0x4104d3b4	8.301685
14	0x40cd71dc	6.420149
15	0x41377e57	11.468345

conv1d_1.weight f4 [4, 8, 1]
0	0x3ee4898c	0.4463619
1	0xbee6750d	-0.45011178
2	0xbe8e8f70	-0.2784381
3	0xbee676e1	-0.45012572
4	0x3eb29c62	0.34884936
5	0x3ee52ee1	0.44762328
6	0xbe706d98	-0.23479307
7	0xbf500461	-0.8125668
8	0x3e730f10	0.23736215
9	0x3eb5afc9	0.35485676
10	0xbf3b622a	-0.7319666
11	0x3ede4f6f	0.43419978
12	0xbf0ff829	-0.5623804
13	0xbe581822	-0.21102956
14	0x3f121610	0.57064915
15	0xbed2c065	-0.4116241
16	0xbd37efeb	-0.044906538
17	0x3f06fbdd	0.5272806
18	0x3fab6ed0	1.3393192
19	0x3d23ffec	0.040038988
20	0xbe4d7c5d	-0.20066972
21	0xbeb6e02a	-0.357179
22	0x3e047872	0.12936571
23	0x3e7fd0bc	0.2498197
24	0xbec883eb	-0.39163145
25	0x3e5c5e5c	0.2152037
26	0xbe91e603	-0.28495798
27	0xbec8ecc4	-0.39243138
28	0xbedc2fab	-0.43005118
29	0x3f52a787	0.82286876
30	0xbe5908a8	-0.21194708
31	0xbf18f1b1	-0.5974379

conv1d_1.bias f4 [4]
0	0xbe7d9f16	-0.24767718
1	0xbd147b94	-0.036250666
2	0x3e54e7f2	0.20791605
3	0xbafe6498	-0.0019408641

bn1d_1.weight f4 [4]
0	0x3f86b6c5	1.0524527
1	0x3f8ed24f	1.1157931
2	0x3f93fe5e	1.1562002
3	0x3f8d00a2	1.1015818

bn1d_1.bias f4 [4]
0	0x3e98de23	0.29856977
1	0x3f107fb3	0.56444854
2	0xbe3f866a	-0.18703619
3	0x3d05dce1	0.03268135

bn1d_1.running_mean f4 [4]
0	0xbf6da8b7	-0.92835563
1	0xbf5ed3db	-0.87042016
2	0x3fe2d087	1.7719887
3	0xbf10f69b	-0.5662629

bn1d_1.running_var f4 [4]
0	0x40019381	2.024628
1	0x3fccea18	1.600894
2	0x3fec704b	1.8471769
3	0x3f96f024	1.1792035
