best_model.pth (torch, 50402 bytes, 54 tensors)

conv1.weight f4 [4, 1, 3, 3]
00000000: a21d f3be cff9 bb3d 96a0 a3be 3260 a1be
00000010: 426d d83e 678a 00be 63d6 be3e 0ae9 ebbc
00000020: 10eb 1c3d 0ff2 913e 2a84 873e 3e3e c53e
00000030: 8795 863e 4990 89be 1b7a 8fbe 43b4 62be
00000040: 6970 8cbe 5633 f83b b79d 613e 0e61 b6be
00000050: 2fea b4bd 573a 223e 6352 94be 7126 cebe
00000060: 790d dd3e 3649 97be 1c67 9abb b7ab 773e
00000070: d870 c33e 9849 383e 40d1 cdbe 111e 363e
00000080: eac6 aa3e f551 fabe e882 a1bd ea55 4f3e
-0.47483546 0.091785066 -0.31958455 -0.31518704 0.42270857 -0.12552796 0.3727294 -0.028797645
0.03831011 0.2850499 0.2646802 0.3852405 0.26285955 -0.26867893 -0.28022847 -0.22139077
-0.27429512 0.007574479 0.2203282 -0.35620922 -0.088337295 0.15842567 -0.28969106 -0.40263703
0.4317434 -0.29548043 -0.0047119986 0.24186598 0.3817203 0.17996824 -0.40198708 0.17784907
0.33354884 -0.48890653 -0.078862965 0.20247617

conv1.bias f4 [4]
00000000: 7090 38be 86f6 7bbe 70be 393e 9005 de3d
-0.18023849 -0.2460576 0.18139052 0.10840905

conv2.weight f4 [8, 4, 3, 3]
00000000: 6d38 b33d 9297 5dbe 1d5b 76be 426b 873e
00000010: 3e1c c93e c04a 033c 6fb1 99be 557e 863d
00000020: 77e3 573e 246f 613e 25a2 05be c1fc 4d3e
00000030: 3422 38be 11bf cebe 18c7 23be 0529 58be
00000040: d0b9 20be a80f 89be 1917 873d f489 063e
00000050: 4b02 90be 0027 adbc 1a4e 2bbe a595 42bd
00000060: c70a eabd f63e 193e 2845 113d facd 1ebe
00000070: 3b8d 6dbe 5267 16be dbff 7ebe fe5f bdbe
00000080: 8c6e ecbe b5c5 89bd 172c 32bd 5427 67be
00000090: 3b89 803d 683f adbd 1a6a 043d 383d 25be
000000a0: e8a3 edbe f11a a73d 84f1 553d 3382 503e
000000b0: b623 953e fe68 fa3b 39a6 82be 733f d2be
000000c0: 867e a53e 9f1b 313d 5df9 8cbd 7ce9 073d
000000d0: c6d8 d43d e0c0 ee3d 95e2 b63d 1cf5 643d
000000e0: 7425 25bd ae60 323c 4880 01bd 9a2f bfbd
000000f0: a126 a9bd 5c36 b13b f45c b63d 18dd d1bd
00000100: d694 59bd f3ee 843c 1c78 003f fbcb a63d
00000110: f5ce fa3e bc6e 353e fa59 5cbe b833 28bd
00000120: 1bed 70bd 67f7 5e3e d19f dd3e 8f55 c83e
00000130: b937 2f3e 5e0b d93d 253f fc3d ab01 36bd
00000140: 9519 393e 2a45 bebd 2845 86be b60a 58be
00000150: ce6a 4abd cc96 323e 0a49 edbb 386b db3e
00000160: 8030 4a3e 05b9 e93d 5066 76be 0df1 5fbe
00000170: bec6 02bf 6da1 cdbe 4456 8dbd 5638 0abf
00000180: 78b0 f4be 5831 2e3d 254a cebe 56d5 a4bd
00000190: 7618 51be 5e2c fcbb 4903 2abe cbe9 66be
000001a0: 4bd0 163c b932 36bd 65c8 91bd d6cb 203e
000001b0: 742b 5c3d 1879 d33d f8e9 2fbd 2860 8cbd
000001c0: 86b3 1abe f9a8 30be e443 5f3e acdb 863e
000001d0: fbee 783e 0fd6 30be 322f a0be a18b 93be
000001e0: 7638 833e 77bf 0cbe 13ec 6dbe d373 b53d
000001f0: 60d6 3a3e 5269 0abd 173b 2cbe 368d a93e
00000200: a70d 6d3e 3a91 afbe a028 c1bd fd93 b9bd
00000210: 8f84 8abe 0008 25be 97ec 90bd 166a 91bd
00000220: b06f adbd e0f4 bdbe 183f d73d 190f 7b3d
00000230: 77ad 68be b1a0 213e 320e d73d 290a 043f
00000240: 74fd 6c3e 70aa 523e 8d7b 0abf d9f4 c93e
00000250: be27 14be 38fa 34be 1ace d13b 93d1 bebe
00000260: 6c15 0eba 9146 19bf bcf2 ab3c 81d6 933e
00000270: a5ea 13be 4deb eb3e 6625 d03c 7286 163f
00000280: 0fbc 433e 4863 d6be 94bf b6be 3f9f 213c
00000290: 2e77 6b3e 0b83 04be 6fdf c93c c564 563e
000002a0: cb0a 3b3d 7bc8 0bbb d0d2 b43d 7a8a 3abc
000002b0: 3ceb e4bd d7f6 f2bd 063f 32be a28c 40bd
000002c0: 70b9 8d3e d369 4bbe 5762 ffbc d538 493d
000002d0: bded ebbd 5a44 1fbe d81e a9bd 1ea3 b13d
000002e0: 29c1 ad3c 15cd b9bc 31f0 55be 870c d03d
000002f0: 1670 2b3d 8e60 1cbe b632 bebd 5b3e 6c3e
00000300: 8e56 96bd 3ad3 83be cdb8 cbbd 49db 16be
00000310: 071f c1bd 9967 37be d98f bebe 3a93 e93d
00000320: 20f6 663e 9841 a6be 0950 9dbc 719a 2c3e
00000330: 6a3b 71be af8d 0e3e b262 463e 0424 0b3e
00000340: 075d 5a3e f650 f5bd ebc0 f53e 8090 45be
00000350: 7801 a3bd f230 5fbd 44b7 e83e b2e2 b03e
00000360: fbdc 5ebe f6b6 303d 93e8 40be 4a70 743c
00000370: b78f 313e 7a0a 59bd cc09 6abc 022c 1c3e
00000380: 5627 19be 05e6 583e 2ca6 95be 3b30 3ebe
00000390: 121d c03b 76a3 99be 6dfa 32be 8e14 a93b
000003a0: 2ff0 7dbc b3ce 98bd d30f 0abe 02ac b9be
000003b0: d432 d03b 52fe 1fbf 2c04 4cbf 3d23 b6be
000003c0: 51be 41bf 6587 e5be 2008 5f3d d04e 493d
000003d0: 3357 c23d be33 11be 6d06 ffbd e1c7 db3c
000003e0: 05c6 40be a611 2e3e 8a92 90be d678 b13e
000003f0: fe99 9dbe fa9f 9cbe 5399 d1bd 549c 833d
0.08750997 -0.2163985 -0.24058194 0.2644902 0.3927936 0.008013427 -0.30018184 0.06567065
0.21082865 0.22015053 -0.13050134 0.20115949 -0.17981797 -0.40380147 -0.15993917 -0.21109398
-0.15695882 -0.26769757 0.065962024 0.13138562 -0.2812675 -0.02113676 -0.16729012 -0.047505993
-0.11427837 0.14965424 0.035466343 -0.15508261 -0.23198406 -0.14687851 -0.24902289 -0.369873
-0.4617809 -0.06727163 -0.04349908 -0.22573596 0.06276175 -0.084593594 0.03232775 -0.16136634
-0.46414113 0.081594355 0.05223228 0.20362167 0.29128808 0.0076419106 -0.25517443 -0.41064033
0.32323092 0.043239232 -0.068835 0.033181652 0.10392909 0.11657882 0.08929936 0.055897817
-0.04031892 0.010887308 -0.03161648 -0.09335251 -0.08259321 0.0054080915 0.08904448 -0.102472484
-0.053120457 0.016227221 0.5018327 0.08144375 0.4898602 0.17718023 -0.21518698 -0.041064948
-0.05881987 0.21774064 0.43285993 0.39127776 0.171111 0.10597871 0.12316731 -0.044435184
0.18076165 -0.09290536 -0.26224637 -0.21097836 -0.049418263 0.17440337 -0.007241373 0.4285524
0.19745064 0.11412243 -0.24062467 -0.21869297 -0.51084507 -0.4016222 -0.069012195 -0.5399221
-0.47790885 0.042527527 -0.40290943 -0.08048503 -0.20419487 -0.0076957187 -0.16602816 -0.22550122
0.009204934 -0.044481967 -0.071183 0.15702757 0.053752378 0.10325831 -0.04294774 -0.06854278
-0.15107545 -0.17251958 0.21803242 0.2633947 0.24309914 -0.17269157 -0.31286007 -0.28817466
0.25629014 -0.13744913 -0.23234586 0.08859982 0.1824584 -0.033791848 -0.16819416 0.33115548
0.23149739 -0.34290487 -0.09431577 -0.0906143 -0.2705426 -0.16116333 -0.07076376 -0.071003124
-0.08468568 -0.37100887 0.10510081 0.061293695 -0.22722422 0.15783955 0.105007544 0.51578003
0.2314356 0.20572829 -0.54094774 0.39444616 -0.14468285 -0.17673576 0.006402743 -0.37269267
-0.0005420062 -0.598733 0.020989768 0.2887459 -0.14444979 0.46077958 0.025408458 0.587989
0.19114707 -0.4187262 -0.35693038 0.009864627 0.22994682 -0.12940614 0.024642674 0.20936878
0.04566459 -0.0021329212 0.08829272 -0.011385554 -0.1117768 -0.11863487 -0.17406854 -0.047009118
0.2768054 -0.19864587 -0.031174822 0.049126465 -0.11519954 -0.15553418 -0.08257836 0.0867369
0.02121027 -0.022680799 -0.20892407 0.101586394 0.04185494 -0.15271208 -0.09287016 0.23070662
-0.07340728 -0.2574709 -0.09947357 -0.14732088 -0.09429746 -0.17910613 -0.37219122 0.11405034
0.22554827 -0.3247192 -0.019203203 0.1685579 -0.23557821 0.13921236 0.19373587 0.13587958
0.2132455 -0.11978333 0.47998747 -0.19293404 -0.079592645 -0.054490037 0.4545232 0.34547955
-0.21763985 0.043143235 -0.1883872 0.01491935 0.17339979 -0.052988507 -0.014284562 0.15251163
-0.14956412 0.21181495 -0.29228342 -0.18573086 0.0058628405 -0.30007523 -0.17478342 0.005159921
-0.015499159 -0.074613 -0.13482599 -0.36264044 0.0063537154 -0.62497437 -0.79693866 -0.3557376
-0.75681025 -0.4482986 0.054451108 0.049147427 0.09489288 -0.14179894 -0.124523975 0.026828708
-0.18825538 0.1699892 -0.282368 0.34662503 -0.3078155 -0.30590802 -0.102343224 0.064263016

conv2.bias f4 [8]
00000000: dc01 4fbd bc72 663b d70a a3bd e56e f5bd
00000010: 7a0c ae3d 8923 21bd 8fd1 333d fe9b 353e
-0.050538883 0.0035163602 -0.07961052 -0.11984042 0.084984735 -0.03934053 0.043901023 0.17735288

conv3.weight f4 [8, 4, 3, 3]
00000000: abce 95be d844 c4bc cec7 7b3e 79e5 5fbe
00000010: 2f0e 55be b69f fbbe b273 95be 0657 fd3d
00000020: e93c 033e ef75 00be fc91 b9bd a9ed f1bd
00000030: 7aea ab3e e533 5d3c a64e babe 2567 03bd
00000040: c362 c73d da73 573e eb5a 45be 2ac6 98bd
00000050: 3f56 40bd dae8 37bd 283f 2fbe afd0 903e
00000060: 8c71 4c3e 8bed 89be 293b 41be e482 04be
00000070: 3610 61bd 0cdf 023e 76cb 30be 973d a6bd
00000080: 73b1 14be 9ba3 93be c2da a1be 2aa2 98be
00000090: 56cc 983e 2cf2 563e 6683 443e 3528 9d3e
000000a0: d2f7 17be 8bdb 3fbe 9be2 3cbe da4a 97be
000000b0: e719 ccbe fd47 6dbd 364f dfbc 7009 a23e
000000c0: 3672 bcbd a8a8 89bc ef7d 0b3e 8590 6abe
000000d0: a198 253d d1e3 703e f51b 51bc 70f5 5f3d
000000e0: 3445 6ebe b417 2ebe f2f0 12bd d04e cebd
000000f0: ccb1 b03e 5fb1 783e 842f 75be c6bb cdbc
00000100: 375a 003e 08b9 573e c21a cebe 3339 5fbe
00000110: 1af0 eebb a38d 5bbe abec 5cbe 3589 47bd
00000120: 8748 993c d0ed 933d bf5d 75bd 6d63 22be
00000130: eb17 f63d c20c 5d3d 3823 883d 1fe2 e0bd
00000140: 2e4b cc3c 77d4 ad3e be9a 8dbd 7c2a b7be
00000150: 8cd0 423e 0001 2dbe 84b4 3c3c 0926 f83e
00000160: 4d18 9e3e 3079 be3d e915 05be c891 043e
00000170: e7f2 ea3e d5b1 273e b70a 32be 911c 2dbd
00000180: 7e50 d2be e8fd 05bf ec08 8fbe a115 523e
00000190: b121 a63d 34b3 5fbd 8a30 1a3e c2d7 b13d
000001a0: 8263 62bd bd31 9b3e eec3 bb3e e956 ce3e
000001b0: b054 173c 12e7 00bd 6e89 65be bf97 3ebd
000001c0: 8a83 13be 2711 a53e 7a76 50be 4755 9dbe
000001d0: 4f0f 063f b324 c33d e030 873d b549 533e
000001e0: 7ecc 053d f062 27be 9dda 243e 35cf 4ebe
000001f0: 859f 86be 449a 063e 7d6e eebd e01a cc3d
00000200: ca67 983e 5859 1ebe 6980 af3d f187 1abe
00000210: 7d77 84bd d6dd 303d b4cb 1ebf e298 9f3c
00000220: a512 c13d a3d5 82bd ee9b 893c 7392 f5bc
00000230: 7f1e 06be 8b6f 033f 9872 08be f2c6 843e
00000240: 0945 febd 7ce5 49be 4d46 01be 50ae ff3b
00000250: ba70 19be 8202 573e 0485 8e3e 67e5 76be
00000260: 5296 e4bd 82c5 023e 9742 e23d 721a 9bbe
00000270: 2013 873d 4095 d33e 4e30 9b3e eae4 05be
00000280: 8c5f 02bc c9be fc3c 5cff 4fbe d0a8 8bbe
00000290: ce89 933b 5ba8 fabd c1a5 07be d6fc 86bd
000002a0: ff62 8c3e adf2 973e b962 0a3c ad83 323e
000002b0: f3bd f5bc 6f73 e8bd 6c6e 133e b31f a03d
000002c0: f7f5 41be e41d 43bd 728e 05bc 2262 c03d
000002d0: d2e2 11be 89cc 82bd 3138 a7be b79e 933e
000002e0: cd23 4a3e 4bbd d1be 48f4 8d3e c0fe 873e
000002f0: 9459 b13c 0b31 3abd 4ee6 81bd dd10 823d
00000300: 5eb3 b8bb 2103 10be 406e 1b3e 8046 123e
00000310: 9c38 b23d b178 1e3d 18e0 14be aed3 93be
00000320: 9b3f 1dbe 50c8 9fbe 79ee 943d 003b 5c3e
00000330: 2236 03bf bed7 25be e566 57bd 5b4b ab3e
00000340: b09d aa3e a224 bc3e 7817 d9bd 6f06 823d
00000350: bae8 273d 4685 3abe 3f67 06bf 2c09 9abe
00000360: 0ed0 97be 821e dfbe b4b5 8bbe 52ab 95bc
00000370: 04c0 803e ea5c a73a 7344 c23d 16f1 cd3d
00000380: 5d76 0e3e f4f5 cbbd 0b19 5cbe 2cc4 d0be
00000390: fb36 913e 0444 923d e1c3 11be 2e8d 713e
000003a0: 57c3 03bc 7d88 863d e9e4 bb3e e336 c93e
000003b0: 1817 963e 72d4 edbc 9326 62be a68f ebbd
000003c0: f5c6 453e e8cf eabd de5d 2f3d 5dee 023d
000003d0: bf5e e73c cb36 52be d9e3 afbd 41cb 34be
000003e0: 01b3 9cbe 0b83 ce3e af73 fa3d 0082 c33d
000003f0: 410a 9c3e 9f74 b03e 4d96 bbbd 84b3 9d3d
-0.29259238 -0.023958609 0.24587938 -0.2186488 -0.20806192 -0.49145287 -0.2918983 0.12370114
0.12816204 -0.12544988 -0.090610474 -0.11812908 0.3357733 0.013501142 -0.3638813 -0.03208079
0.09735634 0.21040288 -0.19272964 -0.07459672 -0.04695725 -0.0448998 -0.17113936 0.28284213
0.1996519 -0.26939043 -0.18870224 -0.12940556 -0.0549471 0.12780398 -0.17265114 -0.08117216
-0.14520817 -0.2883576 -0.3161221 -0.2981122 0.29843396 0.20990819 0.1919075 0.30694738
-0.1484063 -0.18736093 -0.18445818 -0.29549295 -0.39863512 -0.05792998 -0.02725945 0.31647825
-0.092014715 -0.016804054 0.13622259 -0.22906692 0.04042876 0.23524405 -0.012763013 0.054677427
-0.23268586 -0.1700123 -0.035874315 -0.10073626 0.34510648 0.24286412 -0.23943907 -0.025113951
0.12534414 0.21066678 -0.4025479 -0.21799164 -0.007291806 -0.21440749 -0.21574657 -0.048714835
0.018711342 0.072230935 -0.059903856 -0.1585824 0.12016281 0.053967245 0.066473424 -0.10980629
0.024938192 0.3395116 -0.0691428 -0.357746 0.19024867 -0.16894913 0.011517648 0.4846652
0.30877915 0.093004584 -0.1299664 0.12946236 0.45888445 0.16376431 -0.173869 -0.04226357
-0.41077036 -0.52340555 -0.27936494 0.20516063 0.08111895 -0.05461426 0.15057579 0.08683731
-0.05527068 0.30311385 0.3667292 0.40300682 0.0092365 -0.031470366 -0.22415707 -0.046531435
-0.14405647 0.3223965 -0.20357695 -0.30729124 0.5236711 0.09528484 0.06601119 0.20633586
0.032665722 -0.16346335 0.1609902 -0.2019623 -0.2629358 0.13144785 -0.11642168 0.099660635
0.29766685 -0.1546377 0.08569414 -0.1509092 -0.06468103 0.04318031 -0.62029576 0.01948208
0.09427384 -0.06388404 0.016797986 -0.029977059 -0.13097571 0.51342076 -0.13324964 0.25933033
-0.12415511 -0.19716448 -0.12624474 0.007802762 -0.14984408 0.2099705 0.27835858 -0.24110948
-0.11161484 0.12770656 0.11047857 -0.30293614 0.06595445 0.41324806 0.3031029 -0.13075605
-0.00795735 0.030852692 -0.20312256 -0.2727723 0.0045025116 -0.122391425 -0.13246824 -0.065911934
0.27419278 0.29677334 0.008446389 0.17433043 -0.029997801 -0.11350142 0.14397591 0.07818546
-0.18941484 -0.047635928 -0.008151637 0.09393717 -0.14246681 -0.06386668 -0.32660058 0.28832027
0.1974022 -0.40964732 0.27725434 0.26561546 0.02164916 -0.045456927 -0.06342755 0.06350873
-0.0056366166 -0.14063694 0.15178776 0.14284706 0.08702204 0.03868932 -0.1453861 -0.28872436
-0.15356295 -0.31207514 0.072720475 0.21506882 -0.51254475 -0.1619558 -0.052588362 0.3345593
0.3332343 0.367467 -0.106001794 0.06348883 0.04099343 -0.18214902 -0.5250129 -0.30085123
-0.2965092 -0.43577963 -0.27287066 -0.018270168 0.25146496 0.0012768779 0.09485712 0.10055749
0.1391234 -0.09959021 -0.21493928 -0.40774667 0.2836226 0.07141879 -0.14234878 0.23589012
-0.008042178 0.06569002 0.36698082 0.39299688 0.29314494 -0.029031966 -0.22085027 -0.11502008
0.19314177 -0.11465436 0.042814128 0.031965602 0.02824342 -0.20528714 -0.0858838 -0.1765566
-0.3060532 0.40334353 0.12229096 0.0954628 0.30476573 0.34463975 -0.09159527 0.077002555

conv3.bias f4 [8]
00000000: 7ef5 b4bd 44ec 9fba dd8a cd3c 2d32 4f3e
00000010: bae2 9d3c b103 cb3d 730d 0c3d 6247 c93c
-0.088358864 -0.001220115 0.02509063 0.20233984 0.01927315 0.099128135 0.034192514 0.02457017

conv4.weight f4 [16, 8, 3, 3]
00000000: d3b0 84bd 1fae c2bd 1642 773d 0b8b 0bbe
00000010: 6c4f 00bd c076 e33c b50d b63c 939f 15bd
00000020: be38 8e3e e365 8dbe b532 87be 9786 dabd
00000030: 739f 96be 9df2 3ebe 6908 97bc 3d10 4f3d
00000040: 7fdb d0bd 7e7a 75bd a9cd b43e 6628 823c
00000050: 1de0 b83d 1940 9cbc 1574 0bbe 9ab8 353d
00000060: d6db 343e a8a0 63bd 09c8 bbbd 93a6 863d
00000070: 9570 81be 957f 1c3d 385f 0a3e df42 fbbe
00000080: 7214 eebb 95f4 4e3d c07b fcbd e9ec 9cbe
00000090: 952a b6bd 3de7 193d 72c4 d73e 0344 513e
000000a0: 1581 bc3d 2522 593e 5ddf 493e 26b6 cbbd
000000b0: 8246 74bc 595d b33c f87f a73b a543 89bd
000000c0: 461c ae3c fa68 cc3e db97 5abd e490 043f
000000d0: 7e0e d23d 604f 843e 1fd2 95bc 8dd1 56be
000000e0: 0f60 8bbd e4fd 8ebe f382 24be 1b3d 31be
000000f0: 3a07 10bf adc3 23be 1dd5 483d 2fb5 89bd
00000100: 6bc4 8bbc 5405 923e ff06 c63d 70a8 723e
00000110: 3af7 c43e e95f c3bd 69f7 19be 0ee5 45bd
00000120: 1658 e23d bbcd 8a3e 85b1 583d cd2e 283e
00000130: d4f4 313e 90e5 233c 20fc 763e 3778 8ebd
00000140: 1d81 0dbe 91b6 f9bb eabd 953d 570b e13d
00000150: 2879 873b 240b 1d3e 5e63 753e d4bc ea3d
00000160: 9b89 2d3e c155 de3d 66d6 6e3e a885 633e
00000170: 6a5b 213e ae0c 013d 865d b03c 9c92 3fbd
00000180: 953a 60be 8d4e a6bc d439 db3d 7de6 5abe
00000190: 1c62 a4be aae1 f4be 4a65 083d 42dc a63d
000001a0: 4e44 99bd 6231 933c 5c95 643e b9d4 103e
000001b0: d9f0 ddbd d9c4 b33d 8db7 d03e ec26 5f3e
000001c0: 96f7 04bd f5a7 9c3d 4d51 423e 3757 093e
000001d0: 3489 a73c e6df 183e 13f3 263e feb6 b8bd
000001e0: 0292 ee3c 4748 b3bd ed91 fc3c 6149 3bbd
000001f0: b2e0 97bd cb72 aabd 4cd0 f7bc 7ae1 063d
00000200: 3679 c73d 6676 903e 38a9 c33d 956e f8bd
00000210: c059 61be 8801 923d 6fbc 2b3e 1ff0 83be
00000220: 79ac 90be e2d5 64be 7820 56be 32e9 6ebe
00000230: 6088 3ebe 8eba e73d 03f8 763d 0529 283d
00000240: 1e20 343e 7744 11be fb44 ccbd 3c01 babd
00000250: 92c3 7cbe a9a8 70be 17d4 2f3e 32a6 22bd
00000260: 43fa e13e 62a2 2a3d 6d2b 08be becb dcbc
00000270: 356f a0bc 7a2a c7be 0973 d3be a498 6fbd
00000280: 1703 563d fdc7 b8be 6d5f 17be 20d6 1a3d
00000290: 40ae 963d 8958 08bf 6987 d3be 9ff6 cabc
000002a0: 3a96 a5be 09cf 73be 137c e63c dfad 863d
000002b0: 3deb 0bbe 4eb4 94be fefd 813d 0654 5d3e
000002c0: a5a9 36be 3e78 dabe af8a dd3d c16f afbd
000002d0: 3c83 003e 7fd7 913d b21e a43d 434d fbbd
000002e0: 4f36 8ebe 163c 02bf 3d02 cbbe a61e a4be
000002f0: 2c3a 70bd aa3a 5fbd 67d3 89bd 6cc2 be3e
00000300: 9c06 39be f02f 11bd 2357 ac3d ba20 8a39
00000310: 92a4 dfbd 5780 f83d 1082 30be 278c b8be
00000320: 3ba9 133c 9482 fd3d 8120 6d3d dd75 d6bb
00000330: acc1 51be e52d 94be 0209 0abe 8cb0 91bc
00000340: 0bd8 d0bd 01f0 85bc fa7e 88be c7b8 c7be
00000350: cc8f dcbd e51e b0be de34 debe 8b33 39be
00000360: 79a3 d63d 248d eb3e 53d1 223f c3e5 993d
00000370: 110d 57bd c68d 593e 9294 32be 85ee 123e
00000380: d228 2f3e 6d5e 68bd 47bf 9cbd d523 ffbd
00000390: 076b 42be 57a3 91be 4e8e 18be c668 833c
000003a0: 571e e13d d88f 4ebd 15a3 0f3e b18a ad3d
000003b0: 6f75 95bd 8021 cf3d 4e62 1c3d 4772 b6bd
000003c0: b55d 083d bbd4 6e3e aa8b 7d3e 85de e23b
000003d0: 9708 13bd 73d9 59be e44f 70be c454 d23d
000003e0: 9d25 d2bc e77c 54be a82f 4ebe 00ff 32be
000003f0: d80c 4d3e 6052 9b3e 5194 a6bd b472 113d
-0.06479039 -0.09505867 0.06036576 -0.1362726 -0.031325743 0.027766585 0.022223333 -0.036529135
0.27777666 -0.27616796 -0.26405874 -0.10670202 -0.29418525 -0.18647237 -0.018436627 0.050552595
-0.101981156 -0.05993127 0.35313156 0.015888404 0.09027121 -0.019073533 -0.136185 0.044365503
0.17661986 -0.055573136 -0.09169013 0.0657474 -0.25281206 0.03820761 0.13512886 -0.49074456
-0.007265621 0.05052622 -0.12328291 -0.30649498 -0.08894841 0.03757404 0.42142063 0.204361
0.09204308 0.21204431 0.19714113 -0.099468514 -0.0149093885 0.021895098 0.0051116906 -0.06702355
0.021253716 0.3992384 -0.053367477 0.51783586 0.102566704 0.25841808 -0.01828867 -0.20978375
-0.06805431 -0.27928078 -0.16065578 -0.17308466 -0.56261027 -0.15992613 0.049031366 -0.06724011
-0.017061433 0.2851969 0.09669303 0.23697066 0.3846987 -0.09539778 -0.15035786 -0.048314147
0.11051957 0.27110085 0.05290367 0.16424103 0.17378551 0.010003462 0.24119616 -0.06956523
-0.13818784 -0.0076206406 0.07311614 0.10988491 0.004134316 0.15336281 0.23963687 0.11461797
0.16947024 0.108562 0.23323974 0.22218955 0.15757528 0.031506233 0.02152897 -0.046770677
-0.21897347 -0.020301128 0.10704389 -0.21376987 -0.32106102 -0.47828418 0.03329972 0.081474796
-0.07483731 0.017967883 0.22322601 0.14143647 -0.10836954 0.0877778 0.40765038 0.21792191
-0.03246268 0.07649223 0.18976326 0.13412176 0.020451166 0.1492916 0.16303663 -0.09019278
0.029122356 -0.0875402 0.030831302 -0.045724276 -0.07415904 -0.08322676 -0.03025069 0.032929875
0.09739916 0.2821533 0.0955376 -0.12130467 -0.22006893 0.07129198 0.167711 -0.25769135
-0.28256586 -0.22347215 -0.20910823 -0.23331144 -0.1860671 0.11314879 0.060295116 0.041054744
0.17590377 -0.14186274 -0.099740945 -0.09082267 -0.24683979 -0.23501839 0.1717075 -0.039709277
0.44136247 0.041658767 -0.13297816 -0.02695262 -0.019584278 -0.38899595 -0.41298702 -0.05849518
0.05224904 -0.3609008 -0.14782496 0.03780186 0.07357454 -0.53260094 -0.41314247 -0.024775801
-0.32341176 -0.23809446 0.028135335 0.06576132 -0.13663955 -0.29043812 0.06347273 0.21614084
-0.17838152 -0.42669863 0.108174674 -0.08566237 0.12550062 0.07121181 0.08013667 -0.12270596
-0.2777581 -0.50872934 -0.39650145 -0.32054633 -0.058649227 -0.054499306 -0.06729775 0.37257707
-0.18068928 -0.035446107 0.084150575 0.00026345794 -0.10920061 0.12133854 -0.17237115 -0.36044428
0.009012516 0.123784214 0.057892326 -0.006544812 -0.20484036 -0.28941265 -0.13479999 -0.01778438
-0.10197457 -0.016349794 -0.26659375 -0.3900816 -0.107696146 -0.3439857 -0.4339971 -0.18086068
0.10480399 0.4600612 0.63600653 0.07514527 -0.052502695 0.21245489 -0.17439488 0.143488
0.17105415 -0.056730676 -0.07653671 -0.12458006 -0.1898614 -0.2844493 -0.14898035 0.01604117
0.10992115 -0.05043015 0.14027055 0.08473719 -0.07297789 0.101138115 0.03817969 -0.089085154
0.03329249 0.23323338 0.24760309 0.006923499 -0.035896864 -0.21274357 -0.23467976 0.10270074
-0.025652701 -0.20750771 -0.20135367 -0.17480087 0.20024431 0.30336285 -0.08133758 0.03550978

conv4.bias f4 [16]
00000000: a96c 85bc 12cf c7bd 98c1 09bd 43a0 9bbd
00000010: 7314 07bc 7699 acbd 0d87 d3bd f1c5 893c
00000020: 25f9 95bd 29fc ba3d f330 52bd f39d 013e
00000030: 1f5c fb3c 1d3c 003d 0255 18bd 3880 6abd
-0.016287165 -0.097562924 -0.03363189 -0.07598927 -0.008244622 -0.08427708 -0.10328493 0.016818019
-0.07322911 0.09130127 -0.051316213 0.12657909 0.030683575 0.03130733 -0.037190445 -0.057251185

conv5.weight f4 [16, 8, 3, 3]
00000000: 448e 36be 024d 76bc eddd 3bbe 4adc 383e
00000010: 4721 9d3d fb8d 61be c45d 523e 3b95 a9bd
00000020: 0c80 233d ddf5 1a3e 4a7a abbd 1fd6 66bd
00000030: e3a1 99be 4e1f 1a3d 92a1 16be 932e f73d
00000040: 7618 e3bc d0ec e53c 998e cebd 6741 19bd
00000050: 386f bdbc 92ee 063e b3b1 15be 74f6 17be
00000060: 13b0 963c c3e2 c6bd 5a97 51be d659 5dbe
00000070: 911e 3f3e d654 34be e0b7 9a3e 5e93 3c3e
00000080: f779 85be b4b7 0a3c 9bfc d1bc 18d6 5fbe
00000090: a7f4 943e 135e d43d e25b 06bd e28a c13b
000000a0: 77df b8be 3e36 27be c7c8 e0be 3f69 d23d
000000b0: 67d7 be3e 2f47 0a3e 2414 393e 4737 10bd
000000c0: ce7c 31be ce58 f0bd ec94 043e 9c6f 31bf
000000d0: 1d4d 8fbc 5abb c43e e3b6 86bd a4f0 e43c
000000e0: 37ee b2bd 05f8 883d 84b9 89bd 5248 643e
000000f0: 4bd3 08bc 5954 87be 4815 633e 1659 27be
00000100: 170a 943d 963c 073f cada 83be 2fc8 493e
00000110: 9642 9e3e 973c 16bd c876 ea3d e9aa 75bd
00000120: 29d1 d7bc b6e8 0a3e af0a 0dbd 252f 93be
00000130: 1d66 d73d 0dc4 8b3e 4a5c 14be 8c9f b4be
00000140: 0605 53be 7102 84be 3cbb 873e 7281 4f3e
00000150: 441e 60bc 1f76 a93e d66f fb3d 9546 793c
00000160: bb96 4fbd 8bd0 3dbc 24cd e6be 55fd aabd
00000170: dfa1 643e 7276 e3be 6c2c 4ebe 4865 f93e
00000180: 0bca ffbd 1085 3fbd 30be 2c3d 381e d9bd
00000190: 88c5 383d 8c7b ac3d c1fa aebe 5879 31be
000001a0: 8d02 3f3e 5cb7 53be 59b9 483d 1004 173e
000001b0: df76 f73d 7ea7 763e 99f6 933e 1924 25be
000001c0: 3b4c 33be ca7f e43d 287c 81bc 8aab e0be
000001d0: 01aa b2bd 72f0 a1be 5048 a8be cff8 59be
000001e0: 366c 473e 02e6 ffbb 3216 373e f5b6 d2be
000001f0: a350 7ebe fd89 8e3e eb81 94bd b98e c63d
00000200: 046b f8bd 0c3c 4cbe 01db 3bbe 75ad c4be
00000210: 585f 08be ad0a 69be 464f 123e 9a30 e9bd
00000220: b35b 2fbc c3f5 e9bc 017f f6bc 0902 8c3c
00000230: ff74 ac3d 23d1 24be 8b4c 8cbd 01df 8c3e
00000240: 5466 b9be 5c09 86be 8ef5 59bd 75ea 55be
00000250: 177e bfbd 7b84 8a3d 2b30 77be c05f d2be
00000260: ff8c 2bbd ccf3 c23e 867b bb3d 9ed0 33be
00000270: 8114 4cbe 3afb 1fbe 7c1d e5bd 5feb 18be
00000280: 07e4 20bd 8224 f63d 4030 03bf dbd6 13be
00000290: 0ae3 adbc 9869 16be 62ff aebd 5af3 963d
000002a0: c7af b5be f1b8 f2bd f136 aa3e 72b7 81be
000002b0: 94d8 ce3c ebeb 803d 9f33 93bc c657 ba3e
000002c0: ecb0 10bd 8c47 3ebe 0bf4 003e e368 37bd
000002d0: 0302 d83e 1d3c 173e 9398 723e 16a9 7f3e
000002e0: b4b7 953c e357 8e3e 40b6 7d3d 7bf6 5ebe
000002f0: 33e2 703e 336b 573e be44 a9bd b2c7 213d
00000300: 6c63 44bd 0c1b 6fbe d753 87be 3d5c b1be
00000310: 2c17 80be 2974 b5bd 8b60 7f3e 441c e03e
00000320: 5746 523e f5e3 d33d bfeb 10be 9815 f0bd
00000330: 37b4 c93e bc85 91bd 7249 cebd 4868 d7bd
00000340: eeae 45bc 059b 8b3e d328 8fbd 8e5b da3d
00000350: fd3b fe3d dc2e 6bbd d9c5 1f3e 4a78 ab3e
00000360: 76c2 b43d 62e9 183d a0ea 01be ba1e 5d3e
00000370: 1cc0 8dbc 5de3 54bc b06c a93d 1046 c2be
00000380: 3020 bfbc 1da6 6bbe 91a5 f7bd f998 8dbd
00000390: 3634 353d b008 28be f600 32bd 867b f8bd
000003a0: 7cd5 7cbe 45f1 7ebe 81bc 8e3e c59f 813d
000003b0: 80c3 8ebd 1d21 bb3c 6b07 45be 63d8 7dbd
000003c0: 1b88 9b3d 49d0 47be 4f55 2dbe 9a33 d83d
000003d0: 8d2d 0abd 1e1c b5be e173 6e3e b93e 27bd
000003e0: 44c8 6abe 3382 e2b9 1149 d13d a2b4 55bd
000003f0: baf8 f1bd adc7 a4be e60d 2ebe 04f3 a43d
-0.17827708 -0.0150330085 -0.18346377 0.18052784 0.07672363 -0.22026818 0.20543581 -0.082804166
0.039917037 0.15132852 -0.08372934 -0.056356546 -0.30006322 0.03762751 -0.14710072 0.1206943
-0.027721625 0.028067023 -0.10085792 -0.03741589 -0.023124322 0.13176945 -0.14618568 -0.14840108
0.018394506 -0.0971122 -0.20467892 -0.21616301 0.18664004 -0.17610487 0.3021841 0.18415591
-0.26069614 0.00846665 -0.025633147 -0.21859014 0.29092905 0.10369506 -0.03280247 0.0059064487
-0.3610799 -0.16329286 -0.4390318 0.1027398 0.37273714 0.13503717 0.1807409 -0.035208967
-0.17332765 -0.11735688 0.12947434 -0.6931093 -0.017492825 0.38424188 -0.065778516 0.027946778
-0.08736842 0.06687931 -0.067248374 0.22293213 -0.008351157 -0.2643154 0.22176087 -0.16342577
0.07228487 0.5282682 -0.2575286 0.1970527 0.30910176 -0.036678877 0.11448437 -0.059977446
-0.026344853 0.13565335 -0.034434017 -0.28746906 0.105175234 0.27298012 -0.1448833 -0.35277975
-0.20607385 -0.25783113 0.26510036 0.20264223 -0.013679091 0.33097932 0.122771904 0.015214582
-0.050680857 -0.011585365 -0.45078385 -0.083491005 0.22327374 -0.44426304 -0.20134133 0.48710084
-0.124897085 -0.046757758 0.042173564 -0.10601467 0.045110255 0.08422002 -0.34175685 -0.17331445
0.18653317 -0.20675415 0.049004886 0.14747643 0.1208322 0.2408733 0.28899077 -0.16127051
-0.17509548 0.11157186 -0.015806273 -0.43880874 -0.08723832 -0.31628758 -0.3286767 -0.21286319
0.19474873 -0.0078094015 0.1787956 -0.4115521 -0.24835448 0.27839652 -0.072513424 0.09695191
-0.121297866 -0.19944781 -0.18345262 -0.38413587 -0.13317621 -0.22757979 0.14288053 -0.11386223
-0.010703015 -0.028559571 -0.030089857 0.017090814 0.08420753 -0.16095404 -0.06850537 0.27513888
-0.36210883 -0.26179016 -0.053212695 -0.2089022 -0.093502216 0.0676355 -0.24139468 -0.41088676
-0.04188251 0.38076627 0.091544196 -0.1756005 -0.19929697 -0.15623179 -0.11187264 -0.14933537
-0.039279964 0.12018682 -0.512455 -0.1443743 -0.021226425 -0.14688718 -0.08544804 0.073706344
-0.3548567 -0.11851681 0.33245042 -0.2533527 0.025249757 0.06294998 -0.01796895 0.3639509
-0.035324976 -0.1858198 0.12593095 -0.044777762 0.42189035 0.14769025 0.23691015 0.24966845
0.018276073 0.27801427 0.061941385 -0.21773712 0.23523788 0.21036987 -0.08265065 0.039497085
-0.04794638 -0.23350161 -0.26431152 -0.34640685 -0.2501768 -0.088600464 0.24939172 0.43771565
0.20534645 0.10346214 -0.1415243 -0.11722869 0.39395306 -0.07105586 -0.10072602 -0.10517937
-0.012065632 0.27266708 -0.069902085 0.10661994 0.124137856 -0.057417735 0.15602817 0.3349021
0.08826153 0.037331946 -0.12687159 0.21593753 -0.017303519 -0.012993661 0.082726836 -0.37944078
-0.023330778 -0.23012586 -0.12092126 -0.06913943 0.044239245 -0.16409564 -0.043457948 -0.12132935
-0.24690813 -0.24896725 0.27878192 0.06329302 -0.069708824 0.022842938 -0.19241111 -0.06197394
0.075943194 -0.19513048 -0.16927074 0.10556717 -0.033734847 -0.35373014 0.23286392 -0.0408313
-0.22927958 -0.00043203085 0.102190144 -0.052174218 -0.11815019 -0.3218359 -0.1699749 0.08054164

conv5.bias f4 [16]
00000000: 7953 5cbd 12b9 b9bd 9481 7fbc 9e26 913d
00000010: fe5c aa3d 4c3f 4fbd 40e2 debd 556f c2bd
00000020: 9313 6cbd d156 973d 8788 023e 7a97 2abe
00000030: 9338 d83c 60c6 ff3d 383f 25bd 7464 94bd
-0.053790543 -0.090685025 -0.015594859 0.07087444 0.08318518 -0.050597474 -0.108829975 -0.09493891
-0.057635855 0.07389606 0.12747394 -0.16659346 0.026394164 0.12489009 -0.040343493 -0.072457224

conv6.weight f4 [24, 16, 3, 3]
00000000: 7376 043e 56cf b03d 1e67 773e 50cf 92bd
00000010: 3c54 f7bc a519 c83e 48cd 963d bc13 8a3e
00000020: 9d96 6c3e b853 d63d 3be0 703d 1a17 77bc
00000030: c0f4 613e 5279 d73d 2e5e 7a3e 5945 eabd
00000040: 88f2 91bc b8b3 233e e356 753e 7d0a 143e
00000050: 061b 843b a509 e43d f5ab 9c3d 1ccc f0bd
00000060: 9200 063e 622a f83d 24ab 19be 6eb7 05be
00000070: cae7 223c 6d7d dd3e 7fcd 093d 6439 233e
00000080: 2420 6c3e 806d 57be 0e7c 043e ac35 313d
00000090: 604c 02bd 48ce 473e 9900 cd3e 48d6 16be
000000a0: 237e aebc 62e4 073e 0164 73be 1e29 1cbe
000000b0: a0cc 113c b8da 1a3e ee27 0e3b 9951 60be
000000c0: bc49 d4bc 289e 0d3d 0801 fcbc 2ca0 683e
000000d0: 198d 193e bfe3 143e 0fa4 773d 5060 923d
000000e0: f0c4 913d 0c59 323d b0fa ab3c 0182 3fbd
000000f0: bdd7 763e fcf1 613e eb39 0b3e 23b5 9abe
00000100: e021 8fbe a805 3dbc 73fa 7cbe 0d4f a23d
00000110: e596 3d3e 8d00 7bbe 78e8 47be b7d9 1bbe
00000120: a836 93be a355 56bc 5007 17bd dafd 0abd
00000130: f82c 0d3e 3032 fd3c 5d76 c33d 41bf 9c3d
00000140: 7927 01bd f39c 1d3e d5f3 87bd 72fb 25bd
00000150: 9bfe 893e 6213 e83b cb73 36be 3383 8f3e
00000160: 1a8e fe3d 0d99 b43d e208 01be ed68 5ebe
00000170: 818e 763c 4db0 00be fb57 1abd bba3 9d3c
00000180: c0a8 523d 2e40 083d c4cf 083e fc37 91bd
00000190: e276 1dbe cfe9 7abe 830c 25bd e902 b2bd
000001a0: 9ad0 bbbc 48c3 d33c aae4 523d 9cd9 15bd
000001b0: 5a82 0dbe bc09 ddbe d0da d5bd 48b4 2cbe
000001c0: c472 eebe 6bdb 46be 5b3f bdbc c341 a5be
000001d0: a150 bfbe 389a b13c a2d8 673d 9a65 9f3e
000001e0: 4dbb 66be 06f5 72be 0c09 6b3e ff95 30be
000001f0: 7af5 5cbe 240a 6e3e 645f 4f3e 16c6 c13d
00000200: 2bf0 bd3e df51 e73d 53ec cabc 91f7 b73e
00000210: 2052 6d3e 24e9 063e 8d43 943e 2b28 36be
00000220: 95c9 24be cffe 053c 8e25 51bd 7246 d1bd
00000230: b079 6bbd 0544 66be 8e2b 2fbe c39f adbd
00000240: 79f2 293c a72e 3b3e 436d a83d e243 60be
00000250: 6d6c 6dbd c038 dbbe ec0d 92be 1ed9 583d
00000260: 4078 903d d73b 85bd 8665 90ba 1ad7 0ebe
00000270: 3403 073d f442 6c3d fcae a23c ab79 e5bd
00000280: b708 45be 27e1 5ebd 8115 c33d 61bc 683c
00000290: 3fc6 04bd 3323 c2bd ed62 4abe c579 13be
000002a0: 81f4 823e f15d aa3e 0b63 163e d328 883e
000002b0: fac9 013e 704c 8739 3391 5d3d b4f2 cb3e
000002c0: 2db8 923e c5dd d2be 574c c03d c965 5ebe
000002d0: d17f 35be 0e4a c0bd 93a6 453d ba5a dfbc
000002e0: 0000 3fbe 1d97 11be 9b74 d9bd e9eb 22be
000002f0: b7fd e13d c918 fa3e 32d5 033f 244d 043f
00000300: 1a14 9f3e 5a68 923e aca4 9e3e 91d1 ecbe
00000310: 45f8 8bbe 5dae a73d f2aa c63c 9389 06bd
00000320: 318c 5d3d 5a66 073e 2780 1abe ec76 943c
00000330: 7c4b 4b3e 67c3 403c ce54 b43b 2147 30be
00000340: 8208 0cbe c018 293d 4a04 ee3d c889 53bd
00000350: 426f c73c 43ba 6c3e 5caa e4bd 1ece 7dbe
00000360: 14d0 babe 8091 6fbe 75e1 64be 3385 033d
00000370: 5ee4 dfbd d035 85bd fd25 e5bd 7086 25be
00000380: 68a4 b9bd e86a 4abe 1a49 12bd d296 5bbd
00000390: a67f 003e a5c6 983e e880 db3d fb89 613e
000003a0: 9f3b 2b3e 296d 443e 4fc2 8f3d 685b d13d
000003b0: ff45 8b3c 16b5 913c 6175 6abd fa02 51be
000003c0: e289 d63c bf17 56bc d8b6 26bd 8823 98bd
000003d0: 2680 64be 4e92 c7bc a93a 5b3d 75c0 6abd
000003e0: 8ec5 05be c3ff 8dbd 5eb9 aabe d734 77be
000003f0: e786 b0bd e59c 7d3d 8f0d 9a3e c921 0e3d
0.1293581 0.08633296 0.2416043 -0.07168448 -0.030191533 0.39082065 0.07363373 0.2696818
0.2310433 0.10465187 0.058807593 -0.015081191 0.22066021 0.10521187 0.24449989 -0.11439008
-0.017815843 0.15986526 0.23958926 0.14457126 0.0040315418 0.11134652 0.07649986 -0.11757681
0.13086155 0.12117459 -0.15006691 -0.13058254 0.009942958 0.43259755 0.033643242 0.15939862
0.23059136 -0.21037865 0.12937948 0.043264076 -0.031811118 0.19512284 0.40039518 -0.1473018
-0.021300381 0.13270715 -0.23768617 -0.1525006 0.008898884 0.15122497 0.002169128 -0.21906127
-0.025914066 0.034574658 -0.03076221 0.2271735 0.1499523 0.14540003 0.060459193 0.071472764
0.07117641 0.043541953 0.02099356 -0.04675484 0.24105735 0.22064966 0.13596313 -0.3021632
-0.27955532 -0.011536993 -0.24704914 0.07925234 0.18514593 -0.24511929 -0.19522274 -0.1521977
-0.28752637 -0.013081941 -0.036872208 -0.033933498 0.13786685 0.03090772 0.095440604 0.07653666
-0.031531785 0.15391903 -0.06638304 -0.040523 0.2695206 0.0070823887 -0.17817609 0.28029785
0.124294475 0.088182546 -0.12601045 -0.21719714 0.015048624 -0.12567253 -0.03768156 0.019243112
0.051430464 0.03326433 0.13360506 -0.07090756 -0.15377381 -0.24503253 -0.040295135 -0.08691961
-0.022926617 0.025849953 0.051487602 -0.03658448 -0.13819256 -0.4317149 -0.10442126 -0.16865647
-0.46571934 -0.19419639 -0.0231015 -0.32276735 -0.37366202 0.021679983 0.05660308 0.31132203
-0.22532387 -0.23726282 0.2295267 -0.17244719 -0.21578017 0.23246056 0.20251232 0.0946161
0.37097296 0.112949125 -0.024770891 0.35931066 0.2317586 0.13174874 0.28957787 -0.1778876
-0.16092522 0.008178427 -0.051061206 -0.102185145 -0.057489097 -0.22486885 -0.17106459 -0.08477738
0.010372751 0.18279515 0.08223965 -0.21900895 -0.05796473 -0.42816734 -0.28526247 0.052941434
0.07054186 -0.06505554 -0.0011016584 -0.13949242 0.03296204 0.05768104 0.01985883 -0.11204847
-0.19241606 -0.05441394 0.09525586 0.014205069 -0.032415625 -0.0947937 -0.197643 -0.1440192
0.25577167 0.33274797 0.1468622 0.26593646 0.12674704 0.00025806157 0.05409355 0.39833605
0.2865614 -0.41184822 0.09389561 -0.21718515 -0.1772454 -0.09389125 0.04825456 -0.027264941
-0.18652344 -0.14217801 -0.10617944 -0.15910305 0.110347204 0.48847035 0.51497185 0.5168021
0.31070024 0.2859524 0.3098501 -0.46253636 -0.27337852 0.08187554 0.024251435 -0.032846045
0.054088775 0.13222638 -0.15087949 0.018123113 0.19853014 0.011765338 0.0055032736 -0.17214634
-0.1367512 0.04128337 0.11621912 -0.05164507 0.024345044 0.23117928 -0.11165306 -0.24785659
-0.36486876 -0.23395348 -0.2235163 0.03210945 -0.109322295 -0.065044045 -0.11188886 -0.16164565
-0.09064561 -0.19767344 -0.035714246 -0.05361063 0.12548694 0.29839054 0.10717946 0.22025292
0.16721962 0.19182266 0.07019483 0.102225125 0.01700115 0.017786544 -0.057240847 -0.20411292
0.026188795 -0.013067185 -0.040701717 -0.07428652 -0.2231451 -0.024361756 0.05352274 -0.057312448
-0.13063642 -0.06933548 -0.3334455 -0.2414125 -0.086194806 0.061917204 0.3008847 0.03470019

conv6.bias f4 [24]
00000000: c557 87bd d8d6 983d c566 ca3d 11fb 473c
00000010: ceda f2bd 18ed f33d f3ed c0bd df71 8e3b
00000020: 2a19 b23d 3fec 8d3d 9fd8 623c 89e4 69be
00000030: f409 df3c 5750 ca3d b7c2 013e b86d 873d
00000040: dc82 2e3b f8df 7a3c 601f ec3d e1b3 3abd
00000050: b906 64bb da86 17be 9e38 66bd 6993 6bbd
-0.066085376 0.07462853 0.09882883 0.012205855 -0.1185814 0.119104564 -0.09420385 0.0043470706
0.08696206 0.06929826 0.013845592 -0.22841085 0.027226426 0.09878605 0.12671934 0.06612724
0.0026628291 0.015312187 0.11529422 -0.045581702 -0.0034794046 -0.14797536 -0.056206338 -0.05751363

bn1.weight f4 [4]
00000000: b03f 543f 4448 993f 37e8 833f 3081 833f
0.8290968 1.1975179 1.0305241 1.02738

bn1.bias f4 [4]
00000000: 6804 01be 88cc 1f3e 1e85 983e e13e f33d
-0.12599337 0.15605366 0.2978906 0.118772276

bn1.running_mean f4 [4]
00000000: 7a1f 46be 204f 70be a66d 443e 5d61 e03d
-0.19347945 -0.23467684 0.19182453 0.109560706

bn1.running_var f4 [4]
00000000: 3e1a 953e 31a7 df3e c642 333f fc21 363f
0.29121584 0.43682244 0.70023763 0.71145606

bn2.weight f4 [8]
00000000: 1a37 9b3f 8718 4f3f f18f 963f 80c0 703f
00000010: aa74 803f f3e9 473f b9ba 813f 2a42 983f
1.2126191 0.808968 1.1762677 0.9404373 1.0035603 0.78091353 1.0135108 1.1895192

bn2.bias f4 [8]
00000000: 7715 c73e 667a be3e d7b3 51be 2441 0fbd
00000010: 5693 a9be e071 09be 516a 443e ddf2 1f3d
0.38883564 0.37202758 -0.2047876 -0.034974232 -0.3312022 -0.13422346 0.19181181 0.03904997

bn2.running_mean f4 [8]
00000000: 938a 97bf 2899 823e 9237 bdbf bbc1 16bf
00000010: 3d6a c73d d7f6 92bd 1b93 0dc0 cca6 7dbf
-1.1839164 0.25507474 -1.4782584 -0.5888936 0.0973706 -0.07175987 -2.2121036 -0.99082637

bn2.running_var f4 [8]
00000000: 7a4e 8b40 9bc4 603f 6203 b93f 08c0 bd3f
00000010: 2004 ab3f d879 4f3f 780f b33f 9d3f 7540
4.3533297 0.87799996 1.4454157 1.4824228 1.3360634 0.81045294 1.3989096 3.8320076

bn3.weight f4 [8]
00000000: c7b1 8b3f 75e2 7c3f 5a44 6d3f b77b 703f
00000010: 5d20 523f d565 933f d43b 943f 7dbc 943f
1.0913628 0.98783046 0.9268242 0.93938774 0.8208063 1.1515452 1.1580758 1.1620022

bn3.bias f4 [8]
00000000: 42f2 a1bd ffcd 19be fcfa 25be 68fc 1cbe
00000010: 8d3d fb3d 63c6 f5be 2b7f 90bd 51cf 9ebd
-0.07907535 -0.15019988 -0.16209024 -0.1533066 0.12267599 -0.4800292 -0.07055505 -0.07754386

bn3.running_mean f4 [8]
00000000: c5c3 b9bf ebff d6be e6b1 2b3f 0a41 ee3d
00000010: eba1 a53d af6c 03bf de0c 243e 1907 31be
-1.4512869 -0.41992125 0.67068326 0.11633499 0.08087524 -0.51337713 0.16020533 -0.17287864

bn3.running_var f4 [8]
00000000: ec47 3c3f b492 173f 3f37 f73f f8fd 283f
00000010: 063e 133f 8e30 8d3f 1d40 a93f 3568 9f3f
0.73547244 0.59208226 1.9313735 0.66012526 0.57516515 1.1030443 1.3222691 1.2453676

bn4.weight f4 [16]
00000000: 63f4 7b3f b1e9 803f 712b 9b3f 7536 823f
00000010: 0296 913f 1264 863f 483f 8c3f 8746 663f
00000020: aa27 893f 8728 723f 5aef 813f 8c69 7f3f
00000030: 15d5 5b3f 0635 8f3f 2e08 893f 5281 793f
0.9841978 1.0071317 1.2122632 1.0172869 1.1373904 1.0499289 1.0956812 0.89951366
1.071523 0.9459309 1.0151169 0.99770427 0.8587201 1.1188056 1.0705621 0.9746295

bn4.bias f4 [16]
00000000: 38a0 f13d b0a2 813e e6a9 8ab9 fc95 9cbe
00000010: 80f8 81be 0a11 b2be c9c9 d73d d7f5 43be
00000020: 6de2 58be ca72 513d 74d7 5fbe 41db 9bbe
00000030: dda9 8d3c abf7 1dbe 6397 a6bd bff0 ca3d
0.117981374 0.25319433 -0.00026447995 -0.3058318 -0.25384903 -0.34778625 0.10536534 -0.19136749
-0.21180125 0.051134862 -0.21859533 -0.30440715 0.017292911 -0.15426509 -0.081343435 0.099092

bn4.running_mean f4 [16]
00000000: 1030 29be c01d db3e e47c 1dc0 452a ee3e
00000010: 5e38 7d3e fb70 97bf ed14 05bf 0938 d73d
00000020: 3afb 87bf 84a7 4ebf 1fe6 a6bf a8b6 b03e
00000030: 45f1 03be 37a1 89be bf52 7abe c264 2c3f
-0.1652224 0.42796135 -2.4607477 0.46516624 0.24728534 -1.1831354 -0.51985055 0.10508735
-1.0623543 -0.8072436 -1.3038977 0.34514356 -0.12885006 -0.2688081 -0.24445628 0.67341244

bn4.running_var f4 [16]
00000000: 122f 0440 8e41 ec3f 0bc4 8140 fbde d33f
00000010: 40f7 0240 75e2 c63f 70fd 3b40 696c 2740
00000020: 3352 de3f 6f54 0340 2fd6 6f40 7922 f83f
00000030: ab96 e93f 2622 2e40 8f27 0d40 d4c3 f73f
2.065373 1.8457506 4.055181 1.6552423 2.046341 1.5537859 2.9373436 2.6159918
1.7368835 2.0520284 3.7474477 1.938552 1.8249105 2.7208343 2.2055395 1.9356637

bn5.weight f4 [16]
00000000: ce5f 813f 8835 903f 28f8 5f3f 17d1 5f3f
00000010: 5f33 683f 92e7 8b3f 1df8 623f c4f8 823f
00000020: 0ee0 843f f6dd 753f 673a 643f b872 833f
00000030: d362 7c3f 16a4 963f 3873 6e3f b33a 7d3f
1.0107362 1.1266336 0.8748803 0.8742842 0.90703386 1.0930045 0.8865984 1.0232167
1.0380876 0.9604181 0.89151615 1.0269384 0.98588294 1.1768825 0.9314456 0.9891769

bn5.bias f4 [16]
00000000: 6a1e 03bf 09b1 b6be beeb b1be 7103 febd
00000010: 5cdb f1be 3960 6bbe 5812 e9be 46fb dbbe
00000020: bec4 bdbe 3ae8 18bf 689b d8be a942 98be
00000030: f239 f9be df5e 0fbf b8f2 b7be 81f8 1fbf
-0.51218283 -0.35681942 -0.3475017 -0.12403 -0.4723767 -0.22985925 -0.45521808 -0.42965144
-0.37064165 -0.5972935 -0.42306066 -0.29738358 -0.4867702 -0.56004137 -0.35927367 -0.6248856

bn5.running_mean f4 [16]
00000000: 3939 cdbe 1c61 a2bf 7207 d2be 4254 29c0
00000010: 2f33 1dbf b3e7 14c0 9723 8d3d b891 83bf
00000020: 8e8c f8bf 1a5c 07be 5bd0 873e 14e1 573d
00000030: 7382 96bf e9f6 913e 52ca fd3d 3760 05bf
-0.4008272 -1.2685885 -0.41021305 -2.6457677 -0.61406225 -2.3266418 0.06891554 -1.0278845
-1.9417894 -0.13218728 0.2652615 0.052704886 -1.175856 0.2850869 0.12392105 -0.5209994

bn5.running_var f4 [16]
00000000: 4aef 9f3f 343c 1c40 41cb d43f 9001 c13f
00000010: 0fba 943f 4c63 ec3f 6f65 2540 bc8a 2340
00000020: 9315 c93f d521 af3f 5f23 e93f d1f1 e63f
00000030: 9c54 c03f 9ac9 0040 cc11 cd3f 0d66 c03f
1.24949 2.4411745 1.6624528 1.5078602 1.161928 1.8467803 2.584316 2.5553427
1.5709709 1.36822 1.8213919 1.8042547 1.5025821 2.0123048 1.6021056 1.5031143

bn6.weight f4 [24]
00000000: 22ad e23f a51a d73f dec5 c93f d367 d93f
00000010: 5056 e53f 1526 d83f 5478 0c40 d41e f33f
00000020: 3153 dc3f 536b 0740 3b76 cf3f 0a0a e63f
00000030: 4b60 f33f d54f da3f 2ace dc3f 00ea e63f
00000040: 462f e73f 3e2c fa3f f6dc e43f cd3d d13f
00000050: 1ef5 e73f 491a e63f 91bc e83f 425d e13f
1.7709086 1.6805006 1.5763509 1.698481 1.7916965 1.6886622 2.1948442 1.8993783
1.7212888 2.1159256 1.6207956 1.7971814 1.9013761 1.7055613 1.7250416 1.8040161
1.8061302 1.9544752 1.7879932 1.6346985 1.8121679 1.7976772 1.8182546 1.7606585

bn6.bias f4 [24]
00000000: 40ce b33e fd82 753e b493 8c3e 4cb7 813e
00000010: eed6 913e c5e1 483e 7262 7f3e f97e b73e
00000020: cf27 953e b3c5 983d be2c 6a3e 52cf c93e
00000030: e89e 6b3e a591 a93e ac7f 7b3e 8f32 7b3e
00000040: 968f a53e 9380 973e 9819 a93e d48f 493e
00000050: 528f bd3e adc3 673e 3f30 283e 18ba 193e
0.35118294 0.2397575 0.2745644 0.25335157 0.2848429 0.19617374 0.24939898 0.3583906
0.29131934 0.07459583 0.2286863 0.39415985 0.23009837 0.3311893 0.24560422 0.24531005
0.3233611 0.29590282 0.3302734 0.19683772 0.37023407 0.22633238 0.16424654 0.15012395

bn6.running_mean f4 [24]
00000000: a632 fd3e a88e 973e 9e03 7d3e 8698 023f
00000010: a9f9 cabe 3ada 0b3f 9784 3fbf ed95 283e
00000020: 2d21 bf3d 13d9 ea3d d3f5 593f bc4f 0c3e
00000030: c1d7 113e d093 c93e d920 103f 6536 413e
00000040: 1739 d23e b8fd bcbd 13f5 cf3e ede0 b53e
00000050: 8f06 90be 37cf 043f 160c 29be 0c50 2ebf
0.49452704 0.29601026 0.24708411 0.5101398 -0.396436 0.5462986 -0.7481169 0.16463442
0.093325 0.11467185 0.85140723 0.13702291 0.1424246 0.39370584 0.5630012 0.18868406
0.4105918 -0.092280805 0.40616664 0.35523167 -0.28130004 0.51878685 -0.16508517 -0.6809089

bn6.running_var f4 [24]
00000000: 8f2d 913f 1ea3 aa3f f377 5a3f 6bcb 433f
00000010: 19cd 7d3f 0326 963f 0ebd cd3f c472 a23f
00000020: 6212 953f 3c4b 903f 4fca a13f 836e 893f
00000030: 49a5 ab3f 2c09 ad3f 7440 9f3f aa5f 8a3f
00000040: 8181 aa3f 686f 9b3f 027f 8b3f 1385 823f
00000050: 6678 923f 1a93 8b3f 0a89 783f f5d6 723f
1.1342028 1.333103 0.8533928 0.76482266 0.9914108 1.173035 1.607332 1.2691274
1.1646235 1.127296 1.2639865 1.073685 1.3409816 1.3518424 1.2441545 1.0810444
1.3320771 1.2143373 1.0898135 1.0196861 1.1442993 1.0904267 0.97084105 0.9485925

bn_fc1.weight f4 [32]
00000000: 0000 803f 0000 803f 0000 803f 0000 803f
00000010: 0000 803f 0000 803f 0000 803f 0000 803f
00000020: 0000 803f 0000 803f 0000 803f 0000 803f
00000030: 0000 803f 0000 803f 0000 803f 0000 803f
00000040: 0000 803f 0000 803f 0000 803f 0000 803f
00000050: 0000 803f 0000 803f 0000 803f 0000 803f
00000060: 0000 803f 0000 803f 0000 803f 0000 803f
00000070: 0000 803f 0000 803f 0000 803f 0000 803f
1.0 1.0 1.0 1.0 1.0 1.0 1.0 1.0
1.0 1.0 1.0 1.0 1.0 1.0 1.0 1.0
1.0 1.0 1.0 1.0 1.0 1.0 1.0 1.0
1.0 1.0 1.0 1.0 1.0 1.0 1.0 1.0

bn_fc1.bias f4 [32]
00000000: 0000 0000 0000 0000 0000 0000 0000 0000
00000010: 0000 0000 0000 0000 0000 0000 0000 0000
00000020: 0000 0000 0000 0000 0000 0000 0000 0000
00000030: 0000 0000 0000 0000 0000 0000 0000 0000
00000040: 0000 0000 0000 0000 0000 0000 0000 0000
00000050: 0000 0000 0000 0000 0000 0000 0000 0000
00000060: 0000 0000 0000 0000 0000 0000 0000 0000
00000070: 0000 0000 0000 0000 0000 0000 0000 0000
0.0 0.0 0.0 0.0 0.0 0.0 0.0 0.0
0.0 0.0 0.0 0.0 0.0 0.0 0.0 0.0
0.0 0.0 0.0 0.0 0.0 0.0 0.0 0.0
0.0 0.0 0.0 0.0 0.0 0.0 0.0 0.0

bn_fc1.running_mean f4 [32]
00000000: 0000 0000 0000 0000 0000 0000 0000 0000
00000010: 0000 0000 0000 0000 0000 0000 0000 0000
00000020: 0000 0000 0000 0000 0000 0000 0000 0000
00000030: 0000 0000 0000 0000 0000 0000 0000 0000
00000040: 0000 0000 0000 0000 0000 0000 0000 0000
00000050: 0000 0000 0000 0000 0000 0000 0000 0000
00000060: 0000 0000 0000 0000 0000 0000 0000 0000
00000070: 0000 0000 0000 0000 0000 0000 0000 0000
0.0 0.0 0.0 0.0 0.0 0.0 0.0 0.0
0.0 0.0 0.0 0.0 0.0 0.0 0.0 0.0
0.0 0.0 0.0 0.0 0.0 0.0 0.0 0.0
0.0 0.0 0.0 0.0 0.0 0.0 0.0 0.0

bn_fc1.running_var f4 [32]
00000000: 0000 803f 0000 803f 0000 803f 0000 803f
00000010: 0000 803f 0000 803f 0000 803f 0000 803f
00000020: 0000 803f 0000 803f 0000 803f 0000 803f
00000030: 0000 803f 0000 803f 0000 803f 0000 803f
00000040: 0000 803f 0000 803f 0000 803f 0000 803f
00000050: 0000 803f 0000 803f 0000 803f 0000 803f
00000060: 0000 803f 0000 803f 0000 803f 0000 803f
00000070: 0000 803f 0000 803f 0000 803f 0000 803f
1.0 1.0 1.0 1.0 1.0 1.0 1.0 1.0
1.0 1.0 1.0 1.0 1.0 1.0 1.0 1.0
1.0 1.0 1.0 1.0 1.0 1.0 1.0 1.0
1.0 1.0 1.0 1.0 1.0 1.0 1.0 1.0

conv1d_1.weight f4 [4, 8, 1]
00000000: 7d36 e4be 5628 9a3d 2ae2 65be cfc8 b03d
00000010: 22cb 46be 2af4 ce3e c691 133e ffdc 12bf
00000020: 8b81 bcbe 50f4 3c3e e5d6 e33e b9a8 8f3e
00000030: f346 07bd 37f9 7e3d 6cc7 e63e 6b4d bebd
00000040: 015c 953d 3143 4bbf 03a7 d7be 0c8e 64be
00000050: 9af0 b5be 4c67 15be da06 013e 5628 8c3d
00000060: be77 05bf 9f66 43be 13ec 8e3d 4715 cdbe
00000070: 6aab c33e 2ba6 a83c f3d8 753e ee10 61be
-0.4457282 0.07527225 -0.22449556 0.08632051 -0.19413427 0.40420657 0.14411077 -0.57368463
-0.36817583 0.18452573 0.4449989 0.28058413 -0.033026647 0.06224939 0.45074022 -0.0929211
0.07292939 -0.793994 -0.42119607 -0.22319812 -0.35535127 -0.14590186 0.1260027 0.06843631
-0.5213584 -0.19082116 0.06978621 -0.40055296 0.38216716 0.020587048 0.24008541 -0.21979114

conv1d_1.bias f4 [4]
00000000: 3277 e93e 65c4 e43e 6e4c 43be fe0c 5b3d
0.4559875 0.44681087 -0.19072124 0.053479187

bn1d_1.weight f4 [4]
00000000: 5ff7 843f 330e 7d3f 4efc ac3f 141d e43e
1.0387992 0.9884979 1.3514497 0.44553435

bn1d_1.bias f4 [4]
00000000: 6c28 073d d600 b73e 6b37 843e cbd6 0a3f
0.032997534 0.35742825 0.2582353 0.54234

bn1d_1.running_mean f4 [4]
00000000: 35ae 11be 5d49 693f 57e2 8fbf 4d2a fcbe
-0.14226611 0.9112757 -1.1240948 -0.49251023

bn1d_1.running_var f4 [4]
00000000: 197c 0f3f cbb6 993f a695 0f40 a2fd 8d3e
0.56048733 1.2008909 2.2435088 0.2773257

conv1d_2.weight f4 [8, 16, 1]
00000000: 8df1 c03d 511a dbbe 0b37 3e3e db19 8cbe
00000010: adb4 a13d f509 0cbe 0c01 a5be 5fcb 583e
00000020: 5c3c c0bc d6cf b83e c05a dabd aa0e abbe
00000030: 527b 58bd 48ea 46be 2662 0a3e 64ff cabe
00000040: 6120 42be 9b0c 9d3e 7e50 b03d 2233 ac3e
00000050: 5eff 6b3e 584c f5bc 02a0 023e d290 06be
00000060: 8073 913d bcff a1bc ad71 153d 6d5b 2b3e
00000070: 7c2c 50ba 897c ae3e 9e6c c43e e9f7 253e
00000080: f57d f33d 720c b8be 62c8 173c 84ae bc3d
00000090: d763 db3e 225f b1be 9e36 c1be 47d8 8c3d
000000a0: 4a2c e63d dd4b 76be f7ba 623c 2f46 e1bd
000000b0: c8fb 5ebd fcd6 a2bd 53c7 75be c597 7cbe
000000c0: ccd1 973e 7d0f 35bd 38e1 11be d8ff 5c3e
000000d0: a204 c03e b670 d63e 084c d3be 0dc2 a7bc
000000e0: 9f56 a13e afc9 413e 480e efbd 1bd9 90be
000000f0: d5a8 67be 50b6 7b3e e035 2ebe 63e8 d03d
00000100: c4be 56be b3ed cabd 28ac 843e cea8 98be
00000110: 9c76 8bbd 655a 9c3c ea42 133c b05d 5cbe
00000120: 7f32 fe3e 8e03 033d 647b 253f e6fd ebbd
00000130: ae78 93be 0b98 83bc 5150 b6be 1144 eebd
00000140: 6131 53be 6adb 4cbe 15a3 393f 856e 723c
00000150: 8769 86bd 1fde 8bbe 9cd9 313e 653e d8be
00000160: 3c76 a9be 849d 003e c489 babe 0120 ccbb
00000170: 14a9 4fbe 97c2 c1be d330 aebd 59a6 213d
00000180: 52ba 55bc 35f2 ad3d cf92 b43e 27fd 6fbe
00000190: 5485 b23b 3a00 923d 720d 583e bfa6 d5bc
000001a0: b8f6 80bd ce2d 6ebe 6e9e db3d 1044 a5be
000001b0: 5088 b2be cb01 ae3e 1717 9f3e 3506 abbe
000001c0: 5423 c03e 38f8 fc3d e0a9 83bd da02 953e
000001d0: baed 7fbe b0c3 afbe dfd9 8bbe 93e8 fdbe
000001e0: 9608 aebe 593e 93be d128 c8bc 83ec 8dbe
000001f0: e04e 803e 5e53 87be 0b3e 85bd 5e40 6a3e
0.09421072 -0.42793515 0.18575685 -0.27363476 0.07895789 -0.13675673 -0.3222736 0.2117133
-0.023466282 0.36096066 -0.106618404 -0.33409625 -0.052851982 -0.19425309 0.13514003 -0.39647973
-0.18957664 0.3067368 0.08609103 0.3363276 0.23046634 -0.02994363 0.1275635 -0.13141182
0.07102108 -0.019775264 0.036485363 0.16734095 -0.0007941199 0.34079388 0.38364118 0.16207851
0.11889259 -0.35946995 0.009264084 0.09212974 0.4284961 -0.34642893 -0.37736982 0.06877189
0.11238916 -0.24052377 0.013838521 -0.109997146 -0.054439336 -0.07951161 -0.24001817 -0.2466727
0.2965225 -0.044204224 -0.1424607 0.21581972 0.37503535 0.41882867 -0.41268945 -0.020478273
0.315114 0.18924592 -0.11672646 -0.28290638 -0.22622998 0.24581265 -0.17012739 0.10200574
-0.20971209 -0.09908619 0.25912595 -0.29816288 -0.06809732 0.019086072 0.0089881215 -0.21520114
0.496479 0.031985812 0.64641404 -0.11523037 -0.2880301 -0.01606371 -0.35608152 -0.116340764
-0.20624305 -0.20005575 0.7251447 0.014796858 -0.065630965 -0.27317902 0.17368168 -0.42235103
-0.33098018 0.12560087 -0.36433232 -0.006229401 -0.20279342 -0.37843773 -0.08505406 0.039465282
-0.0130449105 0.08493463 0.35268256 -0.23436414 0.005448023 0.071289495 0.21098879 -0.026080487
-0.06297058 -0.2325966 0.107235774 -0.3227849 -0.34869623 0.33985743 0.31072304 -0.33403173
0.37526953 0.123520315 -0.064288855 0.29103738 -0.24993029 -0.34328985 -0.2731466 -0.49591503
-0.33990926 -0.28758505 -0.024433525 -0.27719507 0.25060177 -0.26430792 -0.065059744 0.22876117

conv1d_2.bias f4 [8]
00000000: 69fa 87bd df7f 423e 5e6f 493d 182c 4dbd
00000010: e832 2cbe 60e5 2d3e 9384 f2bd de7e 3abe
-0.06639559 0.18994091 0.049178474 -0.05009088 -0.16816294 0.16982031 -0.11841693 -0.18212458

bn1d_2.weight f4 [8]
00000000: 29a7 7e3f a6f2 7d3f 4f19 663f e68a 853f
00000010: 4a3f 963f 103e a53f 63ac 583f f53a 683f
0.99473816 0.9919838 0.8988237 1.0433013 1.1738064 1.2909565 0.8463804 0.9071496

bn1d_2.bias f4 [8]
00000000: 1df9 cc3d ce1d 433e 4528 a33e c972 893e
00000010: 9d57 01be 4f38 dfbc 1d84 a43e 974e cb3e
0.10008452 0.19054338 0.3186666 0.26845387 -0.12631078 -0.02724853 0.32132044 0.39708397

bn1d_2.running_mean f4 [8]
00000000: 21b9 59bf f5d4 b63f c178 5dbf 23a2 b13e
00000010: 70c7 fdbe a97a fabe a4cd 43bd 2407 69bf
-0.8504811 1.4283739 -0.8651238 0.34694013 -0.4956622 -0.48921707 -0.047803536 -0.9102652

bn1d_2.running_var f4 [8]
00000000: 524b e13f eb49 fe3f 579a 953f b90f c63f
00000010: 39cd e63f 57fe d63f 632e 4b3f 6793 a63f
1.7601111 1.9866308 1.1687726 1.5473548 1.8031379 1.6796368 0.79367656 1.3013734
