best_model.pth (torch, 48418 bytes, 50 tensors)

conv1.weight f4 [4, 1, 3, 3]
000000 ac 6a 26 3e 19 16 be be ff cb 85 bf ac c6 a3 be
       0.1625163 -0.37126234 -1.045288 -0.31987512
000010 eb 81 8f bf 29 44 90 3e ec 72 2d bf 86 4a bb 3d
       -1.1211523 0.28177002 -0.6775348 0.091450736
000020 5b 50 03 3f fc 2d 18 3f ad ce 62 3f 1b bf 14 3e
       0.5129449 0.59445167 0.8859661 0.14526026
000030 e3 58 dd be 7f 7f 0c bf 33 77 ed be 87 89 a0 bd
       -0.43231878 -0.54882044 -0.46380004 -0.07838731
000040 f2 6d 1b 3e 22 ca bd 3d 70 a1 6a 3e 0c e4 c6 bd
       0.1517866 0.092670694 0.22913146 -0.09711465
000050 14 8c ac 3e 27 f7 46 bf e9 24 ed be af ca 44 3f
       0.3370062 -0.77720875 -0.46317223 0.7687177
000060 db 52 2e be 71 e3 b5 bd e1 14 b3 3e 00 80 de be
       -0.17023794 -0.08881272 0.34976867 -0.4345703
000070 83 e3 33 bf 3c 17 8b be 89 b2 b0 3f 08 cd 03 3f
       -0.7026903 -0.27166164 1.3804485 0.5148473
000080 95 12 6e 3e d6 8b 8a 3e 41 19 32 bd 18 eb f7 3d
       0.23249276 0.2705981 -0.043481115 0.121053874

conv1.bias f4 [4]
000000 c7 21 9d 3e a7 71 3f bd d2 a7 01 3d 9f 26 85 bd
       0.30689833 -0.046739247 0.031654187 -0.06501507

conv2.weight f4 [8, 4, 3, 3]
000000 b6 00 bb be f3 8d a8 be d9 fd fe 3d 31 0f 2d bf
       -0.3652398 -0.329208 0.12450761 -0.67601305
000010 a1 22 24 be 92 62 05 3d b6 d0 3a be 09 76 e0 3e
       -0.16028835 0.032564707 -0.1824368 0.43840054
000020 85 91 9e 3e d9 b3 fa 3d 94 42 bc 3d 9c 95 06 3e
       0.30970398 0.122413345 0.09192386 0.13143009
000030 7d 49 4a 3e 43 b5 cf 3d 40 c5 0a 3f 73 c4 8e 3e
       0.19754596 0.10141995 0.5420723 0.27884254
000040 fa ca 19 3f 2a 45 40 be 39 de 49 be c5 76 b1 be
       0.6007534 -0.18776384 -0.19713677 -0.34660926
000050 26 0a 01 bf a0 42 1c be c9 6d e8 be 3b ec 2c be
       -0.5040611 -0.1525979 -0.4539626 -0.1688699
000060 9b 98 1d bf e8 0a 8b be 76 d3 a4 bc a7 22 a2 3e
       -0.6156098 -0.27156758 -0.020120364 0.31667063
000070 6f c2 27 3f be 98 d7 3e f8 03 d0 3e 1e 47 08 bd
       0.6553106 0.4210872 0.40628028 -0.033270948
000080 ab cc e2 be 38 b7 42 3e 60 2a 98 bc 6f 7c 93 be
       -0.44296774 0.19015205 -0.018574893 -0.28805873
000090 80 9a 1c be df da 09 bf 31 51 61 bf 20 24 85 3e
       -0.15293312 -0.53849596 -0.88014513 0.26004124
0000a0 45 ed 0d bf 76 af 83 bf ff 5f 80 3d b1 fa 11 bf
       -0.5544017 -1.0287921 0.0626831 -0.5702315
0000b0 85 ca 83 bf 6a 99 63 3e 25 5d 04 3f 8e f4 8c 3e
       -1.0296179 0.22226492 0.5170463 0.2753033
0000c0 89 95 d1 bd b7 40 9d 3e 5d 9c f5 3d 05 1e d8 bd
       -0.102336 0.30713436 0.119927146 -0.10552601
0000d0 c7 02 45 be be e4 ad 3e 83 07 8f 3e 99 1e 6a 3e
       -0.1923934 0.3396358 0.27935418 0.22863235
0000e0 7e f0 85 3d 89 64 34 bd 87 9a d4 3e 7c 1c 07 3e
       0.06540011 -0.04404119 0.41524145 0.1319446
0000f0 c6 83 03 be 17 d0 4e be 40 e2 49 bd 99 ba 1b 3e
       -0.12843236 -0.20196567 -0.049288034 0.152079
000100 98 84 d3 bb 57 5d 31 3f e0 a7 3d bf db e1 10 bf
       -0.0064550154 0.6928305 -0.7408428 -0.5659463
000110 22 0a 80 bd d2 a8 3d bf e2 20 2e bf dc 12 cc be
       -0.06251933 -0.74085724 -0.68018925 -0.3985814
000120 3d d7 0d bd 1d 41 6e 3e e5 16 47 3e 40 79 52 be
       -0.034629095 0.23267026 0.19442327 -0.20554066
000130 1e b2 2a be b5 b9 eb 3d 13 da 6c 3d 97 36 82 be
       -0.16669509 0.1151003 0.05782516 -0.25432274
000140 61 44 e6 bd c0 00 c0 be 3c ea 0d bf ef 81 f4 be
       -0.11243511 -0.37500572 -0.5543554 -0.4775538
000150 9e ab c9 be 48 34 1b bf 2a 99 5a be 16 05 6c 3e
       -0.39388746 -0.6062665 -0.2134749 0.23048815
000160 45 88 f3 be 65 2f ff be b4 2d f8 3d 8c 02 15 3d
       -0.47564903 -0.49840847 0.12118092 0.036379382
000170 90 18 c7 3e 95 bb 61 3d aa 79 4f 3f e8 74 d8 bc
       0.38885927 0.055110533 0.8104502 -0.026422933
000180 d9 09 02 3e 2f 8a ab be 3d e7 24 3f cb 8b 8a 3e
       0.12699069 -0.33503863 0.6441534 0.2705978
000190 ac 52 87 be 93 8e 86 3d e5 5b 87 3d e8 44 e3 be
       -0.2643026 0.065701626 0.06609324 -0.4438851
0001a0 e4 99 6c be 92 72 ea 3e 4e b1 c4 be d8 f4 d9 be
       -0.2310558 0.45790535 -0.38416523 -0.42569613
0001b0 57 de fd bb 3c 48 d8 3e aa e7 8a 3e 3e 86 15 3f
       -0.0077474522 0.4224261 0.2712987 0.5840796
0001c0 e8 a5 19 bb 75 73 13 be 75 62 eb 3c 19 4b 82 3e
       -0.0023444835 -0.14399512 0.028733471 0.2544792
0001d0 79 d1 5a 3e c1 47 a5 3e 41 af 27 3e 43 db 71 bc
       0.2136897 0.32281306 0.16375448 -0.014761749
0001e0 da 96 90 be 33 77 14 bf f8 0e 36 be 1a 29 0f bf
       -0.2824009 -0.57994384 -0.17779148 -0.5592209
0001f0 ca 4f 25 3e b1 00 0b 3f c0 c4 be 3d 24 4e 36 3f
       0.16143718 0.5429793 0.09314871 0.71212983
000200 b3 87 5a 3f 09 a9 56 3f 43 80 eb 3e 21 f4 2a 3e
       0.8536331 0.8385168 0.45996293 0.1669469
000210 7e af 39 3e 1d aa 08 3f d8 58 0d 3f 49 e5 a5 be
       0.18133351 0.5338457 0.5521369 -0.32401493
000220 f2 47 a0 be 38 21 8e 3e 99 c3 92 be 47 27 f7 3e
       -0.3130489 0.2775972 -0.28664854 0.48272154
000230 b1 f0 13 3f aa a7 22 be 4b 5a f3 3e f1 21 77 3e
       0.5778914 -0.15884271 0.47529826 0.24134041
000240 f7 14 ed be 69 f8 82 bf 27 6c fe be 66 6a 30 bf
       -0.46305057 -1.0232059 -0.4969189 -0.6891235
000250 c2 bd 92 bf ff b8 76 bf 4d 69 28 be 87 98 d7 be
       -1.146416 -0.9637603 -0.16446419 -0.42108557
000260 cc ce 3b be bd dd aa 3d 30 f3 a1 bd 1a 80 22 bf
       -0.18340605 0.083430745 -0.079077125 -0.6347672
000270 ee 84 4f 3e 2b 0e c1 3e be 6a d3 bd 60 c9 ea 3e
       0.20265552 0.37706122 -0.10323094 0.45856762
000280 e4 83 5a be 9f 94 5c 3c a9 ae e8 bc 84 1e 0d bf
       -0.21339375 0.013463168 -0.028403597 -0.5512469
000290 e1 5c 26 bf 76 b2 0c 3e 19 f3 e1 3d ec 66 9c 3d
       -0.6498547 0.13739952 0.11032695 0.07636818
0002a0 1a 08 56 3e 0a 82 92 3e 84 2e 85 3e d5 b8 57 be
       0.20901528 0.28614837 0.2601205 -0.21066602
0002b0 1f 6e 77 3d 23 0e ae 3e 1e cf 63 bd a8 a4 14 3e
       0.060407754 0.3399516 -0.055617444 0.14515936
0002c0 fb 12 07 3f 3d 03 a7 be 2d 16 de bd 74 41 bc 3a
       0.52763337 -0.32619658 -0.108440734 0.0014362768
0002d0 60 87 17 bf 1e fe 44 bd dd 75 63 be 09 03 55 bf
       -0.5919094 -0.048093908 -0.2221293 -0.83207756
0002e0 e1 85 4f 3e da e9 a0 3e 93 f0 3a bf ec d7 36 bf
       0.20265914 0.31428415 -0.7302334 -0.7142322
0002f0 e7 11 da be 59 d1 75 3e e3 7e 12 3e ed b3 b5 3e
       -0.42591783 0.24005641 0.14306216 0.35488835
000300 53 65 90 bf ce 06 31 bf 22 83 de 3e d5 8b 19 bf
       -1.1280922 -0.6915101 0.4345942 -0.5997899
000310 7d a1 38 bf 9c 9e 9e bc 08 02 01 bf ef 17 d1 3e
       -0.7212141 -0.01936274 -0.50393724 0.40838572
000320 8a 56 4b 3e ca 61 a4 be a8 2b 00 be fe 60 2f 3e
       0.19857231 -0.32105857 -0.12516654 0.17126843
000330 88 16 f6 3c 6a 60 4a be 3f be 8c be 82 64 b1 be
       0.03004004 -0.19763342 -0.27488896 -0.34646994
000340 f8 4a 09 bf 42 74 b8 be e8 e3 05 3f 45 2b f5 3d
       -0.5363002 -0.36026198 0.5230088 0.11971144
000350 1b ce 2f bc d2 4b c9 3d 1c 3d be 3e 2f 01 30 3e
       -0.010730292 0.09828915 0.37155998 0.17187952
000360 6e 2f 8f be 3d d0 bd be 02 03 09 bf cd db a8 be
       -0.27965873 -0.37072936 -0.53520215 -0.32980195
000370 14 63 02 bf de d6 64 bb d7 c0 17 3e 70 71 18 3f
       -0.5093243 -0.003491811 0.14819656 0.5954809
000380 7c be 93 3e 2c 91 9d 3e 68 38 b1 3e f1 58 60 3f
       0.28856266 0.3077482 0.34613347 0.87635714
000390 c4 a5 2e 3d 74 52 7b 3e 53 81 31 3f d6 30 76 3e
       0.042638555 0.24543172 0.6933796 0.24042067
0003a0 cf f9 2c 3e a3 9a ac be ba eb 2f be 1c c8 bd be
       0.1689217 -0.33711728 -0.17179766 -0.37066734
0003b0 4b 84 c4 be 7b 23 a4 be 99 71 0f bf 27 98 bd 3d
       -0.38382182 -0.3205832 -0.5603271 0.092575364
0003c0 59 bc 6d 3d b8 12 a8 3e 44 ba bd 3e a1 8b d9 bc
       0.05804095 0.3282678 0.37056172 -0.026555838
0003d0 e1 23 eb 3c dd 67 73 be c8 96 8f be da 14 fc be
       0.028703632 -0.2377009 -0.28044724 -0.49234658
0003e0 01 84 08 bf 4f 10 2e 3e 52 c8 13 3e 0d 8f a8 3e
       -0.5332642 0.16998409 0.14431885 0.3292164
0003f0 e3 8f 28 be 30 29 f3 3e b2 d3 18 3c 33 c5 36 3e
       -0.16461138 0.4749236 0.009327816 0.17848663

conv2.bias f4 [8]
000000 9b b5 e5 3d ae b6 ea bd 5b 09 19 be eb 23 c3 3d
       0.11216279 -0.11460625 -0.14944975 0.09528335
000010 95 9d 02 be e7 c3 35 3d 3d 59 56 3e 22 89 a8 3d
       -0.12755425 0.04437628 0.20932479 0.08229281

conv3.weight f4 [8, 4, 3, 3]
000000 0f 3b 2b 3f c6 94 3f 3f 3a bc 86 3d dc 36 3b bd
       0.6688699 0.74836385 0.0657887 -0.045706615
000010 81 d4 7e bf d2 9d 98 be 6b a3 03 3f 67 4b 25 be
       -0.99543005 -0.29807907 0.5142123 -0.16142045
000020 39 a5 78 be 74 73 00 bf 6d e5 24 bf 57 91 49 bf
       -0.24281777 -0.5017617 -0.64412576 -0.78737396
000030 ce 36 c6 3d 27 0b 8a 3e c5 d0 86 3e 0b d1 d9 3e
       0.09678422 0.26961634 0.26331154 0.425423
000040 c7 f9 4b 3f 7b 22 bf 3e fd cb 7b be e6 de 49 bd
       0.79678005 0.37330994 -0.24589534 -0.04928484
000050 ae c2 04 bb 6d bc 7a 3e 97 b3 cd 3b ac 0e c3 3d
       -0.002025764 0.24485941 0.0062775123 0.09524283
000060 d9 50 09 3e b6 88 48 be d0 aa 7d bd 44 b9 83 3e
       0.13409747 -0.19583401 -0.061930478 0.25727284
000070 53 80 c4 bd 2a 78 1e bf 42 5a 2a be cb df 6a 3d
       -0.095947884 -0.61902106 -0.16635993 0.05734233
000080 24 36 b8 be e0 16 dc 3d d0 6d 9d 3e 51 38 2d 3d
       -0.35978806 0.107465506 0.30747843 0.042290036
000090 36 15 7a be b9 a8 a0 be aa c8 54 3e 35 84 72 3e
       -0.24422154 -0.31378725 0.20779672 0.23683245
0000a0 49 df 11 3f 04 39 2e 3f ed 50 ea bc 94 71 06 be
       0.5698133 0.6805575 -0.028603042 -0.13129264
0000b0 46 05 a1 3e 20 cf 99 3e ce ca 8a 3d 8d 10 da 3e
       0.31449336 0.30040836 0.06776963 0.42590752
0000c0 1e 4c 2c 3f ca 64 8b 3e b7 9c 35 bb f9 c5 06 be
       0.67303646 0.27225333 -0.0027711818 -0.13161458
0000d0 5a db 02 bf fa 1f ff be d6 e1 af 3e 0c b4 51 be
       -0.51115954 -0.49829084 0.34351987 -0.20478839
0000e0 66 2d 20 bf 7a 5a 3a 3d 37 34 37 3f 71 06 d9 3e
       -0.6256927 0.04549644 0.7156405 0.42387727
0000f0 03 e6 26 bd 82 28 4a bd e7 0e 0b be ee 65 ee 3e
       -0.0407467 -0.049355038 -0.13579904 0.4656214
000100 e4 52 11 3f f4 bb 92 bc fd fe 71 3d 1c 19 f9 be
       0.56767106 -0.017911889 0.059081066 -0.4865197
000110 15 9f 33 bf 5c fc 2e 3c 26 26 af 3e 80 f7 b8 3e
       -0.70164615 0.010680284 0.34208792 0.36126328
000120 27 94 86 3e 98 e3 14 bf 1c 61 68 3e ea 94 ba bd
       0.26284906 -0.5815978 0.22693294 -0.09110434
000130 87 3b 1e bf f9 69 d5 3d 27 0d 30 bf e3 2e 81 3e
       -0.6180958 0.10420603 -0.6877007 0.25231084
000140 1f 87 74 be 80 79 e8 be 60 d3 10 bf df 0e ed be
       -0.2387967 -0.45405197 -0.5657253 -0.46300408
000150 07 a3 42 bf 28 65 06 bf f2 30 44 3e 8f 65 22 bf
       -0.7603001 -0.524981 0.19159296 -0.63436216
000160 f0 15 d8 3d 17 c8 1a be d3 c4 f7 bd c9 e0 a8 be
       0.10551059 -0.1511539 -0.12098088 -0.32983997
000170 18 62 31 be b8 0b e9 ba 9c b7 b9 be 97 cf fa be
       -0.17322576 -0.0017779982 -0.36272895 -0.48986503
000180 42 69 12 3c b2 4c 5f be f0 35 91 be c1 fd 6f 3e
       0.008936228 -0.218066 -0.28361464 0.23436643
000190 17 34 af 3e e7 cd 05 bf 65 57 02 3f 32 d7 f2 3e
       0.3421943 -0.5226731 0.50914603 0.47429806
0001a0 65 61 39 bd 4b 10 ca be 04 5f 87 be d5 6e a8 be
       -0.0452589 -0.39465556 -0.2643968 -0.32897058
0001b0 36 39 ed be 05 64 c0 3e 82 20 8a 3e 35 89 9b bf
       -0.4633271 0.3757631 0.26977926 -1.2151247
0001c0 75 51 93 3e 6f d4 21 bd 65 43 73 be d2 bb 97 3e
       0.28773084 -0.039509233 -0.23756178 0.29635483
0001d0 dd 91 89 be aa 0d 2f 3e df 5b 96 3d 62 97 3a be
       -0.26869097 0.17095056 0.07341742 -0.1822181
0001e0 da 51 9a 3e 2f 01 b3 3e 76 36 92 bf 55 bb 2c be
       0.30140573 0.3496184 -1.142287 -0.16868336
0001f0 9c d3 c8 3d dd e3 eb be 78 a6 b9 3e 76 f3 73 3e
       0.09805986 -0.46072283 0.36259818 0.23823342
000200 c9 20 ae 3e ce 09 d9 be f9 62 bf be b0 d4 d0 3e
       0.34009388 -0.42390293 -0.37380198 0.40787268
000210 af 9f 12 bf 08 1f 5c be 4c 4c b1 bb f3 5b e4 3e
       -0.5727491 -0.21496212 -0.0054107066 0.44601402
000220 52 be 88 bb 84 98 b2 3e 72 72 0f 3f ee 55 b7 3e
       -0.0041730786 0.34881985 0.56034005 0.35807747
000230 c2 91 dc 3e 80 9a a4 3e e5 5d 3e 3e f7 38 fb bb
       0.43079954 0.32149124 0.18590505 -0.007666703
000240 79 7f ca 3e 7d f3 e4 3e 6a 4e 37 bd 74 6e 77 3f
       0.3955038 0.44717017 -0.044752516 0.96652913
000250 ac 6e e8 3c 69 ea b1 be dc 2a ed 3a de 7e c7 be
       0.028373085 -0.34749153 0.0018094438 -0.3896398
000260 ca 5d cb bd 45 e0 bd 3a 3c 1c 20 3c c1 4e a5 3e
       -0.09929998 0.0014486393 0.009772357 0.32286647
000270 e0 75 80 3e 51 c5 e6 be 95 26 ba be da 39 83 bf
       0.2508993 -0.45072415 -0.3635756 -1.025203
000280 cf e7 1d be 87 f0 82 3e bb f5 e2 bb c1 6e 11 3e
       -0.15420459 0.25574133 -0.006926266 0.14202406
000290 8c f3 9d be 17 f9 10 3e be a5 1a 3d 83 af 8e be
       -0.30849874 0.1415752 0.03775572 -0.2786828
0002a0 46 de 18 3e f4 cf 66 be e6 65 a9 be dc 58 22 3f
       0.1492854 -0.22540265 -0.33085555 0.6341684
0002b0 30 d7 85 be a1 3e 36 3e c8 2b 9b bf 26 9b 0d bf
       -0.26140738 0.17797329 -1.2122736 -0.5531486
0002c0 a0 f2 db be f1 63 f1 3c 66 a3 06 be 7b 7a 05 be
       -0.42958546 0.029466601 -0.13148269 -0.13035004
0002d0 ac eb 14 be a6 ca cb be 17 ef d4 be fd 43 5b bd
       -0.14543027 -0.39803046 -0.4158866 -0.053531636
0002e0 63 bd 54 bf 42 3a 58 bf c9 ac b8 bd b9 b3 b8 bd
       -0.8310148 -0.84463894 -0.09017331 -0.090186544
0002f0 74 ab 90 3e d1 16 37 be d1 2c 12 3f c1 1a 0e 3f
       0.28255808 -0.17879798 0.57099634 0.55509573
000300 b9 a4 cf bc 93 ed 26 bf db 50 bb bd 6b 13 4a 3f
       -0.0253471 -0.6520626 -0.09146281 0.7893588
000310 a3 4f 30 3e 33 b2 98 bd 86 ab d7 be 96 a9 14 bf
       0.17217879 -0.07455864 -0.4212305 -0.5807127
000320 26 7d dc be 4c 51 cf 3e 82 15 43 3f 5c ec a4 3d
       -0.4306423 0.40491712 0.76204693 0.080528945
000330 57 79 82 3e 3d ca 98 3e 0b 53 4b be 1d 33 19 bf
       0.254832 0.29841796 -0.19855897 -0.5984362
000340 52 ce 21 be ff 31 e1 3e b6 fc a2 3e 55 49 61 be
       -0.15801361 0.43983456 0.31833428 -0.2200063
000350 d4 63 17 be 87 17 2b bd 33 0c 12 bf 8d 58 04 bf
       -0.14784175 -0.041770484 -0.57049865 -0.5169762
000360 43 8e 20 3f 87 e0 bb 3e da 12 f6 be a0 3f 93 bd
       0.62717074 0.36694738 -0.48061258 -0.0718987
000370 42 bb 0e 3f d6 24 b1 3e 76 4b ed be 15 7e 8b be
       0.5575448 0.34598416 -0.46346635 -0.2724463
000380 44 c7 38 be 13 8d 24 3e 4b e9 d8 bd 19 bb df bd
       -0.18044764 0.1606944 -0.10591372 -0.10924358
000390 90 20 c8 be 58 47 05 3f 89 09 a1 3e 3f af 71 3e
       -0.39087343 0.52061987 0.31452587 0.23602007
0003a0 e0 c3 05 bf 89 9d 6d be 30 ee 7d 3d 31 34 d3 bd
       -0.52252007 -0.23204626 0.06199473 -0.10312689
0003b0 47 a1 97 be e8 35 a2 3f d2 5b 54 3f 60 57 59 bd
       -0.29615232 1.2672701 0.82952607 -0.053061843
0003c0 44 b6 a0 3e e7 ca e2 3e ee 74 e1 3d dc af 3b 3f
       0.31389058 0.44295427 0.11008631 0.73315215
0003d0 ac fc 45 3f c4 3e 43 3f ac d5 db bd c5 75 d3 3e
       0.7733867 0.7626765 -0.10734114 0.4130079
0003e0 d9 cd 7e 3e 63 60 66 3e e4 43 e7 be 1d db 02 bf
       0.24883212 0.22497706 -0.45168984 -0.5111559
0003f0 03 c2 10 3e d5 7c d7 be 01 77 b9 3d 2f 4c 1f bf
       0.1413651 -0.42087427 0.09055901 -0.6222562

conv3.bias f4 [8]
000000 85 e4 81 be 2a 19 99 bc fd 84 62 be 85 42 34 3e
       -0.2536966 -0.018688757 -0.22121044 0.176035
000010 5f 36 14 be ba 55 73 3d c2 0d 4b 3e 07 9d 00 3e
       -0.14473866 0.059407927 0.19829467 0.12559901

conv4.weight f4 [16, 8, 3, 3]
000000 6d 94 cf be 9e a7 86 be af 2d 6f bd e2 a8 4b 3d
       -0.40542927 -0.26299757 -0.058393177 0.049721606
000010 10 8e 7a 3e 8c 0b f7 3e 14 32 05 3e 6d 27 ed 3c
       0.24468255 0.48250997 0.13007385 0.028949464
000020 eb 95 80 3d 0d 7a 20 bf 75 8c 11 bf f0 92 ad 3d
       0.062785946 -0.62686235 -0.56854945 0.08475292
000030 ab 62 9a bf 6c 82 34 bf 2c c6 35 bf bc 51 54 be
       -1.2061361 -0.7051151 -0.7100551 -0.20734304
000040 55 47 e5 3e 0a 93 0a 3f 87 4f f3 3e 71 47 b0 bd
       0.44780985 0.54130614 0.47521612 -0.08607376
000050 bb 19 c4 3e 1c f7 17 be 61 33 e0 be cb 05 64 3f
       0.3830088 -0.14840358 -0.437892 0.8907134
000060 22 00 b7 be 4e 90 6b bf 9a c8 84 3c 2b 73 00 3f
       -0.3574229 -0.92017066 0.016208936 0.5017573
000070 de 42 35 3f 4f 81 5f be cb 4e 95 3e 17 54 7f be
       0.70805156 -0.21826671 0.29161677 -0.24934421
000080 eb 7a a8 be a5 d2 44 be 86 3f 3c bf f8 cc de be
       -0.3290628 -0.1922098 -0.7353443 -0.43515754
000090 d1 49 83 bf 1a 77 a3 be e5 b2 1c 3f 68 8d 4f bf
       -1.0256902 -0.31926805 0.6121047 -0.81075144
0000a0 a3 92 02 be 92 ef 60 3e c6 0b 41 bf cc 9c a6 bd
       -0.1275125 0.21966389 -0.7540859 -0.081353754
0000b0 c9 26 b3 3e 5e f7 0a bf 1d 65 f9 bd 89 90 a8 be
       0.34990528 -0.542837 -0.12177489 -0.32922772
0000c0 e8 66 e6 be f8 17 7e 3d 56 c9 f0 3d b7 9e 1f 3e
       -0.45000386 0.062034577 0.11757152 0.15587889
0000d0 26 d5 50 3e ba 47 eb 3d 68 0b ca bc 09 94 a6 be
       0.2039381 0.1148829 -0.024663642 -0.32534817
0000e0 e5 d1 3b bf 1f 2e 80 be af 09 9e 3e c6 72 17 be
       -0.7336715 -0.25035188 0.30866763 -0.14789876
0000f0 aa 2c 10 3e a6 15 16 bc 4c 7e 29 bd e3 84 a4 3e
       0.14079538 -0.009160435 -0.04138021 0.32132635
000100 66 8e 45 be ab 6d ce be c3 02 31 bd d3 95 b8 be
       -0.19292602 -0.40318045 -0.043215524 -0.36051807
000110 03 05 a8 3d b6 d7 98 3e 76 9c 9a 3e 52 0f 28 3f
       0.08204081 0.29852074 0.30197495 0.65648377
000120 3c 51 ae 3e fa c2 c8 3d 72 df 84 3e 5a 37 13 3e
       0.34046352 0.09802814 0.25951725 0.14376584
000130 72 f4 da 3e a5 33 f3 be 9b dc a7 bd a6 80 08 bd
       0.42764622 -0.4750034 -0.08196374 -0.033325814
000140 ab a1 3a bf 7f 52 61 3e a3 1e 32 3e d8 3b 55 bd
       -0.72902936 0.22004126 0.173945 -0.052059025
000150 91 2d 39 bd b3 c0 14 3f c4 f7 00 3f 65 ab f0 3e
       -0.04520947 0.58106536 0.5037806 0.47005764
000160 dc 2b d5 3d 20 92 0f 3e 3b 8e dc bd 4a 62 94 3e
       0.10408756 0.14020586 -0.10769316 0.2898124
000170 6d f4 cd 3e 6e 00 0d 3e 31 a3 7b 3e 2e 8f 02 be
       0.40225545 0.13769695 0.24573971 -0.12749931
000180 6c 13 ab be ea 6f a8 be 9c 5a be be 84 11 89 3e
       -0.33413255 -0.32897884 -0.37178504 0.26771176
000190 8c 5a b3 3d d6 6b 0e bf b5 c2 e5 bd 0d 32 a2 be
       0.08757505 -0.55633295 -0.11218778 -0.3167881
0001a0 76 e8 48 bf c9 61 a8 3e 61 5d 21 bd 92 14 b0 be
       -0.7847971 0.32887104 -0.039395694 -0.34390694
0001b0 18 cc 85 be 0f 64 cd 3e fe 31 8c 3d 1a 1f dc be
       -0.26132274 0.401154 0.06845473 -0.4299248
0001c0 01 14 62 3e 8e 24 66 bb a0 33 3b 3e 65 66 56 3e
       0.22077943 -0.0035117003 0.18281412 0.20937498
0001d0 b4 90 d3 3e f8 3f 10 bf 24 b7 4f be d8 58 d9 3e
       0.41321337 -0.5634761 -0.20284706 0.42450595
0001e0 07 a8 14 be 55 6e 9a be 2b 6b 52 bf 69 d3 45 be
       -0.14517222 -0.30162302 -0.82194775 -0.19318928
0001f0 b4 24 4c be c8 f4 fc 3d f2 8c cf bd d2 09 b1 3e
       -0.19935876 0.12351376 -0.10134305 0.34577805
000200 49 32 a7 be 5b 18 77 3f bc 5d 16 3d 38 3c cf 3e
       -0.32655552 0.9652154 0.036710486 0.4047563
000210 a0 49 d3 3e aa be 4c be 53 d0 13 bf 8d 75 80 bd
       0.4126711 -0.19994608 -0.5773975 -0.06272421
000220 5b e2 61 3d 20 e9 a5 3e 03 75 54 bf 1d a6 21 be
       0.05514751 0.32404423 -0.82991046 -0.15786023
000230 e4 3c 6d be c9 b8 3c bf 2e 7a 15 bf 33 ba b6 be
       -0.23167759 -0.7371946 -0.58389556 -0.35688934
000240 25 cd e3 3d 5e 27 6c 3e ee db a9 3e 18 b8 49 3e
       0.111231126 0.23061892 0.33175606 0.19699132
000250 c4 be 5d be 74 6e ef be ac 30 b8 3b 6c ee b8 bd
       -0.21654803 -0.46763957 0.0056210365 -0.0902985
000260 be 93 f0 be db e2 57 3e 73 dd 95 3e c3 3a 26 3f
       -0.46987718 0.21082632 0.29270515 0.64933413
000270 47 f7 52 3c 8b 53 df 3e c8 2d 1c 3f f2 e1 38 bf
       0.012876338 0.43618426 0.61007357 -0.72219765
000280 ac 3e be be 28 7f f4 3e 34 c8 c0 bd 6a df 7f 3e
       -0.3715719 0.47753263 -0.09413186 0.2498757
000290 ed c6 8d be c8 fb 51 3f 3d 88 38 3e d8 ab fa 3c
       -0.2769083 0.8202481 0.18020721 0.03059952
0002a0 6b 1b b8 3e ab 82 7f 3c ae 44 8b be a6 f6 46 be
       0.35958418 0.0155951185 -0.27200836 -0.19430026
0002b0 cd 74 ee be 80 13 c3 3d 7b f1 b5 3e d6 16 7f be
       -0.46573487 0.09525204 0.35535797 -0.24911055
0002c0 08 47 24 be c4 ee c6 3e cf 96 9a 3e 62 0c 12 3e
       -0.16042721 0.3885404 0.30193183 0.14262536
0002d0 da 94 23 be 57 20 8b be f1 a9 9d be 89 41 29 bf
       -0.15974751 -0.2717311 -0.30793718 -0.66115624
0002e0 04 ca 40 be 55 a3 2f 3f 35 50 ad bf c1 f5 61 bf
       -0.18827063 0.686086 -1.3540102 -0.88265616
0002f0 b7 92 54 3c f2 a6 cb be 10 fd 7c 3e 8f f9 c5 3c
       0.012974433 -0.39775807 0.2470591 0.02416685
000300 34 44 25 be 6b 1b 44 3f f4 af af bc 36 e3 ea be
       -0.16139299 0.76604337 -0.021446206 -0.45876473
000310 cc ab ec 3d bf c6 60 3e db 2a ab bf be 9b a2 bf
       0.11556205 0.21950816 -1.3372453 -1.2703779
000320 8d ed 16 bf 29 1c 26 bf 4e 64 a8 be 64 10 c5 3e
       -0.58956224 -0.6488672 -0.32889026 0.38489068
000330 5b 53 0e 3e cf 61 00 bf e2 19 27 be a9 97 b3 3e
       0.13898985 -0.50149244 -0.16318467 0.35076645
000340 bb 74 7d bd 69 4f 2b bd 16 5b d5 3d 88 4d 71 be
       -0.0618789 -0.04182378 0.10417764 -0.23564732
000350 c3 d1 c1 be 35 93 5c be 93 41 8a 3e 7e 1a 82 3e
       -0.37855348 -0.2154053 0.27003154 0.25410837
000360 b4 cb 24 bf 86 0d f3 be c4 9e 83 3e b6 c7 06 bf
       -0.64373326 -0.47471255 0.25707066 -0.52648485
000370 99 aa 1c bf e0 9e dc be f9 3e 94 3e b5 82 e0 3d
       -0.6119781 -0.43089962 0.28954294 0.109624304
000380 0e 30 f1 3e 84 75 e5 bd 04 7b 0c be 1c 47 24 3c
       0.47106975 -0.11204055 -0.13718802 0.010026719
000390 68 5c 1e 3e ba 2a 8a 3d e8 81 4f 3f 1f 96 28 be
       0.15464938 0.06746431 0.81057596 -0.16463517
0003a0 81 92 11 be 77 70 07 bf 72 be 2d 3e f2 d3 df 3b
       -0.14216043 -0.5290598 0.1696718 0.006830686
0003b0 41 ae 10 3f b3 59 00 be f5 8b 46 be 92 4a 9d 3e
       0.5651589 -0.12534218 -0.19389327 0.30720955
0003c0 bb 50 31 3f ff aa 38 bd fe 13 9a be 83 2c a4 be
       0.6926381 -0.04508495 -0.30093378 -0.3206521
0003d0 25 dc 0f 3e ae 7f e1 3e 0b 5c 8f bc c5 01 c3 bd
       0.14048822 0.44042724 -0.017499944 -0.09521822
0003e0 a9 43 c3 bd e3 e7 47 3e 1f 1a 3a 3d 4f 76 16 3e
       -0.095343895 0.19522052 0.045435067 0.14693569
0003f0 6d cf b8 bd 05 0a 5b be 52 2d 2b be 1d 21 17 3f
       -0.09023938 -0.21390541 -0.16716507 0.590349

conv4.bias f4 [16]
000000 eb b5 31 3c 59 b8 42 bd e9 69 38 bd 92 54 17 bd
       0.010846595 -0.04753909 -0.04502288 -0.036945887
000010 7b 5f c3 bc ec 2e 5e 3e 42 3f 06 be 1e 73 c8 3c
       -0.02384924 0.21697587 -0.13110068 0.024468955
000020 13 14 3c 3e 50 53 07 be 49 dd 2d be 5f 34 56 3e
       0.18367033 -0.13215375 -0.16978945 0.20918415
000030 a2 6d 92 3c 82 7c 00 be ff bf b5 3c d6 56 ce 3d
       0.017874543 -0.12547496 0.022186277 0.100751564

conv5.weight f4 [16, 8, 3, 3]
000000 57 77 f5 3d a2 be cb 3d cb e2 26 bd b4 51 a5 bd
       0.11985653 0.0994847 -0.04074363 -0.08072224
000010 e1 68 07 be 41 df e0 3e 9a c8 84 be b6 87 5a 3d
       -0.13223602 0.4392033 -0.25934297 0.05335208
000020 a7 6d a0 3e ed 4c 15 3e fe 51 2f 3e bc 29 b6 3e
       0.31333658 0.14580126 0.17121121 0.35578716
000030 33 e3 48 bf 1b 97 10 3d 21 83 e9 3e b6 b3 3f 3e
       -0.7847168 0.035300355 0.45607856 0.18720898
000040 2e a0 1d 3f 91 9f 10 bf 10 a4 54 3d 1a a3 15 3d
       0.6157254 -0.5649348 0.051914275 0.0365325
000050 7a 0b 7c 3e 1c c7 79 be 04 29 b0 bd 5a 09 ec 3e
       0.24613753 -0.2439236 -0.08601573 0.46100885
000060 56 1f 88 be c8 43 7a bf fa 2c 42 bf 38 55 1c bf
       -0.26586407 -0.97759676 -0.7584988 -0.61067533
000070 6b 9d 0f bf 36 d8 60 3d 05 5e 64 3f 49 f3 42 bd
       -0.56099576 0.054893695 0.8920596 -0.047595296
000080 4e a1 11 bc fd d1 82 3e df 9e 54 bf dd 93 1e bf
       -0.008888556 0.25550833 -0.8305492 -0.6194437
000090 a7 57 cd 3e a1 3f 61 3e 70 e3 56 3c aa 4c 4f be
       0.40105936 0.21996929 0.013115749 -0.20244089
0000a0 b9 42 1e bf 79 2d fb bd 70 10 1b bf 76 4a d7 be
       -0.6182056 -0.122645326 -0.60571957 -0.42048997
0000b0 ab 54 d1 3e ea 8c ab bd 11 87 8c 3d 7d 78 c4 3e
       0.4088491 -0.083764866 0.068616994 0.38373175
0000c0 80 b3 a8 be 2e 88 83 be 63 d2 41 3e 4f be 1d 3f
       -0.32949448 -0.25689834 0.18927912 0.6161851
0000d0 aa 0c dd bd 8e a4 8b 3d 4f f3 97 bd d2 7d 62 3e
       -0.10793431 0.06818496 -0.07419454 0.22118309
0000e0 f9 c8 c1 3e 76 89 06 3f 70 68 a1 3e ec a7 97 bd
       0.37848642 0.525535 0.31524992 -0.074050754
0000f0 36 6a 78 bf bc a7 ee 3d 84 4a b5 bd 23 be 81 3d
       -0.97037065 0.116530865 -0.08852103 0.06335094
000100 34 ae 55 be ed 09 a4 be 48 62 04 3f b3 cf 9d be
       -0.20867234 -0.32038823 0.51712465 -0.30822524
000110 ae 8d dc be 2f 2e 55 bf 0e 2f fa be 11 70 d8 3e
       -0.43076843 -0.83273596 -0.48864025 0.42273
000120 72 b0 9b 3d 69 39 01 3e be d1 72 3e 0b f8 4e bf
       0.07602014 0.12619556 0.23712823 -0.80847234
000130 e0 e3 53 3e 15 82 8c be 17 11 1e bf 49 50 ac bc
       0.20692396 -0.27442995 -0.6174483 -0.021034377
000140 60 98 17 bf 09 b0 37 bf da 42 56 bd 81 6e 62 3d
       -0.5921688 -0.71752983 -0.05230985 0.055281166
000150 6a c8 9b be 34 61 fb 3e 71 14 b9 3e 7f 90 32 3f
       -0.3042634 0.49097598 0.36148408 0.69751734
000160 f0 b3 19 be 66 19 18 bf 9e dc 11 bd 3d 64 cf be
       -0.15010047 -0.59413755 -0.035610788 -0.40506163
000170 cc ca 9a be ba b6 08 3d 45 bc cd 3e de 8c 5f 3f
       -0.30232847 0.033377387 0.401827 0.8732432
000180 76 c1 5b 3e d1 d6 06 3f 7f 2a c7 bb 49 c7 ba 3d
       0.21460518 0.52671534 -0.006078064 0.09120042
000190 ff 53 85 be 0e be d6 bd d6 79 fd be 2d 93 f7 be
       -0.26040646 -0.10485469 -0.49507016 -0.48354474
0001a0 b2 c2 78 be 98 60 86 bd 2e 85 a1 bd e7 8d ec 3e
       -0.2429302 -0.065613925 -0.0788673 0.46202013
0001b0 2e d2 cd bd da 9a a5 bd dc e5 d5 3e cd 55 43 bf
       -0.10049854 -0.08086176 0.4177693 -0.76302797
0001c0 4b c0 50 be 4c 5b 2e 3f a0 16 1e bf 3c a0 52 3e
       -0.20385854 0.6810806 -0.61753273 0.20568937
0001d0 8b 85 30 3e 86 ba 52 be d5 79 4a 3e c3 f6 b6 be
       0.17238443 -0.20578966 0.19773038 -0.3573514
0001e0 a7 d5 60 3f d7 57 11 3f 2a 0c 4b bf df ac f9 3c
       0.8782601 0.5677466 -0.79315436 0.03047794
0001f0 e3 e6 55 bf e3 78 59 bf 4e f2 66 bd 5e 07 39 3d
       -0.8355543 -0.84950083 -0.056383424 0.04517304
000200 09 c6 dc be ea 3a 84 bf 76 07 f5 3d fe b9 0c bf
       -0.4311984 -1.0330479 0.11964314 -0.549713
000210 09 dc 03 3f c5 0d ef 3e a4 48 93 bf 56 e8 48 3f
       0.5150762 0.46690193 -1.1506543 0.78479517
000220 bf 3f 34 be 0c 85 6a bd f8 a6 1f be 15 05 4d be
       -0.17602442 -0.05725579 -0.15591037 -0.2002147
000230 28 d5 5f 3e f0 e5 91 bd 0e 73 e0 3e 20 0d 44 be
       0.21858656 -0.07123935 0.4383778 -0.19145632
000240 7a c7 f4 3d 48 02 7a bf 77 b7 13 bf 60 e1 b3 3e
       0.1195211 -0.9765973 -0.5770182 0.35132885
000250 0c 28 92 3c 0c 6c 31 bf e7 1c 0e bf 92 10 04 be
       0.017841361 -0.6930549 -0.5551285 -0.12896946
000260 36 26 db be 49 e4 2a 3f 83 cf c2 be 27 fe 5c bf
       -0.4280259 0.66754586 -0.38048944 -0.86325306
000270 fd 20 52 3f c9 c1 84 3d 6b cd 97 bf 4a 14 57 be
       0.82081586 0.06482274 -1.1859564 -0.21003833
000280 f5 9d c3 bd 60 a9 0d bf e6 92 97 be 64 d6 9d 3d
       -0.09551612 -0.5533657 -0.29604262 0.077069074
000290 d1 69 87 be a6 c9 63 3e 5f 34 b0 bd 6d 50 a9 be
       -0.2644792 0.22244892 -0.08603739 -0.33069173
0002a0 3e ce af be 67 c4 19 bf 1d 34 37 bf 16 6f e2 3e
       -0.34337038 -0.6006531 -0.71563894 0.44225377
0002b0 24 09 3d be c2 f4 8b bd 6b 0c 0c bf b4 11 4f bf
       -0.18460518 -0.06833793 -0.5470645 -0.8088639
0002c0 4b 14 29 bd f0 f7 16 3e cd c4 7f be 07 ae 1d be
       -0.04127912 0.14743018 -0.24977417 -0.15398417
0002d0 f1 b2 c7 be 5c 04 94 be 6d a2 df bd bd 50 03 3e
       -0.3900371 -0.28909576 -0.10919652 0.12823768
0002e0 de 85 bc bd 2b 2b 03 bf ba 41 75 bf 88 74 f2 be
       -0.09205221 -0.51237744 -0.95803416 -0.4735453
0002f0 df c2 e0 bd 69 50 e3 3e a3 39 4f 3e c7 fd 19 3e
       -0.10974669 0.44397286 0.2023683 0.15038215
000300 02 8c 6e 3e cc 9c 0d bf be 8b c1 be ec c1 14 3f
       0.23295596 -0.5531738 -0.37801927 0.581084
000310 17 55 aa 3d b0 31 6e be 72 30 fd be a1 fa a9 bd
       0.08317011 -0.23261142 -0.49451023 -0.08299757
000320 05 5b b2 3d 12 a5 04 3f 73 a0 e4 bd 02 f8 32 be
       0.08708767 0.5181438 -0.11163416 -0.1747742
000330 3b 91 af 3e 4a ee b9 bb 4a d4 70 bd db 10 0d be
       0.3429049 -0.005674158 -0.058796205 -0.13775961
000340 79 a1 52 bf 7e 0b 22 bf 9f f7 04 bd f7 b0 0d bf
       -0.8227764 -0.63298786 -0.032462712 -0.5534815
000350 f7 a8 29 be d0 1c 11 3e 05 62 cd be 53 bf 73 be
       -0.16568361 0.14171147 -0.40113845 -0.23803453
000360 10 4a 92 be d7 c6 5e 3d ad 93 ac bd 01 dd ad 3e
       -0.2857213 0.054388847 -0.084266044 0.33957675
000370 c6 72 11 3f 49 ee 9e bd 7f b1 09 bf cd 32 8b 3e
       0.56815755 -0.07760293 -0.5378646 0.27187195
000380 d8 f2 d0 3e 1c 5a 2b be 6e ba ec 3e 00 b2 8b bd
       0.40810275 -0.16733593 0.46235985 -0.0682106
000390 56 96 07 bd b9 da 13 3e c9 b4 94 be bb 50 82 bf
       -0.033102356 0.14438905 -0.29044178 -1.0180887
0003a0 ba 5d 85 bd e1 ef b2 3e b2 e4 5e 3e 91 78 86 be
       -0.065120175 0.34948638 0.21766928 -0.2626386
0003b0 8a e9 7d 3d 21 24 d8 3c 19 b9 48 be 02 49 06 3e
       0.0619903 0.026384415 -0.19601859 0.13113788
0003c0 30 10 e0 be 0b 81 3a bf d7 61 a2 3e 93 de c7 3e
       -0.4376235 -0.72853154 0.3171527 0.39036998
0003d0 1a 81 f4 3e 18 07 d3 be a0 4b 19 be 08 6d 23 bc
       0.47754747 -0.4121635 -0.14970255 -0.009974726
0003e0 23 bf c5 3e 32 04 f1 3d 9a 7a e5 3d 75 1f 81 be
       0.38622388 0.11768378 0.11205025 -0.25219312
0003f0 96 ff aa be f0 a9 8c bd 59 cf 65 3f a7 6a e9 bd
       -0.33398122 -0.068683505 0.8976951 -0.113972954

conv5.bias f4 [16]
000000 86 c4 26 3e 99 40 c9 bd 0c 4a 85 bd e1 4c 00 3e
       0.16285905 -0.09826774 -0.06508264 0.12529327
000010 c2 d8 d5 3d 0b b2 28 3c 34 ba 92 3e 5b b8 69 3d
       0.10441734 0.010296355 0.28657687 0.05706058
000020 21 c3 14 bd 0c 73 87 3d 79 ab 88 3b 1c 0c 34 be
       -0.036318902 0.0661374 0.0041708318 -0.17582744
000030 4a e5 9c 3d 03 a8 08 bd 83 14 b1 bd 55 72 00 bd
       0.07660921 -0.033363353 -0.086464904 -0.031359036

conv6.weight f4 [24, 16, 3, 3]
000000 4b c3 20 3f f2 dd 63 3f ea e1 80 3d 1b ee 63 3f
       0.62797993 0.89010537 0.0629309 0.89035195
000010 73 f9 e3 3e 05 dc ec 3c 28 ba 11 3f c3 36 c3 3e
       0.44526252 0.028913507 0.56924677 0.38127717
000020 a6 8e 2a 3f c3 4c 13 bf 62 55 33 bf 74 a9 40 bf
       0.66623914 -0.57539004 -0.7005216 -0.75258565
000030 82 56 db bd 53 39 9b be a7 7b 6e be d6 85 c7 3e
       -0.107098594 -0.30317172 -0.23289357 0.38969296
000040 9b 6f d9 bd 4c bf 79 be 99 d0 24 3e 86 9d 86 be
       -0.1061699 -0.2438938 0.16095199 -0.26292056
000050 39 5b 23 be f1 f5 75 bc a6 0a 9d be ff c6 df 3c
       -0.15952767 -0.01501225 -0.30672187 0.027316568
000060 f9 51 01 3f f1 a2 cb bb 92 43 b6 3e 26 f2 5e be
       0.50515705 -0.0062144925 0.35598427 -0.2177206
000070 37 07 73 bd 97 50 02 bf 22 35 9d be 18 72 43 be
       -0.059333052 -0.5090422 -0.307046 -0.19086492
000080 1d c3 2d be d5 44 86 bd 6b 64 53 be 2e e2 d3 be
       -0.16968961 -0.065560974 -0.20643775 -0.413835
000090 98 a6 a0 3e af fa a9 3e eb ca 45 3e a4 48 8f 3d
       0.313771 0.3319907 0.19315688 0.06996277
0000a0 33 e3 95 be b9 5a b3 be 0e b1 ca be c8 a7 65 be
       -0.29274902 -0.35030153 -0.39588207 -0.22427285
0000b0 cf c3 48 3c b7 ca a5 3d 7e 77 74 3d 4b 58 ea be
       0.012253716 0.080953054 0.05968427 -0.45770487
0000c0 0b 70 09 3f 18 c7 02 3f 39 ec 66 3d 6c 38 c8 3d
       0.5368659 0.5108504 0.056377623 0.097763866
0000d0 d6 b9 a2 3e 6b 25 d5 3e 3d d1 11 3d 3c c9 80 bd
       0.31782407 0.4163011 0.035599936 -0.062883824
0000e0 0d 74 42 bf 0c c1 23 bf fa ec 1b bf af 4a 8b be
       -0.7595833 -0.6396644 -0.6090847 -0.27205417
0000f0 6e 4e 90 bf 0a cc 15 bf 1e 32 5d bd 48 8f 21 bf
       -1.1273935 -0.58514464 -0.054002874 -0.63109255
000100 b9 b2 9c 3d 90 8f eb bc a4 dd d3 bd 04 08 c2 3e
       0.07651276 -0.02875498 -0.10345009 0.3789674
000110 d2 99 d0 3e b6 73 2e be a8 12 21 3e c1 92 c4 3e
       0.40742356 -0.17036328 0.15729773 0.38393214
000120 f2 54 68 be 6b c2 fd bd 49 f7 bf 3e eb 6a 75 3e
       -0.22688654 -0.12390598 0.3749335 0.23966567
000130 b8 7b 23 3f 4e 76 49 3f a6 da 2a 3f bf b9 10 3e
       0.63860655 0.78696144 0.6673988 0.14133357
000140 70 25 ab be 66 b2 08 3e a8 05 1b 3f 07 ee eb 3e
       -0.33427 0.13349304 0.60555506 0.46080038
000150 e5 4e b1 3e 41 ab 53 3e 08 75 84 be 37 91 0c bd
       0.34630504 0.20670797 -0.25870538 -0.034318175
000160 92 87 93 be cb f0 af be e1 0b 46 3d ae bc 72 bd
       -0.2881437 -0.34363398 0.048351172 -0.05926197
000170 47 3b 3a 3e 7b 73 f7 3b a4 0d 4a bd f9 d1 14 be
       0.18186675 0.007551608 -0.049329415 -0.14533223
000180 76 ba e5 3e 98 4e ae 3e ae ad bb 3c de e9 34 3f
       0.4486882 0.34044337 0.022909965 0.70669353
000190 36 f5 71 3e 59 66 0d be fc bd 54 3f db cf 07 3f
       0.23628697 -0.13808574 0.83102393 0.5305154
0001a0 72 42 dc 3e 68 57 b2 3e f5 04 09 3f 53 ca f4 3e
       0.43019444 0.3483231 0.5352319 0.4781061
0001b0 43 84 58 bf 93 98 10 bf 7c 34 39 3f 54 80 08 bf
       -0.84576815 -0.5648281 0.7234571 -0.53320813
0001c0 be 10 d8 bc 3b 46 42 3f d2 51 cb be 1b b8 f6 3d
       -0.02637517 0.75888413 -0.3971086 0.12046834
0001d0 74 ac 23 3f 59 45 07 bd c5 4c ec 3d 8a 34 c9 3d
       0.6393502 -0.03302512 0.1153808 0.09824474
0001e0 cf d0 d9 3e 85 75 74 3e 30 fc 42 be b2 f4 d1 3e
       0.4254212 0.23872955 -0.19041514 0.41007
0001f0 76 27 bf be a0 7f 1e bf f7 9b 9c be 9a ec f2 bd
       -0.37334794 -0.6191349 -0.30587742 -0.118615344
000200 3e 59 9a 3c 73 79 f0 be b0 05 07 be 41 2d 7f bd
       0.018841382 -0.46967658 -0.13185763 -0.062299017
000210 86 5e 3c be ac 4b b1 3e 34 0d 0e 3f e7 6c 2a be
       -0.18395433 0.34628046 0.55488896 -0.16643105
000220 df 0f ee 3e 20 5f 32 3f 51 e1 ab be a7 1f 0a bc
       0.46496484 0.696764 -0.3357034 -0.008430398
000230 03 28 98 3e 4e f8 e2 be ce 1e 05 be 33 49 a4 3e
       0.29718027 -0.44330066 -0.13000032 0.32087097
000240 7a af ac 3e a7 6b 9b 3e e8 b1 15 3c 99 57 0a be
       0.33727628 0.3035557 0.009136654 -0.13509978
000250 75 9d a1 be 87 df aa be c7 3d 9f be d9 cb 2e bd
       -0.31565443 -0.33373663 -0.3110182 -0.042674873
000260 b1 5f 36 be 2c f5 20 3f 61 07 97 be 36 57 80 be
       -0.17809941 0.628741 -0.29497817 -0.25066537
000270 29 4c 2f 3f 98 10 09 3f 16 ed 3c 3f d4 f8 46 3e
       0.68475586 0.53540945 0.73799264 0.19430858
000280 35 36 bf bd 65 15 bc 3e 33 81 e2 be 00 50 6e bf
       -0.09336511 0.36735073 -0.44239196 -0.9309082
000290 ec ca 5f bf 08 25 b9 be 87 dc 08 bf 7b 2e 02 bf
       -0.8741901 -0.36161065 -0.534615 -0.50852174
0002a0 08 91 03 bd e0 6b 08 3d 48 95 9a 3d 88 6e 28 be
       -0.032120734 0.033306003 0.075480044 -0.16448414
0002b0 4d 04 a1 bd 6b 7d 5d be a0 39 37 bc 98 f4 d8 be
       -0.078621484 -0.21629874 -0.011183172 -0.4237411
0002c0 e1 01 02 bf 05 17 44 3f 07 f2 de 3e 4f b5 69 3e
       -0.50784117 0.76597625 0.43544027 0.2282307
0002d0 79 4f fb be 8a 4c 1a bf d8 2a 07 be 1b ff ce be
       -0.4908407 -0.6027304 -0.13199937 -0.40429005
0002e0 00 e1 54 bf fc d9 22 bf 15 6d c8 be 2e e7 3d bf
       -0.8315582 -0.6361387 -0.39145723 -0.7418088
0002f0 fe 57 71 bf 64 66 19 be ec f8 28 be fb e2 b7 bd
       -0.9427489 -0.14980465 -0.16501206 -0.0897884
000300 d5 25 0d 3f 0b 4c 04 3f 12 e4 bc 3e d7 08 5a 3f
       0.5513585 0.5167853 0.36892754 0.8516974
000310 6b 3d fe 3e 0e 96 a4 3d 5f 4c 96 bd 4a 78 9d bd
       0.49656233 0.08036433 -0.073387854 -0.07688959
000320 7f f9 93 3e d7 a6 97 be 3b b8 b1 bd d3 d1 39 be
       0.28901288 -0.29619476 -0.08677717 -0.18146448
000330 64 45 c2 be 2a da 40 bf b2 5a 90 be e2 07 0d 3f
       -0.37943566 -0.7533289 -0.28194195 0.55090153
000340 4f ea 5c 3d df dc ca be 80 35 4c 3e 53 63 35 be
       0.05393439 -0.39621636 0.19942284 -0.1771367
000350 54 11 db be c8 8b 12 be 5e 39 20 bd 6d 06 18 3d
       -0.42786658 -0.14311135 -0.03911721 0.037115503
000360 65 52 86 be 1c d0 bc be 16 67 2d bf 96 93 14 be
       -0.26234737 -0.36877525 -0.6773542 -0.14509425
000370 05 03 7d 3e 94 94 3c bf 1d 29 e9 3e be 03 32 3f
       0.24708183 -0.7366421 0.4553918 0.6953696
000380 2b 9e af 3e 8a d9 a8 3e 85 72 c1 3e 26 2b d0 3e
       0.3430036 0.3297847 0.37782684 0.4065792
000390 b3 ec e6 3c 5a d0 b2 3d 8e 09 b5 3d 5d e7 a7 3d
       0.028189039 0.08731146 0.08839713 0.08198426
0003a0 e5 c9 05 3e 62 0c 99 3e 22 de 4c be a5 0a 32 3e
       0.13065298 0.2989226 -0.20006612 0.17386873
0003b0 02 fe dd 3e 38 29 79 3e 00 6b 83 3e 64 34 7b 3c
       0.43357855 0.2433213 0.25667572 0.015332315
0003c0 39 11 03 be 01 8b 68 bd f5 74 18 bf 16 55 9d 3f
       -0.12799539 -0.05677319 -0.5955346 1.2291591
0003d0 8a 61 6b 3f 2a 28 87 3f 9a e0 5c 3f 42 83 c9 3e
       0.9194571 1.0559132 0.86280215 0.39357954
0003e0 16 66 1a bd c5 4b 9e 3e 65 46 74 3c c3 ea dc bd
       -0.037695013 0.30917183 0.0149093615 -0.10786965
0003f0 67 35 d3 bd 57 ab 14 3e 91 26 a1 3d 1f 31 bd be
       -0.1031292 0.14518486 0.07868684 -0.3695154

conv6.bias f4 [24]
000000 7a 8d 70 bb 1a 15 5d bd cd c2 95 bd a7 3f b0 bd
       -0.003670542 -0.053975202 -0.07312546 -0.08605891
000010 54 d3 98 bb 4f 22 c2 bd d9 23 9c 3d e8 ad c2 bc
       -0.004663864 -0.094792 0.07624025 -0.023764566
000020 56 5e f8 bc 9f 3c a9 bd 77 aa 42 bd bc 9f 88 3c
       -0.03031842 -0.08263516 -0.04752585 0.01667773
000030 59 02 6f 3c 6c 91 7a bd d6 56 b5 3c ce ba db bc
       0.014587962 -0.06117384 0.022136133 -0.026822474
000040 2c 42 35 bd 1b f6 99 bd 7f f0 39 3e 6a 7c de bc
       -0.04425256 -0.07517644 0.18158148 -0.027158935
000050 f5 bf 68 3c eb 15 4c 3d 78 82 91 bd 20 b0 e4 3d
       0.014205922 0.04982559 -0.07104963 0.11166406

bn1.weight f4 [4]
000000 b1 77 f2 3f c5 46 6f 3f 28 3e 8a 3f 9a 1b 87 3f
       1.8942777 0.9346736 1.0800219 1.0555298

bn1.bias f4 [4]
000000 80 39 16 3d 7f 53 bd 3e 2d fa ff bd da 34 fb 3e
       0.03667593 0.36977765 -0.12498889 0.4906376

bn1.running_mean f4 [4]
000000 96 af 9c 3e d8 af e1 bc 8a a9 4a 3d e5 16 9b bd
       0.3060271 -0.02754967 0.04947809 -0.07572726

bn1.running_var f4 [4]
000000 69 9f b1 40 86 cc 39 3f 60 e8 81 3f 38 82 f6 3f
       5.5507092 0.72577703 1.014904 1.925849

bn2.weight f4 [8]
000000 78 e2 88 3f a8 e1 a9 3f 25 36 a9 3f 36 3d 94 3f
       1.0694113 1.327199 1.3219649 1.158118
000010 c4 e7 93 3f 7a 00 9f 3f d0 ee 70 3f 63 56 7c 3f
       1.1555104 1.242202 0.941144 0.98569316

bn2.bias f4 [8]
000000 28 39 ad 3d 7f c2 ca be d1 fd fd bd 84 15 2f be
       0.08458167 -0.39601514 -0.12401927 -0.17098051
000010 6f 28 1e be 9d 16 57 bf 43 61 2b be e7 8a 69 bf
       -0.15445112 -0.8401888 -0.16736321 -0.91227573

bn2.running_mean f4 [8]
000000 ad c1 ef 3e c9 e3 64 c0 a1 b5 ee bf 75 57 1f 40
       0.4682745 -3.576403 -1.8649179 2.489713
000010 a6 c9 67 c0 b7 bc 3b c0 b6 40 dc 3c 8b 66 03 40
       -3.6216826 -2.9333932 0.026886325 2.0531337

bn2.running_var f4 [8]
000000 af 68 0e 41 ad 7c 04 41 36 b0 97 40 3e 4a 24 41
       8.9005575 8.280438 4.74026 10.268126
000010 51 4a cf 40 15 40 b9 40 59 f4 a3 40 ad d9 43 40
       6.477822 5.7890725 5.1235776 3.0601609

bn3.weight f4 [8]
000000 82 88 88 3f 1a da a7 3f 8b 1e 95 3f e4 0a 92 3f
       1.0666659 1.3113434 1.1649946 1.1409574
000010 b8 c6 ad 3f ab 38 82 3f 6e 82 d0 3f 8e ec 89 3f
       1.3576269 1.0173544 1.6289804 1.0775316

bn3.bias f4 [8]
000000 ef 9b ff 3c 6d c9 f2 be 50 8a c8 bd 2e d6 33 bd
       0.031202285 -0.474193 -0.09792006 -0.04390543
000010 88 b3 44 3e 00 17 86 be 6f bb 39 be eb 5b cb bd
       0.1920911 -0.26189423 -0.18137906 -0.09929641

bn3.running_mean f4 [8]
000000 40 e6 a2 be 08 f1 2b 40 72 a0 bf c0 a9 92 fb bc
       -0.31816292 2.6865864 -5.9883356 -0.030709581
000010 18 38 04 c0 70 8c 16 c0 c7 b4 8e 40 a2 d8 10 c0
       -2.0659237 -2.3523216 4.4595675 -2.2632222

bn3.running_var f4 [8]
000000 3a 93 a9 40 6e cc 83 40 cc 14 e1 40 d9 f4 71 40
       5.299222 4.118705 7.0337887 3.7805693
000010 77 cb 95 40 3e 1c 33 40 44 93 97 40 03 fb 72 40
       4.681087 2.7985988 4.7367268 3.7965705

bn4.weight f4 [16]
000000 37 2c 8d 3f 82 0f 94 3f b1 6f 9f 3f 15 1b 9f 3f
       1.1029118 1.1567233 1.245596 1.243014
000010 32 71 a0 3f 33 7d 56 3f 3f 25 8c 3f 93 bc a5 3f
       1.2534544 0.8378479 1.0948867 1.2948173
000020 b4 30 a6 3f 71 e3 96 3f 70 57 d1 3f 05 df 89 3f
       1.2983613 1.178816 1.6354809 1.0771185
000030 4c 6a ac 3f dd 2b 69 3f 55 05 7e 3f b2 f6 90 3f
       1.3469939 0.91082555 0.99226886 1.1325285

bn4.bias f4 [16]
000000 a5 a6 13 bf 36 9b ac be e9 01 6d bd 1a d3 d9 be
       -0.57676154 -0.33712167 -0.05786315 -0.4254387
000010 3c c6 62 3e c0 01 6d 3e e1 7e 19 3e 18 fb 14 bf
       0.22145933 0.23145199 0.14989807 -0.5819564
000020 51 c4 cb be 48 8f 61 3e 38 83 c6 be be c4 10 be
       -0.39798215 0.22027314 -0.38771987 -0.14137551
000030 7e 3b 43 be 70 36 c8 bd ef 76 15 3d ea 35 d2 be
       -0.19065663 -0.09776008 0.036490377 -0.41056758

bn4.running_mean f4 [16]
000000 e5 c4 19 c0 6a 66 01 bf f7 ef 3d c0 fe d2 89 bf
       -2.4026425 -0.50546896 -2.9677713 -1.0767515
000010 e2 c2 2a c0 74 5a 31 bd ee 1d 11 c0 16 28 3b c0
       -2.6681447 -0.043299153 -2.2674518 -2.9243217
000020 d4 a3 21 c0 32 88 18 bf 5a 48 01 c0 d3 e2 6c c0
       -2.5256243 -0.5958282 -2.020041 -3.7013443
000030 10 c7 4d c0 c1 32 a7 bf 80 7b 6d 3e f3 dd a5 3f
       -3.2152748 -1.3062364 0.23191643 1.2958359

bn4.running_var f4 [16]
000000 0f 39 46 41 30 00 2a 41 1e 46 24 41 2d d7 43 41
       12.38893 10.625046 10.267118 12.240033
000010 84 0e f8 40 bb 39 01 41 b4 1e 38 41 63 c6 12 41
       7.751772 8.076594 11.507496 9.173434
000020 4d 3c 32 41 18 d4 4f 41 aa 67 81 41 82 97 28 41
       11.139722 12.989281 16.175617 10.536989
000030 f9 7c 88 41 a2 8b e1 40 86 a5 ff 40 4d 65 23 41
       17.061022 7.048295 7.9889555 10.212232

bn5.weight f4 [16]
000000 f2 33 9d 3f 55 f6 9a 3f 8e 9d b6 3f f0 50 8a 3f
       1.2281477 1.2106425 1.4266832 1.080595
000010 26 4a 8c 3f 15 1c 8d 3f 35 c9 85 3f d3 9d 92 3f
       1.0960128 1.1024195 1.0452029 1.1454414
000020 95 e2 9b 3f 57 06 7d 3f df d7 63 3f a9 a1 92 3f
       1.2178522 0.988378 0.8900127 1.1455585
000030 ea a3 9f 3f 20 b3 83 3f b1 49 b6 3f 32 f7 b2 3f
       1.2471898 1.028904 1.4241239 1.3981688

bn5.bias f4 [16]
000000 c7 61 8b be 00 3c 3d bf 2a 1c 64 be 77 28 94 be
       -0.27223036 -0.7391968 -0.22276369 -0.28937122
000010 aa 2f e6 be a3 03 db bd ee a3 03 bf 03 46 21 bf
       -0.4495824 -0.10694053 -0.5142201 -0.62997454
000020 9f 51 09 bf eb 6c 93 be 3c d4 84 be 80 18 80 be
       -0.5364017 -0.28794035 -0.25943172 -0.25018692
000030 4b 87 ce be 90 cc da be b5 c7 9b bd a3 52 07 bf
       -0.40337595 -0.42734194 -0.076064505 -0.5286047

bn5.running_mean f4 [16]
000000 80 d6 05 c0 e2 10 27 c0 f9 b0 02 c1 88 e6 99 bc
       -2.091217 -2.6104054 -8.168206 -0.018786684
000010 53 83 14 c0 19 89 aa bf 89 7c 89 3f 2e eb dd 3f
       -2.3205154 -1.3323089 1.074113 1.7337396
000020 75 fa 9c be d7 41 f7 3f 01 1d 6b bf 04 7d c3 c0
       -0.30659834 1.9316968 -0.9184113 -6.1090107
000030 e0 c1 ed c0 a4 a8 d3 bf 5d cc ec c0 2f 4e 84 c0
       -7.4299164 -1.653584 -7.3999467 -4.134544

bn5.running_var f4 [16]
000000 b0 d6 69 41 16 02 ae 41 97 27 17 42 58 7f 6c 41
       14.614914 21.751019 37.788662 14.78109
000010 3b 35 aa 41 71 2f e3 41 f3 5d 97 41 85 95 bd 41
       21.275991 28.398165 18.920874 23.698008
000020 53 f8 a4 41 72 32 34 41 b0 22 4c 41 ae ca 93 41
       20.621252 11.262316 12.758469 18.473965
000030 8a e0 e2 41 23 8c 3b 41 67 ce d2 41 b2 e0 d6 41
       28.359638 11.721713 26.350782 26.859715

bn6.weight f4 [24]
000000 d8 ea e2 3f b1 96 e9 3f 82 92 fc 3f 10 f7 f7 3f
       1.7727919 1.8249112 1.9732211 1.9372272
000010 b8 d7 c9 3f 02 86 f7 3f d4 54 c6 3f d2 f4 0a 40
       1.5768957 1.9337771 1.5494637 2.1711926
000020 c4 ad 02 40 72 6e 02 40 91 6d f6 3f 54 10 0e 40
       2.0418558 2.037991 1.9252187 2.2197466
000030 b4 78 fc 3f a7 e1 f5 3f d5 17 c5 3f 71 1a f1 3f
       1.9724336 1.9209489 1.5397898 1.8836194
000040 36 ca ef 3f 73 3b e9 3f 4f a7 03 40 63 9d df 3f
       1.8733585 1.8221267 2.0570867 1.7469906
000050 78 22 fc 3f 24 ef e5 3f dd fe d4 3f 0d 74 d7 3f
       1.9698019 1.7963605 1.6640278 1.6832291

bn6.bias f4 [24]
000000 27 0f eb be c7 21 24 bf 19 38 55 bf 09 43 00 bf
       -0.45909998 -0.6411404 -0.83288723 -0.5010229
000010 d1 81 b1 be 9e d5 14 bf 82 9b 47 bf 34 e8 f1 be
       -0.34669355 -0.58138454 -0.7797166 -0.4724747
000020 60 d0 36 bf d1 4d 46 bf a4 45 5b bf 71 cc 3e bf
       -0.71411705 -0.7746249 -0.8565314 -0.745307
000030 fd 69 14 bf f8 77 21 bf f1 6d 1a bf 29 c1 c8 be
       -0.57974225 -0.6307368 -0.6032401 -0.3920987
000040 e3 cb bd be f2 ff cc be 29 dd db be d9 2c e4 be
       -0.37069616 -0.4003902 -0.4294217 -0.44565466
000050 2f 04 f7 be 84 c1 0b bf a6 20 12 bf 91 52 0c bf
       -0.4824538 -0.54592156 -0.5708107 -0.54813486

bn6.running_mean f4 [24]
000000 9c 40 f2 3f 4e 7e f9 bf f3 a4 19 c0 ed d0 74 bf
       1.8925967 -1.949167 -2.4006927 -0.95631295
000010 fb 03 90 3f a4 93 c0 3e e9 c8 5a 3f d6 5c a8 3f
       1.1251215 0.3761264 0.85462815 1.3153331
000020 10 bc 18 c0 a8 ba 7d c0 9d f6 61 3e 18 2f 22 be
       -2.3864784 -3.9645176 0.22066732 -0.15838277
000030 2b 28 0f 3c b5 56 a7 3d 47 dc f1 bf 26 62 01 3f
       0.008737604 0.08170835 -1.8895348 0.5054039
000040 00 e9 88 bf 84 44 63 c0 b5 da cd bf 15 4e 2f 40
       -1.0696106 -3.5510569 -1.6082369 2.7391407
000050 53 0b 36 c0 86 0e 47 bf d9 6e 5e c0 d8 48 03 bf
       -2.8444412 -0.77756536 -3.4755156 -0.51283026

bn6.running_var f4 [24]
000000 7c a1 22 41 57 dc 1d 41 20 c2 db 40 0a 8f 0a 41
       10.164425 9.866294 6.867447 8.659922
000010 ca 19 1b 41 f7 7e 30 41 75 63 01 41 b3 6b 5c 41
       9.693796 11.030997 8.0867815 13.776294
000020 0f cf fc 40 3b 91 05 41 c1 45 d4 40 8a 4b 53 41
       7.9002757 8.347957 6.633515 13.205942
000030 4b 16 fb 40 68 14 16 41 a5 1c 05 41 15 ab 21 41
       7.8464713 9.379982 8.319493 10.104268
000040 38 f4 19 41 e8 a3 c1 40 d3 be 06 41 c3 4d 15 41
       9.622124 6.051258 8.421588 9.331485
000050 06 ec 23 41 5d d5 32 41 fd 83 cc 40 53 17 26 41
       10.245123 11.177091 6.391112 10.380694

conv1d_1.weight f4 [4, 8, 1]
000000 aa c5 af 3e 6f 67 b2 bc 06 ab 2e bf 3b 57 52 bf
       0.34330493 -0.021777837 -0.6822971 -0.82164353
000010 8f a3 12 bf 21 fe dd be de ba f9 3e f3 c5 e1 be
       -0.5728082 -0.43357947 0.4877538 -0.44096336
000020 31 a1 8b 3e 14 b2 21 3f 90 80 a9 be 5c 09 02 bf
       0.27271417 0.6316235 -0.33105898 -0.5079553
000030 ce 29 4b 3f 73 52 19 be f9 62 8c 3e a0 37 81 be
       0.79360664 -0.14972858 0.2741926 -0.2523775
000040 f0 77 44 bf 3f 41 18 be fe 6d 97 be d6 ad e4 be
       -0.7674551 -0.1486864 -0.29576105 -0.44663876
000050 0a 08 6f be f9 0e 33 3f 20 7d 28 3e 27 7a 12 3d
       -0.2334291 0.6994472 0.16453981 0.035761025
000060 32 d1 9a be f7 e2 0f 3f 18 7a 31 3f e2 ab ad 3d
       -0.30237728 0.56205696 0.69326925 0.0848005
000070 f1 2f 20 3e 5a 24 f4 3d 6d 3a 1b bf 2e fe 3a bf
       0.15643288 0.11920996 -0.60636026 -0.730441

conv1d_1.bias f4 [4]
000000 80 81 71 be ab 59 b6 3c 9b f3 d6 3c e5 45 f3 bc
       -0.23584557 0.022259554 0.026239207 -0.029696414

bn1d_1.weight f4 [4]
000000 ea 63 60 3f 38 d0 87 3f 2b d8 3d 3f a5 cc 26 3f
       0.87652457 1.0610418 0.7415797 0.6515601

bn1d_1.bias f4 [4]
000000 9f 91 65 3f 6a 3a 54 3f a5 3e 73 3f 95 ac 29 3f
       0.89675325 0.8290163 0.9501746 0.66278964

bn1d_1.running_mean f4 [4]
000000 2b 4f ab bf e2 0a 14 3f c2 79 57 bf e8 2a 89 3e
       -1.3383535 0.57829106 -0.8417016 0.26790547

bn1d_1.running_var f4 [4]
000000 d1 82 4d 40 44 ac 31 40 24 d4 c3 3f 8b 74 99 3f
       3.2111094 2.7761393 1.5299115 1.1988691
