best_model_cuda_no_data_aug.pth (torch, 32930 bytes, 38 tensors)

conv1.weight f4 [4, 1, 3, 3]
00000000: fec5 243f 9e25 ffbd e6cd c3be e5cc 5c3f
00000010: 5359 073f 7972 a93d 9085 37bf 7482 f0bd
00000020: c0bc 0cbc 6541 02bf 793c 93be 33c2 bfbe
00000030: 4357 1c3f 8eb2 1e3f e911 713e 5ee8 103f
00000040: 70da a33e a824 b2be 9152 28be a0a6 953e
00000050: 55f3 863d 23e1 80bf 4db3 34be 7743 223e
00000060: 9bfc 86be 9020 56bf a435 60bf 210c 04be
00000070: 2cc3 d5be c899 27bf a778 e13e 9afa 5abe
00000080: c359 953e 5216 393e 6c6a a93e 04f7 e83e
0.6436461 -0.12458347 -0.38243026 0.86250144 0.5287067 0.08273787 -0.71688175 -0.11743632
-0.008589923 -0.50881034 -0.28757074 -0.3745285 0.6107065 0.619912 0.23541988 0.56604564
0.32002592 -0.34793591 -0.16437747 0.29228687 0.06589381 -1.0068706 -0.17646523 0.15846048
-0.26364598 -0.83643436 -0.8758185 -0.12895252 -0.41750467 -0.65469027 0.44037363 -0.2138466
0.29170045 0.18074921 0.33089006 0.45500958

conv1.bias f4 [4]
00000000: c9cf 743d 2aa5 8f3e 4224 3ebe f439 70be
0.059768472 0.28055698 -0.18568519 -0.23459607

conv2.weight f4 [8, 4, 3, 3]
00000000: 4374 62bc df9b 18be 8f61 77be fd69 123f
00000010: 614f 1c3e 19f3 86be bd35 233f 2a97 963e
00000020: cc67 1f3e 9ad0 89bd dc27 7fbe 5db1 92be
00000030: a911 883d 2411 e43e e4ad c43e 7fe7 513e
00000040: 524a d83c 4166 d53e f087 b83e 30e9 f93d
00000050: 8d49 2cbe 1b5e 70be ffa0 80bd 3466 b0be
00000060: 88ab 863f 34f9 993d 239a debe d870 eabd
00000070: 0056 063d 7918 433d 0779 d83e 326e e43e
00000080: 3024 043f fbdb 013e 084b 02be 96ac 9fbd
00000090: ba5c dfbe d751 c4be 37b5 55be cece 50be
000000a0: 9e2b 5bbd b41d b1be d8a4 90be d889 143e
000000b0: 3dfe 22be 93b6 f6bd 945a 08bd 6682 01bf
000000c0: 4c8b 37bd 5ee5 e13d 62e3 00be 0ea7 40bd
000000d0: 4ba0 a6bd 084e a63d 49c8 15be 6165 9bbd
000000e0: 3723 6e3e 8a0e d0bd 9ce5 ad3d 35bc 2fbe
000000f0: 943c d4be 3d3a 35bf 36f0 22bf 6ff8 d7bd
00000100: 4be9 a2be 0b9e d63c 2ee1 b3be 42c9 e2bd
00000110: 2f26 22bd 5b5e b2be 27ac 413f 765f 7d3f
00000120: b235 a23e fbe5 953e 7012 3a3e 8239 923e
00000130: c68f f2bb 7c3e a8be 319b d8be 4d02 58bf
00000140: a716 11bf 9e45 9ebe 0eb1 07bf 3c3e 01bf
00000150: 68ab 6bbf 316b 4fbf 83f7 343e 20a1 0fbf
00000160: b3c6 573e 3c2e 1d3f ab62 e83e 3abb 6f3e
00000170: 8ff0 cf3c 3ee0 843e 9f55 77be bfe8 b4bd
00000180: 7981 283e f822 6ebe 8ded 9cbe e64b d5be
00000190: 1350 e5be eaf3 8abe 631c 40be fe6a e2bc
000001a0: f330 a53e f2aa 7ebe 9cef 9b3e 65d1 693e
000001b0: 3f28 4a3c d044 2ebd cd91 8c3e 5bdb e2bc
000001c0: 767f d9be 8c63 01bf cdc5 673e 79a0 103b
000001d0: 4075 adbd d5a5 bdbd 0656 bdbe 12af 9cbe
000001e0: 44c1 753e a2ff cb3d 007f 56be 1d1f 043e
000001f0: dcad aa3e 664a ce3d 6598 e3be b2e5 e33e
00000200: 8f64 0c3e d2b0 643d 17f4 c9bb 524c 08be
00000210: 547c e6be a265 bebe 6633 8fbe d6f3 03bf
00000220: 0ecf e1be 77d9 13bf a39e 963e fb76 2a3c
00000230: 49d1 97be c3f3 c43d b01a 5c3f bff3 01bf
00000240: 6f87 303d f42b 1a3e abba 063d 773c a43c
00000250: 9100 473e e1e5 763e a7ce b43e 2501 f9bc
00000260: ec98 cabd 424b 0f3f c9b7 933e 167e 863d
00000270: da6e 4c3e c293 df3d f7c3 11be 47eb 82bd
00000280: 285e 31be 6eb9 bebe f587 cebc 8d7e bbbd
00000290: 6948 6cbd 1708 8ebe 61e1 42bc fd14 1bbe
000002a0: 4448 89bc 6038 433e 26cf 3d3e 9e06 ac3c
000002b0: 301e efbd 4a8a acbe be59 5f3d 6f73 8fbe
000002c0: f78e d6be 8e86 aebe 1dd3 c4be a098 babc
000002d0: 472d 25bf fb23 0fbe 6fda 783e 622f 2fbf
000002e0: d0bf 523d 3886 cc3d 2e73 4dbe e52b ed3d
000002f0: 2912 8b3c 91b3 14bf 445d 243e 30a3 8b3e
00000300: 5bfd 613e 60a3 5a3e e59b aa3d 4ca5 033e
00000310: 3654 3dbd e2f3 55bd da8c 17bf 6732 a0bf
00000320: 9223 92bf 4bb2 e5be 4684 72bf ac66 9ebf
00000330: d2e0 7c3d 276a e7bd ebee 18bf dafa 90bd
00000340: b106 34bd 7c97 14be 1914 2bbe 97d9 a7be
00000350: 72e0 c4be 09b1 9fbe 81e7 67be 5267 363e
00000360: 2f60 823e eca1 a3be 796a b9be 8b39 b83e
00000370: f320 2a3b ceba 0ebf dd60 ef3d 07a6 a73d
00000380: 9b4e 18be f66b e03d 6855 6fbe c075 84be
00000390: 0e99 aa3e 2d3a bebc 23a9 263e a0ae be3d
000003a0: e3e1 efbd 1102 84bd c6e4 a5be bc82 3b3f
000003b0: e0ea 0abc 3419 d63d 9167 183f e196 23bf
000003c0: 014e 8ebe d31b 35bf 26f6 36bf d65d 9abb
000003d0: 1f74 a23d bf2d 1cbf 2892 5cbe 6f5d 013f
000003e0: cae3 71be 4cac 30be 1bcf 2ebe 46ad 0e3e
000003f0: b1f1 5dbf 7f3b 6ebf d8fb 98be fd8a 863e
-0.013821664 -0.1490321 -0.2415831 0.57192975 0.15264656 -0.26357344 0.63753873 0.29412204
0.15566939 -0.06729241 -0.24917549 -0.28650942 0.066439934 0.44544327 0.38413918 0.20498465
0.026402626 0.41679576 0.36041212 0.1220268 -0.16824932 -0.23473398 -0.062807076 -0.34452975
1.0521097 0.07518235 -0.43476972 -0.114473045 0.03279686 0.04763076 0.42279837 0.44615322
0.5161772 0.12681572 -0.12723935 -0.0779659 -0.43625432 -0.3834369 -0.20869909 -0.2039139
-0.053508393 -0.34592974 -0.28250766 0.14505708 -0.15917297 -0.12046542 -0.033289507 -0.505896
-0.04481058 0.110300764 -0.1258674 -0.047034316 -0.08136042 0.08120352 -0.14627184 -0.07587696
0.23255621 -0.10159023 0.0849106 -0.17161639 -0.41452467 -0.7079199 -0.6364778 -0.10545432
-0.31818613 0.026198408 -0.35132736 -0.11073543 -0.039587196 -0.34837613 0.7565331 0.98973787
0.3168159 0.29277024 0.18171096 0.285595 -0.007402393 -0.32860172 -0.42305902 -0.8437851
-0.5667519 -0.3091249 -0.5300454 -0.5048559 -0.9205842 -0.81022936 0.17672543 -0.5610523
0.21071891 0.61398673 0.45387778 0.23411265 0.025383262 0.25952333 -0.24153756 -0.08833455
0.1645564 -0.23255527 -0.30649987 -0.41659468 -0.44787654 -0.27139217 -0.18760829 -0.027638908
0.32263908 -0.24869898 0.30456245 0.22833784 0.012338697 -0.042546093 0.27454987 -0.027692487
-0.42480057 -0.5054252 0.22634049 0.0022068305 -0.08469629 -0.092601456 -0.36979693 -0.30602318
0.23999506 0.099608675 -0.20946884 0.12902494 0.3333577 0.10072784 -0.44452205 0.4451118
0.13710235 0.05583269 -0.006163131 -0.13310364 -0.4501673 -0.37186915 -0.279689 -0.5154394
-0.44103283 -0.577537 0.29417905 0.010404344 -0.2965186 0.09616806 0.8597822 -0.5076255
0.04309791 0.1505583 0.032892864 0.020048363 0.1943381 0.2411113 0.35313913 -0.030396054
-0.09892449 0.5597421 0.28851154 0.06567018 0.19964162 0.109168544 -0.14234911 -0.06392532
-0.17321074 -0.37250847 -0.025211314 -0.09154997 -0.057686243 -0.27740547 -0.011894555 -0.15144725
-0.016758092 0.19064474 0.18536052 0.02099925 -0.1167568 -0.33699256 0.054528944 -0.28017756
-0.4190595 -0.34087032 -0.38442317 -0.022777855 -0.6452221 -0.13978569 0.24302076 -0.68431675
0.051452458 0.09986538 -0.20063469 0.11580638 0.016976433 -0.58086497 0.16051203 0.2727294
0.22069304 0.21351385 0.08330516 0.12856025 -0.046222888 -0.052234538 -0.591993 -1.2515382
-1.1417105 -0.4486259 -0.94733083 -1.2375083 0.061737843 -0.11299544 -0.5973956 -0.07079096
-0.043951694 -0.14510912 -0.16706885 -0.32783195 -0.38452488 -0.31189755 -0.22646905 0.17812851
0.25464007 -0.31959474 -0.36214045 0.35981402 0.002595958 -0.5575379 0.11688397 0.08185964
-0.14873736 0.10958092 -0.23372424 -0.25871086 0.33319896 -0.0232211 0.16275458 0.09310651
-0.11713006 -0.06445707 -0.32401103 0.7324636 -0.00847885 0.10454026 0.5953303 -0.639021
-0.27793887 -0.7074558 -0.7146934 -0.004710893 0.079323046 -0.61007303 -0.21540129 0.50533193
-0.23622051 -0.17253226 -0.17071192 0.13933286 -0.86696917 -0.93059534 -0.29879642 0.26277915

conv2.bias f4 [8]
00000000: 24ce dfbd cf3d eebd c7cc a43d ef60 613d
00000010: 0595 0cbe 1526 e1bd 9ff1 923b bd17 11be
-0.1092799 -0.11632883 0.08046871 0.055024084 -0.13728721 -0.10993592 0.00448437 -0.14169212

conv3.weight f4 [8, 4, 3, 3]
00000000: 0602 f23e 616c f43e d8aa b03e 251c 4fbe
00000010: 98e1 a5bd 30cf d0bd ce6d e7be 978b 99be
00000020: 5d4f edbe f531 83be 52f7 1cbc fa03 e3bc
00000030: 72dc 0bbe af75 fc3e cdc6 9b3e ec81 013e
00000040: 6a18 803e 4a08 4e3b e5ed 36bf 46c8 5d3d
00000050: 878c a03c 115d 4ebe 7606 d6be e631 90be
00000060: 1d42 443e 9b25 a6be 1e52 0ebf 6711 883d
00000070: 3c58 323e aa45 18be c8a7 543e 720b e4be
00000080: 1ed9 83bf a665 8f3d d29b 53be 30dd 6abe
00000090: 3e29 56bd cff7 3dbf 63f2 7dbf 526d e23e
000000a0: ee4f 06be fe10 e43d a721 8c3e ef4f 193e
000000b0: dece d33e 45a2 e8be 822c 0bbf f750 97be
000000c0: 413c 12bf cd64 21be 52eb 6ebe ca76 7a3e
000000d0: bb10 1d3e 5090 1a3e cf7c 1bbf 503a 233e
000000e0: e42f 0d3f da33 02bd 4e0a 803e 2f59 e23e
000000f0: 594f 2dbe 8815 9c3d f2c7 aa3e abea 213e
00000100: 3d6c e7be 13a9 36bd 440a 6c3e 8b39 74be
00000110: a854 9c3e c564 a2be 5aad ab3e 0e55 e83e
00000120: 03cf a43e 6e23 67be ce39 60bf 9bd3 083d
00000130: b96f 0a3e b27d 59bd fafe 183f 34a5 cd3e
00000140: 5fe7 263e 0205 c9be 3d8b e5be 3c58 95be
00000150: 2685 a63e adec 19be 5b93 d6be 50f2 303f
00000160: 3058 a23e afb7 d03e bd5a ee3c 627f e1be
00000170: 6331 3ebf 3482 ba3e 3de3 a93e 734e 8fba
00000180: 91b4 eb3e 565e c63e ee79 adbd 4bed 0f3f
00000190: c62c 72bd 6819 4e3e 3bd0 79be a25b 4c3d
000001a0: 7a5b a83e 37a3 61be d5b9 74be 4c6c 15be
000001b0: 635e ac3e e35a acbd 6e6d b4bd 0485 2e3e
000001c0: 12bd 083f 3036 9c3e 315e 373d d23d 0bbe
000001d0: 7cc0 87be 959b 2e3f 7bfb 743f e6fa f43e
000001e0: a205 7d3e 7700 4e3d 5b5f e4be b19f dcbe
000001f0: 543c 2fbf 27ad 20bf d3a0 7bbe 96b1 a1be
00000200: 8356 5dbd 421b e73e 4369 c3bd aa6a d4be
00000210: 065e 123f 2303 403e c20b abbd ba54 723e
00000220: 8885 a2bd 67e3 0fbe 3a81 99be 62b9 bd3d
00000230: 1944 9cbe f77d 36be 11b5 933c 282c 82bd
00000240: 865b ee3d 3ef6 49bf a53c 6fbe a398 463e
00000250: fa91 2bbf a79d 39be cd8d c43e b13e cebd
00000260: f933 be3d ee0e 023f 6754 6bbe a5dc bbbe
00000270: 1d22 153d 4e4d 073e 94eb 24be aad4 3f3e
00000280: 5315 fe3c 80d4 8c3e 720e 06be b87b 21bf
00000290: 473a 9bbc fdb5 c4be f905 02be b6b8 dd3c
000002a0: 0424 86be 5452 00bd d97a d33d 0ae8 d1be
000002b0: 6a01 23bf edb3 f73e f430 943e 1fbc dcbe
000002c0: 7494 0b3f d98c 4a3f 5ac8 3a3e d423 0a3e
000002d0: 5abb adbd 03a4 28be ba08 903e 6313 113b
000002e0: 1e72 6abe 2b5a 883c b6ad 21be 9b39 0cbe
000002f0: 4edd fb3e 3b32 d63b f6c3 1e3e fc8b d63e
00000300: 7d32 a5be 5025 a83e e57c bd3e c86c 49bf
00000310: 4e77 033f e25a 203f 4b2f c53d 6f1b d03e
00000320: d453 503e ab33 2abf c2f7 b3be 18f1 b33e
00000330: b97a 59bf 51f7 5dbf f27f 94be 684f 8dbe
00000340: 342f 8bbc 8c30 433e 640f c73e 0e30 773d
00000350: 7217 623e 4d2a 2c3d 4ae9 d1bd 16f1 333d
00000360: 5c0b b0be a150 553e 6c06 8cbd 6abf 84be
00000370: 5a23 873e d2cf b53e 9e5d 1d3d 8d4e e23e
00000380: 8304 bc3e e99d 9a3e eb70 cabd f6c5 abbe
00000390: 77fa 5a3e 04e3 16be a633 27bf 3dff e0be
000003a0: ac77 29bf 90f5 72be 7409 c43d e23b dfbc
000003b0: 7100 47bf 0940 d03e db9c a53d fe11 f2be
000003c0: 0907 a1be b895 b3be e61e 993e 6e34 19be
000003d0: 3d14 513e ce88 b3be 86c2 79be a14e be3e
000003e0: 3061 7a3e d04a 56bc 2e85 da3e 52f8 9d3d
000003f0: 5cd4 30be 5cd1 cf3d 9bf7 d03e bf6e 14be
0.4726717 0.47738937 0.34505343 -0.2022558 -0.08099669 -0.10195768 -0.45200962 -0.2998931
-0.46349612 -0.25624052 -0.00958045 -0.027711857 -0.13658312 0.49308535 0.3042511 0.12647218
0.25018626 0.0031438046 -0.7145675 0.054146074 0.019598259 -0.2015269 -0.41801804 -0.2816307
0.19165845 -0.32450566 -0.5559405 0.06643944 0.17416471 -0.14870325 0.20767128 -0.44539982
-1.0300634 0.0700181 -0.2066491 -0.22935939 -0.052285425 -0.7420625 -0.9919798 0.4422403
-0.13116428 0.111360535 0.27369425 0.14971898 0.41368765 -0.45436302 -0.5436479 -0.2955396
-0.5712319 -0.15761109 -0.23331955 0.24459377 0.15338413 0.15094113 -0.6073732 0.15940213
0.551512 -0.03178773 0.25007862 0.44208667 -0.169248 0.07621294 0.3335567 0.15812175
-0.45199767 -0.044594835 0.23050791 -0.23850076 0.30533338 -0.31717506 0.33530694 0.45377392
0.32189187 -0.22572109 -0.875882 0.033404928 0.13519181 -0.053098388 0.59764063 0.40165102
0.16299199 -0.39261633 -0.44832793 -0.2916888 0.3252346 -0.15031691 -0.41909298 0.6911974
0.31707907 0.4076514 0.029096002 -0.44042498 -0.7429411 0.36427462 0.33181182 -0.0010933414
0.460362 0.38743848 -0.08470522 0.56221455 -0.05912473 0.20126879 -0.2439584 0.049892075
0.3288229 -0.22034918 -0.23899014 -0.14592093 0.3366576 -0.08415773 -0.088099346 0.17042929
0.534135 0.30510092 0.044767562 -0.13597801 -0.2651404 0.6820615 0.9569623 0.4784767
0.2470918 0.050293412 -0.44604 -0.43090585 -0.6845143 -0.6276421 -0.24573068 -0.315808
-0.054037582 0.45137984 -0.095415615 -0.41487628 0.5717472 0.18751197 -0.08351852 0.23665133
-0.07935625 -0.14051591 -0.29981405 0.092638746 -0.30520704 -0.1782149 0.018030675 -0.063560784
0.116385505 -0.7889136 -0.23362978 0.19394164 -0.6701962 -0.18126546 0.38389435 -0.10070551
0.09287257 0.5080403 -0.22981416 -0.36691776 0.036409486 0.13213083 -0.16105491 0.18733469
0.031016028 0.27505875 -0.13091448 -0.63079405 -0.018948687 -0.38420096 -0.12697591 0.027065616
-0.26199353 -0.031328514 0.10326166 -0.40997344 -0.6367403 0.4837946 0.28943598 -0.43112275
0.54523396 0.79121166 0.1824049 0.1349023 -0.08483 -0.16468816 0.28131658 0.00221368
-0.22895095 0.016644558 -0.15788922 -0.1369385 0.4919228 0.0065367497 0.1550444 0.41903675
-0.32265082 0.32840967 0.3700935 -0.7868161 0.5135392 0.62638676 0.09628161 0.4064593
0.20344478 -0.6648509 -0.35149962 0.35144877 -0.84952885 -0.867055 -0.29003865 -0.27599645
-0.016990282 0.19061488 0.3887893 0.060348563 0.22079256 0.04203253 -0.102495745 0.04393109
-0.34383667 0.20831539 -0.068371624 -0.25927287 0.2639416 0.35510117 0.03841936 0.44200554
0.36722192 0.301986 -0.09884819 -0.3354947 0.21384607 -0.14735037 -0.65313184 -0.4394473
-0.6619823 -0.23726487 0.095721155 -0.027250234 -0.7773505 0.40673855 0.080865584 -0.47279352
-0.3145068 -0.35075164 0.29906386 -0.14961407 0.20417877 -0.3506531 -0.24390611 0.37169364
0.24451137 -0.01307936 0.42679733 0.07713379 -0.17268509 0.10147354 0.40813908 -0.14495371

conv3.bias f4 [8]
00000000: 487a 673d abd8 a9bd d6f7 6abd c1e4 7b3d
00000010: d37b ebbd 4583 d73d 97a0 c1bd 3c34 55bd
0.0565131 -0.08293279 -0.05736526 0.061497454 -0.11498227 0.105230846 -0.09454458 -0.052051768

conv4.weight f4 [12, 8, 3, 3]
00000000: 30f8 8c3e 94d4 293e bb84 4abe 1270 2fbd
00000010: 7a43 21bf 4d8c 66bf 608d 7abf 5bf8 74bf
00000020: f61d 8b3e c46c 1dbf 3dc7 0fbf 1536 61bf
00000030: c2c7 953d 23f3 e6bc fd5b 26be 505c d73e
00000040: 2a18 16be ac6b c03c b42c 2cbe 30a0 4bbe
00000050: 5062 93be 862c e1bc d36e 953b d8d5 953e
00000060: a97c c43e ea26 383e aa64 46be db69 183c
00000070: 1b0e 5d3d 131c 223e 4e82 3a3e 9f38 f83d
00000080: d64f f33e fdb6 15be 30b6 213e 99bf 6a3e
00000090: 1860 993d bc67 1abe a810 ea3d ec76 d53e
000000a0: 77fd 9f3e c2ab f03d efbe 15be f02f 6c3e
000000b0: b767 c83d c47a 22be 44a5 f1be e4db 07bf
000000c0: e612 17be f173 cebe af9c 08be 8c9b 0f3e
000000d0: a5ac ab3d 1835 4c3d fab2 f9be 5441 2cbf
000000e0: 127f 2cbf ff8c e0be 93f5 e13d 0718 d83e
000000f0: 70ae 753e 9b00 7e3e ad5b e43d cac5 fc3e
00000100: 1946 6f3e 2e00 3dbe 321f 00bf fe3f 38bf
00000110: 70dd 8cbe 9813 81be b871 d5bb aedb d03e
00000120: 8ab9 c4bd 884b 46be ebcb adbe 76ad 1bbd
00000130: 3a01 86be 0044 20be 774a 93bd 56e3 d63e
00000140: 23c2 4c3c 2153 5dbe 5059 e33d 788e a73e
00000150: 933e 10bf 6c46 46bf ee19 06bf ef0f f2bd
00000160: 75a3 fcbe 1d8a e1be c13d 2e3e 0448 863e
00000170: bf5f 89bd 4b1f cd3d 5bd2 b73c f6b1 63be
00000180: 8d45 84be ddf5 3ebe 451d 713e 38a8 86be
00000190: a8de a53d 480a da3e 5453 c03e 7722 093f
000001a0: 9dc4 d83d d53a 32be 7c66 fb3d ccf2 f8be
000001b0: d4d4 3d3f c9e0 773d 20ff 19bf fe1c 743e
000001c0: e654 06bf 47d8 e5be 3e5c b53e 3d75 27be
000001d0: 0ce9 8d3d b3df 223f f3e7 083e 9503 c5be
000001e0: 93f4 413d 1689 7bbe 8453 c0be 6650 0abf
000001f0: 6ca3 11bf 7968 3bbd 6e69 ddbe 30cf d53d
00000200: 18a5 c13d 3b50 03be bbf5 b1bb 3646 6d3d
00000210: c8a0 01be f132 443e 1a35 6d3d 0b38 b3bd
00000220: e3e3 e4be ccc6 66be 8f1c 143f f1af a13e
00000230: 3c4b 653e 7638 af3e dfec 99be 175b d6be
00000240: 7b97 ed3d 0156 603e e547 1abe f1ac d03c
00000250: 4ce1 483c 4334 04be 8db6 03bf 2eae 8e3d
00000260: c5ed ea3d 6bf7 09bf 222f 0abf 71f2 c7bd
00000270: a0ad 08be 5817 6fbe 9ccf 0c3e 2cfd 2ebe
00000280: 0a81 93bd 018c 063f 950b 6cbe a95e 85be
00000290: 297f 9bbe 31de 8a3e 00b3 983d 810f edbb
000002a0: 4a93 cbbd e9f9 a3bd be7c fc3d 7b1c 4f3f
000002b0: 673e a93e 0b5c b23e e3b9 37bd 626a d7be
000002c0: c634 02bf 2a24 aabe 5e8d 63bd 1108 113c
000002d0: fbf2 5cbe 8f94 003f e06e 103f 5d95 1fbf
000002e0: 395f 193e 264c 193f 4021 b7be 2f92 88be
000002f0: b06f 283e b538 18be 7c5d 093e 0876 203e
00000300: 600f 25bf 1ba0 25be 1e24 f53e 6b1b 653c
00000310: 245b 4d3e fd3e 003f 84e4 053e 84e5 f439
00000320: 1752 c4be 60f9 2a3e 0a60 6b3e 05c4 25be
00000330: 4451 0dbc b2dc 18bd c219 b2bd 9399 6fbe
00000340: 83f2 85bf c551 1abf d0a6 82bd a736 4abf
00000350: 99c8 bfbe 38ef 6f3d c7e2 88be c5e2 40be
00000360: 8d53 02bf 497a 573e c50f d63e 8331 f8be
00000370: 699f a0be 2c66 e9be baf7 61be 542a f9bd
00000380: b5da babe 61e9 b93d 915a 1b3f cd7e c73e
00000390: 8257 08bd 77da 5dbe a67b 97be 50e9 4abe
000003a0: 49cf a3be 2782 dfbe d6a7 1b3e 0be5 d73e
000003b0: 18f4 323f bacd c6be dbf4 3abd 8ee5 e9bd
000003c0: d7ef 17bf 573d 30bf c386 8cbe 1af2 fbbd
000003d0: adc9 f1be 03ed 0bbf 5097 163f dccb e73e
000003e0: 3df8 363f a71b aabd d77a f4bd abef 97bd
000003f0: 442e dabc e6bb 503c de2e ac3d bf47 40be
0.27533102 0.16584998 -0.19777195 -0.042831488 -0.62993586 -0.9005783 -0.9787197 -0.9569146
0.27171296 -0.6149409 -0.5616339 -0.8797315 0.073134914 -0.028192108 -0.16246028 0.42062616
-0.14657655 0.023488842 -0.16813928 -0.19885325 -0.28785944 -0.02748705 0.0045603304 0.29264712
0.38376358 0.17983595 -0.19374338 0.009302582 0.05396853 0.15831022 0.1821377 0.121201746
0.47521847 -0.14620586 0.15792155 0.22924651 0.074890316 -0.15078634 0.11428958 0.41692293
0.31248066 0.1175151 -0.14623617 0.23065162 0.09785407 -0.15867144 -0.471964 -0.530699
-0.14753303 -0.4032283 -0.1334102 0.1402418 0.08382539 0.04985532 -0.4876936 -0.6728718
-0.67381394 -0.4385757 0.11033168 0.4220583 0.23992324 0.24804918 0.11150298 0.4936965
0.23366584 -0.184571 -0.500476 -0.71972644 -0.27512693 -0.2521026 -0.0065138005 0.40792602
-0.09605701 -0.1936475 -0.3394464 -0.038007222 -0.2617281 -0.1565094 -0.071919374 0.4197032
0.012497458 -0.21613742 0.111010194 0.32725883 -0.5634548 -0.77451205 -0.52383316 -0.11819445
-0.49343458 -0.44050685 0.17015745 0.2622682 -0.06707715 0.10015734 0.022439172 -0.22235855
-0.25834313 -0.18648477 0.23546322 -0.26300216 0.08099109 0.4258597 0.37563574 0.53568214
0.10584376 -0.17405255 0.12275407 -0.4862274 0.74152875 0.060517106 -0.60154915 0.23839185
-0.52473295 -0.4489157 0.35421938 -0.16353317 0.06929216 0.6362259 0.13369732 -0.38479295
0.047352385 -0.24564013 -0.37563717 -0.5402893 -0.56889987 -0.04575393 -0.432445 0.104399085
0.09455317 -0.12823574 -0.0054309047 0.057928286 -0.1265899 0.19160058 0.05791197 -0.08750924
-0.44705114 -0.22536772 0.57856077 0.31579545 0.22391981 0.34222764 -0.3006353 -0.4186637
0.11601158 0.21907808 -0.15066488 0.02547309 0.012260746 -0.12910561 -0.51450425 0.06966816
0.11471132 -0.53893155 -0.5397817 -0.09763039 -0.13347483 -0.23348749 0.13751072 -0.17088765
-0.072023466 0.5255738 -0.23051293 -0.26048782 -0.30370453 0.27122644 0.074560165 -0.007234514
-0.099402025 -0.08006651 0.1232848 0.8090283 0.33055422 0.34835848 -0.04485501 -0.4207335
-0.50861776 -0.33230716 -0.05555474 0.008852021 -0.21577065 0.5022668 0.5641918 -0.62337285
0.14977731 0.5988182 -0.35767555 -0.2667403 0.16448855 -0.14865382 0.13414568 0.15670025
-0.64476585 -0.16174357 0.47879118 0.013983588 0.20054299 0.5009611 0.13075453 0.0004671031
-0.3834388 0.16696692 0.22985855 -0.16188057 -0.008625332 -0.037319846 -0.08696319 -0.23398428
-1.0464634 -0.6028102 -0.06379473 -0.7898964 -0.3745773 0.058577746 -0.26735517 -0.18836506
-0.5090874 0.21042742 0.41808906 -0.48475274 -0.3137162 -0.45585763 -0.22067156 -0.121662766
-0.36494985 0.090777166 0.6068507 0.3896393 -0.03328658 -0.21665369 -0.29586524 -0.19815564
-0.31994084 -0.43653986 0.15200743 0.42166933 0.6990371 -0.38828832 -0.04564367 -0.11420737
-0.5935034 -0.688436 -0.27446565 -0.123020366 -0.4722418 -0.54658526 0.58824635 0.4527272
0.7147253 -0.083060555 -0.11937492 -0.0741876 -0.02663339 0.012740111 0.08407377 -0.18777369

conv4.bias f4 [12]
00000000: d20a 1abe a8b3 993b efae 763d b6a0 b23d
00000010: a898 923d f34b 0cbd 2912 ce3c 142e 4abd
00000020: 035f c23d 0537 d6bd 1322 273c 6d68 8e3c
-0.1504319 0.004690606 0.060225423 0.087220594 0.07158023 -0.03425212 0.025155144 -0.04936035
0.09490778 -0.10459713 0.010200995 0.017383778

conv5.weight f4 [16, 12, 3, 3]
00000000: a6cc bf3e 5a87 253e b428 623d 1529 9cbd
00000010: a430 58be 1e57 64be f1c6 8f3e fb35 aa3e
00000020: b4fa d03e d978 16be 046d 453e 3b53 7c3e
00000030: 3a22 263e f7a5 563e 014b 4b3b dc07 92bd
00000040: ca63 21bd 02ad cb3d 95f5 9d3e 185e c53e
00000050: 0d21 2c3e c4ee 493e 3361 2b3e a8f1 86bd
00000060: 5d22 013f af0d 94bd 3354 77be 3ed5 a9be
00000070: 7287 dcbe b02f b5be b764 bfbd e152 c5be
00000080: 8b01 03bf 1da5 28bc a2d3 1ebe aba2 08be
00000090: 192a 09bf 3da2 06bf 59ac 7bbe 79ce a2bd
000000a0: 08ce bdbe 1d11 1ebf 97d9 03bf 2db7 41bf
000000b0: d651 3bbf 124a db3e a61b d43e 7a53 2d3f
000000c0: a0e1 a73d 1a60 733e f110 193f d284 27bf
000000d0: d0f0 0abf f320 33be 275a 78bd 1e67 85be
000000e0: 4d33 30be d1e8 14be c3d4 3bbe daf0 a6bd
000000f0: 90d7 a3be 750a abbe ab68 07be 29dd 8f3e
00000100: 5bef 02be 74fb babd 3b3b 293f ef78 aebc
00000110: c2ef 5fbe 47e6 b13d a158 59bc 3e83 b93e
00000120: d682 ad3d 1d0d 823e 831e debd 6d2e 3cbe
00000130: fe1d eabd 8d80 0bbf de21 0a3f d27c db3e
00000140: fa26 9fbd b79b 663e f872 863d 3974 963e
00000150: d677 e23e 5270 c23c b22f bf3e 03bd 1cbe
00000160: d94c abbe 6aad 1c3e 8e79 01bf dbc5 e7bd
00000170: 09a4 c2bd 3a97 acbe e40e 9e3e 2bb2 b43e
00000180: 1dc4 c4be a87c 713d d15b 1c3e 36c2 c9be
00000190: 3929 d3be e926 28bf b43f 47bf 1e0f 33bf
000001a0: 8628 16bf 7f85 4ebd 5e41 a33d 9e67 58bd
000001b0: 2048 40bd b662 43bd 06d0 83bd 2c45 143d
000001c0: 7378 e93d 8174 e8bd 215e 823e 6b9a 62bc
000001d0: e305 1dbf 6ece 2a3f c152 533f 26ad b33d
000001e0: c683 9ebd 75d5 9a3d 4ba4 c5bc 0d4b 043c
000001f0: 6007 933e 129f 253f 6394 63be ef8f 06bf
00000200: 2f64 84be 0bea 2bbe a1b4 143e 3f82 433d
00000210: a7dc 22bf 690d 84be cbb9 a13d 6006 ce3d
00000220: 0bf1 18be 3440 9fbe e77c 243e ed55 e4bd
00000230: b4ec 5bbe 9254 b83e 45d1 213f 84cf 883e
00000240: 0371 993d 0258 a7bd 7ca0 243f f500 17bf
00000250: 2d6d 1e3d 5f25 1d3f 1b64 373e 95cf 333e
00000260: 1a85 df3e 8b75 bfbd c91a 233f 0e6e 9b3e
00000270: 3b8b 35bf 4627 8fbe d486 95be 3ce7 e2be
00000280: 0914 7cbe 4625 0abe be1c ccbd ec25 dabe
00000290: 97f0 46bf 6929 53ba 79aa 9bbe f2bb 63bf
000002a0: d0e5 a33e 0de7 3bbe 8a14 1cbf 9b1c 6cbe
000002b0: 0b9d 813d 7fb5 84bd 9bd3 84be 9f64 10be
000002c0: 65bf 8fbe 1723 903e f08b 453e d13c 173e
000002d0: ee42 bb3d c8bf 0ebd a0d7 72be fc90 763e
000002e0: b76f 393e 2b75 1d3d eef8 cbbc 2bde 18bd
000002f0: 13cc b1bd be4a a63d 807d bd3e 25f8 f83e
00000300: 9b2d fcbe 8d03 123c 5930 4b3e 5590 813c
00000310: 5fc5 4dbd 2e78 c23d 4c92 21bf 1d73 46bf
00000320: c431 d03c d808 4fbe 13d2 33be 2cdd dd3e
00000330: 4504 c0bd 314a c83d 3143 d33e 903d 3fbf
00000340: 91f6 26bf 4f9d b0be 937b 92be 93ef 53bf
00000350: 07cc 35bf 108d 9d3c ba4f c6be b6f4 d53d
00000360: d628 d2bb fdbf 6d3e cb59 ce3e ffe8 9f3e
00000370: e349 b5bd 1796 fdbe 0b8a 713d 1760 0b3e
00000380: dbb8 2ebe 383f 003e f101 ee3d bc34 5a3e
00000390: 2e3e 433d 78f7 c53d 3414 973e 42c9 6cbe
000003a0: 3c24 9fbd 0b9b 053e b0c0 8cbf 7fd3 00bf
000003b0: 5eab dabe dc41 193e aca1 513e c8c9 513e
000003c0: 42f0 3e3d d910 74be 89a4 debc ac6e 043f
000003d0: 13f5 093f 14e5 623f 1e3b 48be 42e6 8f3b
000003e0: 65f4 443e 4817 fd3c f980 913e 9c4b c63e
000003f0: c12c fbbe 6c2d aebe 9e98 3abf b3ba 913e
0.37460822 0.16164914 0.0552146 -0.07625023 -0.21112305 -0.22298858 0.28081468 0.3324431
0.4081627 -0.14694537 0.19279867 0.24641125 0.16223994 0.20961748 0.0031020048 -0.07130405
-0.039401807 0.09945108 0.30851427 0.3854835 0.16809483 0.19719988 0.16736297 -0.06589061
0.5044306 -0.072291724 -0.24153213 -0.33170503 -0.43072087 -0.35387945 -0.09345382 -0.38539794
-0.5117423 -0.010293272 -0.15510419 -0.13343303 -0.5357986 -0.52591306 -0.24577464 -0.07949538
-0.37071252 -0.6174486 -0.5150389 -0.7567013 -0.73171747 0.4282995 0.41427344 0.677055
0.081973314 0.23767129 0.59791476 -0.6543704 -0.542737 -0.17493038 -0.06063285 -0.26055235
-0.1720707 -0.14541937 -0.18342881 -0.081514075 -0.320004 -0.33406416 -0.13223521 0.2809842
-0.1278662 -0.09129992 0.66106004 -0.0212979 -0.21868804 0.086865 -0.01326576 0.36232942
0.084722206 0.2540063 -0.108456634 -0.18377085 -0.11431502 -0.5449303 0.5395793 0.42868668
-0.07771106 0.22520338 0.06564897 0.29385546 0.44232053 0.0237352 0.37341076 -0.15306477
-0.33457068 0.15300527 -0.505761 -0.11317035 -0.095039435 -0.33709127 0.30870736 0.3529218
-0.38430873 0.058956772 0.152694 -0.39405984 -0.41242388 -0.6568437 -0.7783158 -0.6994494
-0.58655584 -0.05042028 0.07971452 -0.052833192 -0.046943784 -0.04770156 -0.06436162 0.03619878
0.11399927 -0.11350346 0.2546244 -0.013830761 -0.6133711 0.66721237 0.8254815 0.0877326
-0.077399775 0.07560245 -0.024126193 0.008074534 0.28716564 0.6469585 -0.22224574 -0.52563375
-0.25857684 -0.16788499 0.1452203 0.047731634 -0.6361794 -0.2579148 0.07896765 0.1005981
-0.149357 -0.3110367 0.16063271 -0.111492015 -0.21477014 0.36002022 0.63209945 0.26720822
0.074922584 -0.08171083 0.6430738 -0.58985835 0.038678337 0.6138515 0.17909281 0.17559655
0.43656236 -0.093485914 0.63712746 0.30357403 -0.70915574 -0.2795965 -0.29204428 -0.44317043
-0.24617018 -0.13490781 -0.0996642 -0.42607057 -0.7771086 -0.0008055182 -0.30403498 -0.88958657
0.3201127 -0.18349858 -0.6096884 -0.23057787 0.06328782 -0.0647993 -0.25942692 -0.14100884
-0.2807571 0.2815177 0.19291663 0.14769293 0.09143625 -0.034850866 -0.23715067 0.24078745
0.18109022 0.03844182 -0.024898972 -0.03732125 -0.08681502 0.08119725 0.3700981 0.4862682
-0.49253544 0.008911979 0.19842662 0.015815893 -0.050237056 0.09495579 -0.63113856 -0.775194
0.025414355 -0.20218217 -0.17560606 0.43332803 -0.09375814 0.09779776 0.412622 -0.7470331
-0.6521998 -0.34495017 -0.28609905 -0.82787436 -0.71014446 0.019232303 -0.38732702 0.104470655
-0.0064135594 0.23217769 0.40302882 0.3123245 -0.088519834 -0.49528572 0.05896954 0.13610874
-0.17062704 0.12524116 0.11621464 0.21309179 0.04766672 0.096663415 0.295076 -0.23123649
-0.07770583 0.13047425 -1.0996304 -0.5032272 -0.42708868 0.1496653 0.20471829 0.2048713
0.046615846 -0.23834552 -0.027178066 0.5173137 0.5388958 0.88630795 -0.19553801 0.0043914625
0.19233854 0.03089489 0.2841871 0.3872956 -0.49057582 -0.3401903 -0.72889125 0.28462753

conv5.bias f4 [16]
00000000: dc65 723d a4fa 123e cfc9 10bd 49cd 7cbd
00000010: 6071 87bd 70c6 583c f8c1 9cbd 3efb 983b
00000020: d299 dc3d d50f 9c3d e0b1 1fbd 07ae 04be
00000030: 8b21 d83d 7787 1e3d 5664 3abd 496d 4ebd
0.059179172 0.14353424 -0.03534871 -0.061719213 -0.066134214 0.013230905 -0.07654184 0.0046686223
0.107715264 0.07620207 -0.038987994 -0.12957011 0.10553273 0.038703408 -0.045505844 -0.05039719

conv6.weight f4 [10, 16, 3, 3]
00000000: def6 fabe 6f09 97be b91e c6be 5148 03bf
00000010: acb4 23be 9f53 0e3d 48e6 6a3e 2e62 de3e
00000020: 9747 ac3e c232 7b3c 7c5f d9be 8eef 67be
00000030: 2e95 0f3e fef3 02bf c179 1f3f 31f5 82be
00000040: e6dc a4be 063d b53e f0c2 6abd e50a 00bd
00000050: 56f1 393e 4745 07bf fd55 42bf 3a77 0cbf
00000060: e04a 29be 4667 00bf 4904 2dbf 1a14 f0be
00000070: a635 b2be c9ff 663d c127 90be 55fa 18be
00000080: 66d8 c4bd af7a 1fbf 5eb0 56bf dd5c 0cbf
00000090: cf24 263e d36b 5d3d 5eef 6d3e efd5 c33e
000000a0: e1a4 b1bd 21a6 193e f805 41bc 5afb 683e
000000b0: 4469 0f3e 9638 e23c fe79 c13e 857e 43be
000000c0: 3b10 91be 734e 8c3e 6b52 62bf 5862 f0bd
000000d0: 464f f03e c8fb 9d3e 4988 713e d5b8 123e
000000e0: 7f9f 5d3e 2db9 133f 305c 703e b0dd 17be
000000f0: 6696 343f 9939 5ebf 2c5b 1fbf 413c c63e
00000100: 6c2f fd3c b825 c6bd 3ccc f6be 5e12 6f3d
00000110: 81fd 01bf 5538 283e b5b0 0c3e fb8c 2ebf
00000120: fd1e c63d 789a 14be 55ea a3bf 1aef 79be
00000130: 6b19 af3e 3063 aabd 06a9 b7be 840d af3e
00000140: b619 a13e 7d47 d0be 6fcc cb3e a0f7 623e
00000150: daf5 77bf 633d b23e 5420 093e d8d5 53bf
00000160: 021c d23e a45e 5dbe f4a9 67be f601 7d3e
00000170: c843 9ebf 4241 67bf 18a1 4dbe a36e f63c
00000180: 91f2 c2be 0020 393e 6ae4 403f d894 25be
00000190: 2b99 bcbe 6ebf 73be 6a78 853e cf68 a43d
000001a0: 8faa 31bf e20b c03e 2ce0 b93e 9dbd 61bf
000001b0: aff1 85bd 4951 ed3d 0fa5 04bf c2be b33e
000001c0: d39e 94be f7c7 2ebf f46e 0b3f de84 0ebf
000001d0: 33a4 9839 4fb0 8c3e 6e37 113e 449f 4dbf
000001e0: 2a9f 22bf 15ea 193e 6056 893e e1d3 9abf
000001f0: dd9c c23d e15a 123f ac0e e9be 678a 2a3e
00000200: f5ae 7d3f 96d0 48be 1de3 ddbc 4324 1a3f
00000210: 8709 163e 13af eabe 469e c9be 4f5e f6bd
00000220: 7981 aabd 1ae8 d1be 4405 a0bc d89e 71bd
00000230: 0394 47bf ecd1 773e 7828 223e ecd5 103f
00000240: 0df4 6c3d 70ad 99bd 8181 11bb 7a44 0cbd
00000250: fa4d f9be 9c7a 61bd 083a 87be 9f58 36bd
00000260: 39d6 58be a449 dc3e e523 143f e173 f53e
00000270: 87bb 503e 6c39 50bc 3af7 57bf 7484 8a3e
00000280: 8432 74be babd f23d cddd 30bf 59a1 2bbf
00000290: d975 31bf fab2 0cbf cef6 34bf 3bef 7bbf
000002a0: 1173 793d fdae 01bf af6b ecbd 6bee d7be
000002b0: 17bc 15be 3513 1abf a661 033e b53a 69be
000002c0: 09aa c5be 7ebb 51bd 68cb 913e 4ceb dabe
000002d0: 8c0e 51bd 7f63 69be b44e ad3b c4f4 21be
000002e0: 66b2 75bd 9f48 713d dd1e 82bc 24f9 8a3d
000002f0: e964 92bf 744a 583c 821c 403e ee08 f6be
00000300: 021d d53d 0d66 f3bd e0e3 64bd 39ec 7f3e
00000310: 3552 ec3e 4a32 1b3f 789d 823e 42a8 b83e
00000320: d801 bc3e 74f4 293e 2ee6 9a3e 17bd 813e
00000330: 7ea0 1a3f d382 383f d742 4d3d ebb0 853e
00000340: 7855 48be 3c66 76be a229 1ebe ec69 71be
00000350: 8ace 6ebe ac3a 26bf 5564 d3be 0af9 49be
00000360: 0b86 6e3e 4c33 213e 2213 c63e 1488 ac3e
00000370: bdce 9e3d fd65 673e de0e 493e 54e7 fb3e
00000380: a6ec a53d 1024 793d dd27 8abe 98f0 88bd
00000390: 49a4 943e 94a6 d03d 2b09 f53b 4e51 af3e
000003a0: 6d08 013f a56c bd3a 6864 a7bd 9582 2abf
000003b0: 50be 22bf 3fba 79be 08da f2be d463 8abe
000003c0: 70cd 32be 4dd0 c6bd 125c 9a3d e72b 19bf
000003d0: 3cba 1abf dfa2 d2be 2290 1ebf 0be5 f7be
000003e0: 224f 9f3d 5a97 fbbe 229d c8be e505 96be
000003f0: 0c2b 4bbe 5423 273f 183c 4a3e a338 f6be
-0.4901647 -0.29499385 -0.38695315 -0.5128222 -0.1598689 0.034747716 0.22939408 0.4343428
0.3364837 0.015331926 -0.4245566 -0.22649977 0.14021751 -0.5115355 0.62295157 -0.2557769
-0.32199782 0.3539812 -0.057314813 -0.03126039 0.18158469 -0.52840084 -0.7591246 -0.54869425
-0.16532469 -0.5015758 -0.67584664 -0.46890336 -0.34806556 0.05639628 -0.2815533 -0.14939244
-0.09611587 -0.62296575 -0.83862865 -0.548292 0.16224979 0.054057907 0.23235843 0.38249156
-0.08674026 0.1500478 -0.011781208 0.22752133 0.14005 0.027614873 0.37788385 -0.19091232
-0.28332695 0.27403602 -0.8840701 -0.117375076 0.4693548 0.30856156 0.23587145 0.1432832
0.21642874 0.5770443 0.23472667 -0.14830661 0.7054199 -0.8680664 -0.6224849 0.38717845
0.030906402 -0.09675163 -0.48202693 0.058367126 -0.5077744 0.16427739 0.13739283 -0.6818387
0.09673879 -0.1451205 -1.2805887 -0.24407616 0.3419908 -0.083197 -0.35871142 0.3419
0.31464928 -0.4067954 0.39804408 0.22164774 -0.96859515 0.3481246 0.13391238 -0.82748175
0.41036993 -0.21618134 -0.22623426 0.2470778 -1.2364435 -0.9033395 -0.20080984 0.030082053
-0.38075688 0.18078613 0.7534853 -0.1617006 -0.36835608 -0.23803493 0.2606843 0.08027803
-0.69400877 0.37509066 0.36303842 -0.8817995 -0.06540238 0.115877695 -0.5181436 0.35106474
-0.29027423 -0.6827387 0.54466176 -0.5567149 0.00029114037 0.27478263 0.14181301 -0.80321145
-0.63524115 0.15030701 0.2682371 -1.209591 0.095025755 0.5716992 -0.45519006 0.16654359
0.9909509 -0.19610819 -0.027085835 0.6021158 0.14652072 -0.45836696 -0.39378566 -0.12029707
-0.08325476 -0.40997392 -0.01953376 -0.058989376 -0.7796022 0.24201173 0.1583575 0.5657642
0.057849932 -0.07503784 -0.0022202434 -0.03424499 -0.48692304 -0.05504857 -0.26411462 -0.04451811
-0.2117547 0.43024933 0.5786727 0.4793997 0.20384036 -0.012709003 -0.8436161 0.2705418
-0.23847395 0.11852594 -0.6908844 -0.6704307 -0.69320446 -0.54960597 -0.70689094 -0.9841191
0.06090075 -0.50657636 -0.115439765 -0.42174086 -0.14622532 -0.6018556 0.12830219 -0.22776301
-0.3860629 -0.051204197 0.284755 -0.42757642 -0.051039264 -0.22791861 0.005288923 -0.15816027
-0.059984587 0.058907147 -0.015883857 0.06785801 -1.1437045 0.013201345 0.18760875 -0.48053688
0.104059234 -0.11884699 -0.05588138 0.24992456 0.4615647 0.6062361 0.25510764 0.3606587
0.36720157 0.16597158 0.30253738 0.25339577 0.6040114 0.7207462 0.05011257 0.2611154
-0.19563854 -0.24062437 -0.15445569 -0.23575562 -0.23320976 -0.64933276 -0.41287485 -0.19723907
0.23293321 0.15742224 0.38686472 0.3369757 0.07754276 0.22597499 0.19634578 0.49199927
0.08101778 0.060825408 -0.26983538 -0.066865146 0.2903159 0.10188022 0.0074778995 0.34241718
0.5040348 0.0014451934 -0.08173448 -0.666055 -0.63571644 -0.24387453 -0.4743197 -0.27029288
-0.1746118 -0.09707699 0.07537092 -0.59832615 -0.6044042 -0.41139886 -0.6193868 -0.48416933
0.07778765 -0.4913891 -0.39182383 -0.29301372 -0.1984064 0.6528828 0.19749486 -0.48090085

conv6.bias f4 [10]
00000000: cb37 8abd 43d8 2d3e 747a 83be d65c fa3c
00000010: 3b20 023e f4cd 44be 7ccf 50bd 9d5b 883e
00000020: 817b f93d a55e 493c
-0.06748923 0.16977029 -0.25679362 0.030561846 0.12707607 -0.1921919 -0.050979123 0.26632395
0.121817596 0.012290631

bn1.weight f4 [4]
00000000: 505b 823f 38b8 593f 38cf f73f 3f7d 823f
1.0184116 0.8504672 1.9360113 1.0194472

bn1.bias f4 [4]
00000000: c628 32be 561f 793e d89d d0bd 295e ec3d
-0.17398366 0.2432836 -0.10186356 0.11541397

bn1.running_mean f4 [4]
00000000: 3e14 e13d 64a2 ab3e 7949 bcbe 194d 59be
0.10990189 0.33522332 -0.36774805 -0.21220817

bn1.running_var f4 [4]
00000000: 2a74 ab3f 17d0 e43f 9e34 d440 56b3 823f
1.3394825 1.7876004 6.631423 1.0210979

bn2.weight f4 [8]
00000000: 7b03 803f dee0 873f ab2f d43f 23f0 843f
00000010: 4281 6f3f 2e1e 923f 9377 6f3f 3729 a23f
1.0001062 1.0615499 1.6577047 1.0385784 0.93556607 1.141546 0.9354183 1.2668828

bn2.bias f4 [8]
00000000: 2e0c e93b 9bbd 83be 23f0 e63d 0d10 2fbe
00000010: f16b 83bd fc85 ce3d 6cce 91be f276 0c3e
0.0071120476 -0.25730595 0.11276271 -0.17095967 -0.064170726 0.10084149 -0.284778 0.13717249

bn2.running_mean f4 [8]
00000000: ce54 b03f d3d3 07c0 5b9e b5bf 0d5a 9abf
00000010: 0dc4 e1be 5c7b 9bc0 e187 9cbf ac10 153e
1.377588 -2.1223037 -1.4188951 -1.2058731 -0.44094887 -4.8588085 -1.2228967 0.14557141

bn2.running_var f4 [8]
00000000: c540 b440 55b8 8f40 a12a 8341 74f1 9640
00000010: 9614 5c40 ec8c 9e40 deb3 d33f 3c71 8e41
5.6329064 4.4912515 16.395815 4.7169743 3.4387565 4.9547024 1.6539266 17.80529

bn3.weight f4 [8]
00000000: d53b 923f d4d8 993f dd36 7d3f 5362 7c3f
00000010: 2962 a93f 40ce 823f 617b 8d3f 1499 cc3f
1.1424509 1.2019296 0.9891184 0.9858753 1.3233081 1.0219193 1.1053277 1.5984216

bn3.bias f4 [8]
00000000: 25ec 95be da98 60bd ebad 153e 46c2 823d
00000010: 59e7 a8be c3b2 cbbe c702 57be f062 96bc
-0.29281726 -0.05483327 0.14617126 0.06384711 -0.32989004 -0.39784822 -0.20997153 -0.018357724

bn3.running_mean f4 [8]
00000000: 08f3 d8bf 702f 9bbf 942d b03e aa2e 443f
00000010: b754 97bf 9a7d 113f c591 85bf 78d2 01c0
-1.6949167 -1.2123852 0.34409773 0.76633704 -1.1822728 0.5683228 -1.043511 -2.028471

bn3.running_var f4 [8]
00000000: f872 c040 aea9 1141 1bfb e640 3657 3341
00000010: 664f a840 4f65 9340 09a0 d240 fd74 f640
6.0140343 9.103926 7.2181525 11.208792 5.259692 4.606117 6.5820355 7.701781

bn4.weight f4 [12]
00000000: fe45 8e3f 4ccf 7c3f 41e7 7f3f f73e 8e3f
00000010: 5f38 a53f 8578 af3f 200e 843f ff74 8a3f
00000020: fec6 8f3f d497 8f3f cad8 843f 7e04 9f3f
1.111511 0.9875381 0.9996224 1.1112965 1.2907828 1.3708655 1.0316811 1.0816954
1.1232603 1.1218209 1.0378659 1.2423246

bn4.bias f4 [12]
00000000: 51a1 f4be a61e 07bf bb9c b0be 734b d2be
00000010: 8cc6 51bf 93c0 93be e1e1 a2bd 6e48 99be
00000020: d9f4 95be b4ab d5be 1148 5dbe 41f2 7ebf
-0.47779325 -0.5278114 -0.34494576 -0.41073188 -0.81943583 -0.2885786 -0.07953239 -0.29938072
-0.29288366 -0.41732562 -0.21609522 -0.995884

bn4.running_mean f4 [12]
00000000: 59ac 23c0 6ad7 ccbf 41d9 18c0 a833 f0bf
00000010: 5a1e 8ac0 b325 49c0 a522 673f 14b0 efbc
00000020: bc2d 38c0 fb88 1dc0 7e94 e6bf 2472 12c0
-2.5573943 -1.6003239 -2.3882601 -1.8765764 -4.316205 -3.142926 0.9028724 -0.029258765
-2.8777914 -2.4614856 -1.8014066 -2.2882166

bn4.running_var f4 [12]
00000000: ed06 e940 c1e4 c940 9d77 2141 0f8f 1b41
00000010: 2612 2e41 01f5 1f41 c68d 9041 a214 4441
00000020: a69f 3e41 93b4 3a41 4ab9 2241 ab2f 7f40
7.2820954 6.309174 10.091702 9.722426 10.879431 9.997315 18.069225 12.255037
11.913977 11.6690855 10.170237 3.9872844

bn5.weight f4 [16]
00000000: b6cb ba3f b5e0 c33f 9a54 b73f ca3e c33f
00000010: b245 d83f e23d bd3f ada4 c33f 5529 d53f
00000020: ccfd d13f d0a3 c33f bc0a d73f 7ec8 ec3f
00000030: 1e00 ae3f ce35 b63f e4be ab3f 9924 c03f
1.4593418 1.530295 1.4322693 1.5253537 1.6896269 1.478451 1.528463 1.6653239
1.6405578 1.5284367 1.6800151 1.8498685 1.3593786 1.423517 1.341763 1.5011169

bn5.bias f4 [16]
00000000: 7777 68be a9c6 4ebe 6486 c8be a0a1 64be
00000010: 662c b5be dfbb e1be 1dab 20be 8479 08bf
00000020: e282 b1bd c490 c0be 7fa0 8fbe b3db a6be
00000030: b1fb 65be e183 acbe a513 66be b1c6 f9bd
-0.22701822 -0.2019297 -0.39165032 -0.2232728 -0.35385436 -0.44088647 -0.15690275 -0.5331042
-0.08667542 -0.37610447 -0.28052136 -0.32589492 -0.22459294 -0.33694366 -0.22468431 -0.121961005

bn5.running_mean f4 [16]
00000000: 4ae0 a7bf c3c8 00c0 1eca 97bf b479 de3d
00000010: 735a 42c0 680a e8be 316e 49c0 b2e4 2fc0
00000020: 737d f8bf 2d78 66be 67c9 a0bf 0b0f a9be
00000030: 4f80 f1bf 4b86 1ac0 f597 8ebe a431 2dbf
-1.3115323 -2.0122535 -1.1858556 0.10863057 -3.0367706 -0.4532044 -3.1473505 -2.7483335
-1.9413284 -0.22506781 -1.2561463 -0.3301929 -1.8867282 -2.4144466 -0.2785031 -0.6765387

bn5.running_var f4 [16]
00000000: f9bf d940 7864 fb40 1be0 0a41 2192 0241
00000010: c22f 1641 8e62 c940 eb50 2241 0793 d540
00000020: 7f17 6e41 e19b 0041 c165 0041 2871 1041
00000030: b673 c840 128c f240 ab02 c240 eafe 1541
6.804684 7.8560143 8.679713 8.160676 9.38666 6.2932806 10.144755 6.6741977
14.880736 8.038056 8.024842 9.027626 6.264125 7.5795984 6.0628257 9.374735

conv1d_1.weight f4 [4, 8, 1]
00000000: 9da3 bc3e 5716 a0bd 8234 a1be cf63 80be
00000010: 7bce 0a3f b382 b03e 3fe2 fbbe 8132 88bf
00000020: 32c0 013f 472d 173f d72a 19bf bbc3 173f
00000030: fa9a 94be 9eb2 02be 1d0c 923e 3c8b 7fbe
00000040: 721b 12be b86f 013f f158 c63f fae7 a93c
00000050: 3fb2 d8bd 13f1 4cbe 65a2 313c 815b 663e
00000060: 90f7 75be ebb1 563d 12aa 95be 4a48 94be
00000070: 6893 f8be d609 633f 7515 08be 2169 a8be
0.36843577 -0.07816761 -0.31485373 -0.25076148 0.54221314 0.34474716 -0.4919605 -1.0640413
0.5068389 0.5905346 -0.59830993 0.59283036 -0.29024488 -0.1276345 0.28524867 -0.24955457
-0.14268282 0.50561094 1.5495893 0.020740498 -0.10580873 -0.20013838 0.0108419405 0.22495843
-0.24020219 0.05241577 -0.29231316 -0.28961402 -0.48549962 0.88686883 -0.13289435 -0.32892707

conv1d_1.bias f4 [4]
00000000: 9d6d 59be 619c 06be 70cc 4e3e 1812 83bd
-0.2123322 -0.13145591 0.20195174 -0.063999355

bn1d_1.weight f4 [4]
00000000: 988f 8b3f 24c4 933f 947b 823f 6ee6 8b3f
1.0903196 1.1544232 1.0193963 1.0929697

bn1d_1.bias f4 [4]
00000000: 290c e43e 12f7 153f 5fc4 823e 05df 73bc
0.44540527 0.58580124 0.25540444 -0.014884715

bn1d_1.running_mean f4 [4]
00000000: 612a 68bf e7fb 31be 4be4 e13f 0740 c9be
-0.90689665 -0.1738125 1.7647794 -0.3930666

bn1d_1.running_var f4 [4]
00000000: e111 0440 c184 f33f 9ca4 f23f f42b 973f
2.0635912 1.9024888 1.8956485 1.1810288
